DATN_LSTM_SMGW-main/rx_service/src/LSTM_model/LSTM_model_5_H2S.tflite (tflite, 185408 bytes, 17 tensors)

lstm_8/lstm_cell_3/bias f4 [320]
00000000: 58a9 efbe a902 bfbe a017 f4be 6fed 39bf
00000010: 5b59 d3be 1203 f7be 7b8c 81be a2e1 6abe
00000020: 870c a1bf 1ef9 1fbf 321f 5dbf 7a82 00bf
00000030: 26a2 01bf 2657 e8be af3f dfbe 20c3 06bf
00000040: a3de 0fbf 55c6 eebe 703b fabe a37f dcbe
00000050: b337 01bf ff0d f8be 2f55 dfbe b04e f0be
00000060: 4bde 18bf 17eb 21bf 087f 09bf 8fe0 fdbe
00000070: 080d e2be 0d7e 9ebe f343 07bf 4105 0bbf
00000080: 12bc c8be 0d10 ebbe 502d fabe 93d3 99be
00000090: 82f9 a9be 49ce 27bf f286 0ebf 1647 ffbe
000000a0: e051 d2be 982b 08bf fdf9 eebe 6640 13bf
000000b0: 4a09 1bbf 39e3 f2be 05f1 cabe 2a7f f4be
000000c0: 3559 dcbe ec80 ddbe b990 04bf e882 f9be
000000d0: b565 00bf e0a6 12bf 65ed 01bf ff89 edbe
000000e0: 7f33 0abf d8d5 f7be 902f c9be 9880 08bf
000000f0: 4fd5 ddbe f2e1 1dbf 6e7a f7be 25a8 f2be
00000100: f7cc 17bf ca1b f9be e334 11bf 2a60 11bf
00000110: 5721 edbe 0c80 0cbf a509 d3be 1c19 20bf
00000120: 84c5 01bf ddac 09bf d085 cfbe ff72 06bf
00000130: 9672 8fbf b531 efbe 63b1 f4be 09cf 12bf
00000140: f2b0 493f 043a 323f a4f0 3a3f 2609 083f
00000150: 479c 1d3f 89a2 413f 9117 3e3f 7d4e 103f
00000160: 3f5c 153e ffa4 7b3e ba24 be3e 3af8 4c3f
00000170: 02af 293f 7855 3b3f c603 543f 824b 383f
00000180: e2c8 313f e70a 3d3f 241b 4c3f 1694 363f
00000190: a1ff 363f 8b59 243f 5f1f 473f ea98 453f
000001a0: da5b 3b3f dc8a 5a3f 5f18 573f e5ae 473f
000001b0: b32e 393f 6c36 3f3f 912c 4e3f 52a1 503f
000001c0: 8324 4a3f 4e02 2e3f 2406 1f3f 1fd0 e73e
000001d0: 099c 0c3f 0f9a 223f c640 283f 68f7 793f
000001e0: bfc2 b33e 27eb 1f3f 952f 5f3f 2f8c 353f
000001f0: aa89 2e3f 1d8f 443f 384a 073f 8bef 553f
00000200: ff8a 293f 3151 183f ff78 1a3f 6572 3a3f
00000210: 59ff 493f 01d5 2d3f 6a96 5a3f 59a3 153f
00000220: d649 3d3f 4ca0 383f 058f 033f 3202 3b3f
00000230: 3c5e 303f 032f 303f 7a56 383f cdf4 4b3f
00000240: c63b 263f 324a 413f 632b 3f3f cc50 3a3f
00000250: 3413 373f 3f5f 463f 9ae9 443f 4113 293f
00000260: a46e 383f fda6 3b3f 8b95 5c3f 7449 453f
00000270: 0a3e 1a3e d9a7 003f 18bd 333f 43fc 393f
00000280: 60a9 12be 01e8 f3bd 5f45 eb3c 963a 4c3d
00000290: 3eb9 2f3e b3a8 123d e61b 553d b774 9e3d
000002a0: bf40 073d 09a2 c4bc c226 633d 86b4 723d
000002b0: 10f8 a2bd 1ed3 c33c 4fef 73bd 0123 af3d
000002c0: f3a7 903d 0d21 fd3c 6c4a 753d 186d 043e
000002d0: 5183 2abe f4b4 843d 518c d33d 0fff 8a3d
000002e0: f4bd abbd 3eb7 0a3d d3c4 6cbd 4097 243d
000002f0: 5ead d7bd 044a f03d 70f7 a73c e1ba 83bd
00000300: aec9 f53c 953f 49bd a8de 37bd 2b98 b4bc
00000310: 899e febd 83e0 203e c91e 8a3c bb3a ccbd
00000320: 899a c13d 5caf f7bb 13ba f03d 1c4e d0bc
00000330: 9f45 b23d b9f6 99bc ca7f 933d ba32 b93b
00000340: ec48 8e3b 837c 543e f98e 8e3d 9693 4f3d
00000350: 8aaf 613d 9618 833d 992a 5dbd b1d8 cebd
00000360: cb0b 653d f469 b8bd 4440 c0bd 0f18 b1bb
00000370: 520a b13d 0174 243d 207a 3c3d 0477 f53c
00000380: 51c7 01bd ff96 aabd 512e 863d 4a0a f6bd
00000390: 1f92 e53c 872a 2a3e 7eac 68bd 5420 ae3d
000003a0: a9a1 fabc 4157 523d 1d95 bfbc 876a 26be
000003b0: e16e 04bd 0de7 b7bc aed0 243d 45cd e3bb
000003c0: 3a3f ecbe 1dd6 0bbf ca9a 08bf 81cb 33bf
000003d0: 6988 dfbe b2d2 d9be a019 53be 47a8 e0be
000003e0: 1eb5 a1bf 8a73 28bf 3048 5fbf 7b21 eabe
000003f0: f422 13bf 1e5d 0abf ece6 c4be 9748 f7be
-0.46808887 -0.37306717 -0.47674274 -0.7262792 -0.4127911 -0.4824453 -0.2530249 -0.22937635
-1.2581948 -0.624895 -0.86375725 -0.5019909 -0.50638044 -0.4537899 -0.43603274 -0.5264149
-0.5619909 -0.4663569 -0.48873472 -0.4306613 -0.50475615 -0.48448178 -0.43619677 -0.46935034
-0.5971419 -0.63249344 -0.5370946 -0.49585387 -0.44150567 -0.30955544 -0.5283806 -0.5430489
-0.39205986 -0.45910683 -0.48862696 -0.3004423 -0.33198172 -0.6554914 -0.5567466 -0.49858922
-0.4107809 -0.5319152 -0.466751 -0.5752014 -0.6056105 -0.47438982 -0.39637008 -0.47753268
-0.4303681 -0.43262422 -0.5178333 -0.48732686 -0.5015519 -0.5728588 -0.5075286 -0.46394345
-0.53984827 -0.48405337 -0.392941 -0.5332122 -0.43326804 -0.6167289 -0.48335594 -0.4739391
-0.59297127 -0.48654014 -0.56721324 -0.5678736 -0.463145 -0.54882884 -0.41218296 -0.62538314
-0.5069201 -0.53779393 -0.40531778 -0.5251922 -1.1206844 -0.4671761 -0.47791585 -0.5734716
0.7878562 0.69619775 0.7302344 0.5313896 0.61566585 0.75638634 0.7425471 0.56369764
0.1458597 0.2457466 0.37137395 0.80066264 0.66282666 0.7317729 0.8281826 0.71990216
0.6944715 0.7384476 0.79728913 0.7131971 0.7148381 0.6419913 0.77782243 0.77186453
0.7318703 0.8536813 0.8402156 0.7800124 0.7233688 0.74692416 0.8053675 0.81496155
0.7896196 0.67972267 0.62118745 0.4527597 0.5492559 0.63516325 0.65723836 0.97643137
0.35109517 0.6246819 0.8718198 0.7091703 0.6817881 0.76780874 0.52847624 0.8356864
0.66227716 0.5949889 0.60340875 0.728308 0.78905255 0.67903143 0.85385764 0.58452374
0.7394079 0.72119594 0.51390105 0.73050225 0.6889379 0.68821734 0.7200695 0.7967041
0.6493496 0.7550384 0.7467558 0.72779536 0.71513677 0.77489084 0.7691895 0.66045004
0.72043824 0.7330168 0.86165684 0.77065206 0.15062729 0.50256115 0.7021041 0.72650546
-0.14322424 -0.119094856 0.028719602 0.04986056 0.17160508 0.035805415 0.05202856 0.07737105
0.03302073 -0.024003046 0.055456884 0.05925419 -0.079574704 0.02390438 -0.059554394 0.08551598
0.07063284 0.030899549 0.059885427 0.12932241 -0.16651656 0.064798266 0.103294976 0.0678693
-0.0838584 0.03386616 -0.057804894 0.040183306 -0.10531114 0.11732867 0.02050373 -0.06432129
0.030003395 -0.049132902 -0.044890076 -0.022045216 -0.12432582 0.15710644 0.016860383 -0.099721394
0.09453303 -0.0075587463 0.11754241 -0.02542787 0.087046854 -0.018794404 0.07202108 0.005651799
0.004342189 0.20750622 0.069608636 0.05067786 0.055099048 0.06401174 -0.053995702 -0.10099924
0.05591945 -0.09004584 -0.09387258 -0.0054044793 0.086445466 0.040149692 0.046014905 0.029963978
-0.031684224 -0.083295815 0.06551803 -0.12013681 0.028023778 0.16617785 -0.056805126 0.0850226
-0.030594664 0.051352743 -0.023386532 -0.16251574 -0.032332305 -0.02244904 0.040238075 -0.0069519603
-0.46141988 -0.54623586 -0.5336119 -0.702324 -0.4365876 -0.4254356 -0.20615244 -0.43878385
-1.2633398 -0.658013 -0.87219524 -0.4572867 -0.5747521 -0.54048336 -0.3845743 -0.4829757

lstm_7/lstm_cell_2/bias f4 [320]
00000000: 6b0c 36be 1b1f adbe 3b62 19be 23fd d9be
00000010: 3025 1b3e 8014 873e cc0e 84bd d4b4 213e
00000020: 9a2f 91be 9948 873d bdc9 58be e9fd 9bbe
00000030: 5b58 b2be d565 85bc 290e 13be 8cf2 1f3c
00000040: 1540 fa3d c4f5 b9bd 9f3f 7cbe c136 9abe
00000050: 81b5 ef3d 9fad c5be b64a c7bc dfdc 96bd
00000060: b081 04be 236a dabc a92a 12be 720f 65bd
00000070: fbe1 163e a947 2f3d af86 05bc 7c2a a23e
00000080: 8fec 34be eecc 783e e126 adbe 2a4f 9abe
00000090: 348d 913d 65e5 eb3e 3651 8cbe 38e6 74be
000000a0: 6749 e1bd 2301 7fbe dca5 6dbe acea c9be
000000b0: 45d2 c6be c3bc 88bd 30f2 44be f6e7 86be
000000c0: 5cbc 52be d046 03bb 160a 05bf 9b07 bebe
000000d0: fad2 93be 9d99 17bd 5f7a 9bbe 74a2 45be
000000e0: 4069 f63c 35c3 1f3e 41a8 183f 9afc cabe
000000f0: 82cc b2bd f508 c93e 65d4 c73d 2d4f 70bd
00000100: da07 5dbe 7dde 56be e519 c7be 6acc 3fbe
00000110: a14d debc ed63 a2bd 4707 cdbe 38cf 3b3e
00000120: f1f0 c6bd 6e5b 22be e148 a8be ad44 bbbe
00000130: 3467 e0be 482c 53bd d2c1 9cbe 9339 19be
00000140: e390 a73e 2a42 313f 4719 123f e6eb 723f
00000150: 6b56 023f 81d2 4c3f 4dea 733e da19 c63e
00000160: 6eae 7a3f f19b 153f 1e78 1f3f 1d98 823f
00000170: ca31 193f 3808 1e3f 874d 233f 0168 333f
00000180: f4d0 643f db2b e73e 183e 403f 003a 5b3f
00000190: 18ea 0a3f 5fa1 333f fa86 d93d e92d f63e
000001a0: a0ad 093f bd3e a53e ac35 433f bbe8 193f
000001b0: 127d bf3e 5a22 773f fa5e e33e e37c c03e
000001c0: 0753 2b3f d51f 4f3e 6170 193f c53b 5c3f
000001d0: caeb df3e b128 083f 5d5a fc3e d451 303f
000001e0: ae8e 173f 6e72 893f 1f7f 703f 2df9 4a3f
000001f0: 34bf 343f d048 c73e e6ad 1b3f 60c8 353f
00000200: 9bb3 483f ed50 213f 9ea3 5d3f 2937 313f
00000210: ca6d 513f ce8a 553f 44f8 313f ca0f fb3e
00000220: f3fa 4e3f 936f 173f e292 053f a320 573f
00000230: 5537 393f 3222 273f 8d4f e63e 1a18 303e
00000240: 1b9c 123f 3641 1f3f 2dad 293f 9fec 553f
00000250: 4ab0 5e3f 587a 183f 1eaf 223f 7551 d73e
00000260: 2df3 113f fbb3 1f3f 0766 403f 9c59 5b3f
00000270: cf30 613f e29f 9d3e edc0 333f 02d9 313f
00000280: 1c32 a3bc 8c34 b53d 8a53 7abe 710e c93c
00000290: 4f9d 06bd 03ff f3bd 5b36 a43c cc07 8bbd
000002a0: 26a5 063d beb3 1fbd 09da 39bd b3ea df3d
000002b0: 6ac7 94bd 1f16 83b8 6057 8c3c 9c0f b73d
000002c0: 768d cf3d 7036 0fbd 7166 2c3d 128e b63d
000002d0: eaf9 123e 6281 913d aed7 663d 4e69 fd3c
000002e0: 2b91 31bc 2f1b dc3a 89c6 7bbd 97f0 213d
000002f0: 71fb 383d 3887 303d d1b2 523d a91f 093d
00000300: 1894 a2bb ac13 c03d e5f2 a4bc 7d90 e3bc
00000310: a783 0abd 2589 b2ba bd65 87bd 2973 613c
00000320: 0602 283c 8b57 c13d a182 62bc 64ac c9bc
00000330: 50ed a1bc e709 b23d 3bb7 50bd 5ceb a63b
00000340: 451d d1bc 9c81 303d c30f 72bd ab98 b9bd
00000350: 1f54 e7bd 4215 19be 24c9 ec3d 1975 453c
00000360: 7a8b 4e3e 6d7e a53d 9ad4 ccbc 64ca 3ebe
00000370: 3a92 acbd 425c 0a3e 2bed 1dbb 2628 b83c
00000380: 2705 e2bc 45cc d23c 7086 6dbd 1f3a 1bbd
00000390: 5964 12bc 6efc aebd 422e 44bb 8c64 113c
000003a0: 408a 9ebd d317 023e e336 b83a 351f a43d
000003b0: 3636 953d 9c7e a4bd d5dd 8c3c a87d df3d
000003c0: d574 53be 7c02 b6be 040c dabd 71a2 b9be
000003d0: ff85 773d 3cc9 483e 40f9 35bd 7ba4 893e
000003e0: 22ab cdbe f5d1 3abd 3986 7cbd cfd9 78be
000003f0: 4724 b2be 49b4 81bd 8d6e 61be 864d 2dbe
-0.17778175 -0.33812794 -0.14978878 -0.4257594 0.15150905 0.26382828 -0.06448135 0.15791637
-0.2835663 0.06605644 -0.21170707 -0.30467156 -0.34833035 -0.016283909 -0.1436087 0.0097624175
0.12219254 -0.09080079 -0.24633645 -0.301199 0.11704541 -0.38609025 -0.024327617 -0.073663466
-0.12940097 -0.026661938 -0.14274086 -0.055922933 0.14734642 0.04279295 -0.008149787 0.31673038
-0.17668365 0.24296924 -0.33818725 -0.30138522 0.071070105 0.46073452 -0.2740571 -0.23915946
-0.110003285 -0.24902777 -0.23207802 -0.39436853 -0.38832298 -0.066766284 -0.19233012 -0.26348847
-0.20579666 -0.0020031221 -0.51968515 -0.37115178 -0.288719 -0.03701173 -0.303668 -0.19300252
0.030079484 0.1560181 0.59631735 -0.39645845 -0.08730413 0.39264646 0.09757308 -0.058669258
-0.21585026 -0.2098331 -0.38886943 -0.18730322 -0.027136626 -0.079292156 -0.40044615 0.18340766
-0.09713925 -0.1585519 -0.32868102 -0.36575833 -0.43828738 -0.0515559 -0.30616623 -0.14963369
0.32727727 0.69241583 0.5706982 0.948912 0.50913113 0.80008703 0.23819847 0.38691598
0.9792241 0.5844107 0.6229266 1.0202671 0.598416 0.6173129 0.6379017 0.7008057
0.8938134 0.45150647 0.7509475 0.85635376 0.5426345 0.7016811 0.10621448 0.48081902
0.53780556 0.32274428 0.7625377 0.60120744 0.3740011 0.9653679 0.444084 0.3759528
0.66923565 0.20226987 0.599371 0.860287 0.4373458 0.5318709 0.49287692 0.6887486
0.59202087 1.0738046 0.9394397 0.7928646 0.7060425 0.3892274 0.6081222 0.71008873
0.78399056 0.6301411 0.86577785 0.6922479 0.8180815 0.83414924 0.6951945 0.49035484
0.8085167 0.59154624 0.5217725 0.84034175 0.72350055 0.6528655 0.44982567 0.17196694
0.5726945 0.6220888 0.6627987 0.8356418 0.86987746 0.5956168 0.6354846 0.42054334
0.5701168 0.62384003 0.7515568 0.8568361 0.879651 0.30786043 0.70216256 0.6947175
-0.019921355 0.08847913 -0.2444593 0.024543019 -0.032864865 -0.11913874 0.02004545 -0.067885965
0.03287234 -0.038989775 -0.04537395 0.10933437 -0.07264598 -6.250687e-05 0.017131507 0.08938524
0.101344034 -0.034964025 0.042089883 0.089138165 0.14353147 0.07104756 0.056358032 0.030934002
-0.010837833 0.0016792769 -0.061468635 0.039536085 0.04516167 0.043097705 0.051440064 0.03347746
-0.004961502 0.09378752 -0.020135352 -0.027778858 -0.03381696 -0.0013621195 -0.06611202 0.0137603665
0.010254389 0.094405256 -0.01382509 -0.024618335 -0.01976648 0.08693295 -0.050955992 0.005093975
-0.025526652 0.043092355 -0.059097063 -0.09062322 -0.11295342 -0.14949515 0.11561802 0.012051844
0.20170394 0.080807544 -0.02500372 -0.18631893 -0.08426328 0.13511756 -0.0024097662 0.022480082
-0.027590347 0.025732169 -0.057989538 -0.037897225 -0.008935058 -0.08544241 -0.0029934798 0.00887407
-0.07741213 0.127044 0.0014054443 0.08013765 0.072857305 -0.08031961 0.017195622 0.10912639
-0.20650037 -0.3554877 -0.10646823 -0.36256745 0.060430523 0.19608015 -0.044427156 0.268833
-0.40169626 -0.045610387 -0.061651442 -0.24301837 -0.34793302 -0.06333215 -0.22014828 -0.16924104

lstm_6/lstm_cell_1/bias f4 [240]
00000000: 686a bcbd 4d85 273e d19c b4be b47f eebd
00000010: 0814 cb3e 2c6d 7bbd 5cd9 f3bd 4d70 3d3d
00000020: b7c1 a03e 23ff c73e 332b c0be b223 45be
00000030: 44fe fbbc f0be 053f dcfe 54bf e87d 36be
00000040: e45f b13e c127 b13e 7db4 b4be 4cfb 183f
00000050: 3163 343e 0b0e 083e 890b 113e e5f4 693d
00000060: a63f 85be 196e d13e 3dca 4a3e c0d8 bb3e
00000070: 3818 29be 6855 8f3e c720 0abc 35a3 0d3f
00000080: 8497 96be 28bc 313e db66 e73e 6f1d dd3d
00000090: 6486 c93e 27eb f83d 5b58 6c3e db4f 103e
000000a0: bd9a 1fbc 03f3 bf3d f780 983b 37bf 7b3e
000000b0: 664f 99be 04e5 093f 261f b93e aa76 b0bd
000000c0: a37e b2be 6b66 d23d 34c6 2b3f 1d13 57bf
000000d0: 77bc 0b3d 434c 863e c098 a5bd f8d6 af3e
000000e0: 5c6c 323e 8b81 3a3e b12b 313f 6f23 c63d
000000f0: 032b fa3e 7967 1d3f 6b48 e63e 7086 3a3f
00000100: b531 043f 0266 0c3f dc81 323f c53f 253f
00000110: f03e 1f3f 1167 213f 0f57 eb3e d92a 2a3f
00000120: 4a9f 3c3f 3d4b 093f 9603 b53d 45f5 213f
00000130: f057 103f 03d5 fb3e 7e4e 353f 0e0b 063f
00000140: 899f 173f 43a6 ff3e a2a0 203f 061f 153f
00000150: d6a8 373f d2b1 273f 666b 253f f754 113f
00000160: b3d5 513f 7a81 243f 6e4e 163f 4ef4 1d3f
00000170: dfb6 553f 8e41 263f bf3a 0e3f c31f 213f
00000180: 3142 253f 10db 213f a8ee 063f 5ab4 333f
00000190: d46b 0d3f 4911 123f 3fd8 253f 99e0 103f
000001a0: e7a0 5a3f 47d6 ef3e ac1d 1c3f 7d8e 343f
000001b0: 469e 613f 7e75 123f 9f01 073f 4cd9 723e
000001c0: 27cc 073f cfd2 183f be0c 343f 09e4 0e3f
000001d0: 4aa8 fa3e 7744 1b3f 6b9f 043f 225e 0a3f
000001e0: 764a 513d ee77 57bc 91a4 44bd e4f2 33bc
000001f0: 9782 623c 1498 6fbc 10c7 d23b 8061 153d
00000200: 28a4 48bd cb89 59bc 4961 eb3b 1aab 9b3c
00000210: 008c 5dbb 4698 513d 5cdb fd3c 1b21 0a3d
00000220: 8fa6 7d3c 6a7c d0bb 71b5 fdbc 8898 99bc
00000230: 1bdd 963c ee6b ebbb 5a31 853d baf0 e13c
00000240: cfbc cbbd 60ef 163d 12e5 2abd 7d39 a43c
00000250: bc30 893c 4ecc 86bc 1548 f23b d9e1 783c
00000260: b8a6 abbc e1f7 71bd 364e f9bb 8457 8c3c
00000270: 9ee0 d0bc e106 913d cc9b 0cbd d00a 973c
00000280: 3d4d 00bc 8689 33bd c58a 843c e93d 8ebc
00000290: 82b3 8dbd b7eb f33c 4c64 94bc 1116 78bd
000002a0: b0c7 49bc f338 05bd 7f85 22bd b565 eb3b
000002b0: 2eb5 8d3c f184 3fbc c27a e83c 7cde 053b
000002c0: 458b a33c 2bc2 97bc 6567 9f3c 4606 f2bc
000002d0: 1495 a5bd 8874 3d3e 6bac c0be 118f c9bd
000002e0: 8724 ce3e 715b eabc 0ea0 ccbd 15a3 583d
000002f0: 283e 933e d9e8 be3e e223 cebe 47f6 17be
00000300: 37e8 61bc 676d 183f 99c5 54bf 1165 32be
00000310: 1784 9c3e d783 803e 44f2 a6be 62de 3b3f
00000320: b79a 043e 2c6b 213e 0e2a 093e 7101 ad3d
00000330: 6116 2bbe 77cb ea3e d38f 2b3e 702e bd3e
00000340: 3a0c 5bbe 09f0 983e 2602 b63c b92b 123f
00000350: 6197 0bbe a11b 153e 7acd 0b3f 219a e03d
00000360: da51 bc3e e8c2 9f3e 1418 813e becb 233e
00000370: 98fb 0e3d ab9e 0e3e 879b d43c cc37 8e3e
00000380: 161a 84be 9eea 553f a9a4 cb3e f5a7 a93b
00000390: ffc3 bfbe d29c dc3e b5ff 383f e65d 4fbf
000003a0: b7ff 243d 93a4 713e 7a92 adbc bf16 be3e
000003b0: 1dd1 343e 95e9 3b3e df24 663f 6c73 ef3d
-0.09199983 0.16359444 -0.3527589 -0.11645451 0.3966372 -0.06138341 -0.119066924 0.046249676
0.31397793 0.3906184 -0.37532958 -0.19251898 -0.030760892 0.5224447 -0.83201385 -0.17821467
0.3464347 0.34600642 -0.35293952 0.5975845 0.17615964 0.13286607 0.14164557 0.057118315
-0.26025122 0.4090431 0.1980371 0.36688805 -0.16513145 0.27994847 -0.008430666 0.5532716
-0.29412472 0.17356932 0.4519566 0.1079663 0.39360344 0.12154227 0.2308058 0.14092962
-0.009741482 0.09372523 0.0046540457 0.24584661 -0.2994339 0.53865075 0.36156577 -0.086163834
-0.3486224 0.10273441 0.6709931 -0.8401354 0.03411528 0.26230058 -0.080857754 0.34343696
0.17424148 0.18213479 0.6920729 0.09674727 0.4886094 0.6148601 0.44977126 0.72861385
0.51638347 0.5484315 0.697294 0.6455043 0.6220541 0.6304789 0.45964858 0.6647163
0.73680556 0.5363043 0.088385746 0.63264877 0.5638418 0.49185953 0.70822895 0.5236062
0.59227806 0.49931535 0.62745106 0.58250463 0.71742 0.6550571 0.64617 0.5677027
0.81966704 0.64260066 0.58713424 0.61700904 0.83482164 0.6494378 0.5555839 0.6293909
0.64554125 0.6322489 0.5270791 0.7019707 0.5524266 0.57057625 0.6478309 0.5659271
0.8540177 0.46843168 0.60982776 0.7052992 0.8813213 0.5721053 0.5273685 0.23715705
0.53045887 0.5969667 0.70331943 0.55816704 0.4895652 0.60651344 0.5180575 0.54049885
0.051096402 -0.013151152 -0.048008505 -0.010983203 0.01382508 -0.014623661 0.0064324215 0.036469936
-0.048984677 -0.013277481 0.007183228 0.019002486 -0.003380537 0.05117061 0.030988388 0.033722978
0.015481605 -0.0063624876 -0.030970307 -0.01874949 0.018415978 -0.007184497 0.06503554 0.027580608
-0.09948122 0.03684938 -0.041722365 0.020046944 0.016746871 -0.016454842 0.0073938468 0.015190565
-0.020953521 -0.059074286 -0.0076082004 0.017131574 -0.02549773 0.0708139 -0.034328267 0.018437773
-0.007830915 -0.043832324 0.016179452 -0.017363505 -0.06919004 0.029775484 -0.018114232 -0.06056792
-0.012315676 -0.032525014 -0.039678093 0.0071837553 0.017298307 -0.011689411 0.028378848 0.00204268
0.01996387 -0.018525204 0.019458482 -0.029544007 -0.08085075 0.18501484 -0.37631544 -0.09841741
0.40262243 -0.028608056 -0.099914655 0.052889902 0.2875836 0.37287024 -0.4026175 -0.14840041
-0.0137882745 0.59541935 -0.8311401 -0.17421366 0.30569527 0.25100586 -0.3260671 0.73386204
0.12949644 0.15763539 0.13394949 0.084475406 -0.16707756 0.45858356 0.16754083 0.36949492
-0.21391383 0.29870632 0.022217821 0.57097965 -0.13631965 0.14561321 0.5461041 0.10966898
0.36781198 0.3120339 0.25213683 0.1599569 0.034907907 0.13927715 0.025953067 0.27776945
-0.25801152 0.8356112 0.39774063 0.0051774927 -0.3745422 0.43088394 0.7226518 -0.8100265
0.04028293 0.23597936 -0.02118801 0.3712673 0.17657895 0.18350823 0.8990001 0.11691937

lstm_5/lstm_cell/bias f4 [240]
00000000: e3a0 7a3e 46e7 793f 3a72 86be eb6c 2b3f
00000010: f503 de3e 8d61 40be 0ed4 49be 20e4 263f
00000020: 3f49 853e 04a7 823f fadc 6c3f 9dc3 403e
00000030: a385 62bd 6643 e53d e73e 973d 76d2 a1bd
00000040: 723f 303f 559e 413f 67ca 033f 4ba9 ef3e
00000050: da87 0dbe b407 4abf 8962 cc3d 79bf 413e
00000060: 1bfc 0b3f 5ef7 923e 20b7 d53e 85cd 2f3e
00000070: 6667 d73e 050e 213f c72a b13e 40b6 a2be
00000080: 41df 2d3f 8b16 20bf b62b 2b3f 4cb8 42bd
00000090: b858 523e 8fa4 293e fe27 833f 22eb 4c3e
000000a0: 4ffc f03e 33fd a93e 3395 e53e 1079 21be
000000b0: 73ba 043f e943 1b3f eb4f c6be 7de5 91be
000000c0: 2c03 85be cc16 1f3f 0e25 2ebf 2a97 163f
000000d0: e8f5 70be fa57 1b3f 92b3 b73e 0ff3 013f
000000e0: dbaa 233f 2764 30bf d955 303e 233f 803f
000000f0: cca6 733e 8367 053f ed84 fb3e 9cde de3e
00000100: d766 ea3e 612a 883e d9a9 063f 1673 d43e
00000110: 5d1d c13e fd8f fe3e c72a df3e ce8b d73e
00000120: a755 5a3e ad0c b43e c9ba a53e 130b 4e3f
00000130: c417 b03e ff78 df3e 5a43 fa3e 2911 873e
00000140: ae45 d63e 0e76 a83e daaf e23e 8129 ce3e
00000150: 5a97 c83e 353b a83e 2266 783e 3688 d23e
00000160: 9a9b 603e 91da d53e b987 d23e ddda a43e
00000170: 49e0 db3e 6bd6 9f3e a687 963e 416a c13e
00000180: 578a e23e 8950 973e b092 d53e b34c e93e
00000190: aa01 a83e 8354 df3e 04fd ef3e 1feb ab3e
000001a0: a99a f63e 2d47 063f c15f 8b3e cf81 c03e
000001b0: a18f ad3e d620 b93e c689 dd3d 37ff bf3e
000001c0: d8fa c13e 8401 f63e 3a73 ca3e 80c2 cd3e
000001d0: ae52 ff3e 84f4 993d e71e bd3e 3385 133f
000001e0: db45 c23d 60d6 0d3e bc70 63bd 7092 00be
000001f0: 45ce f53d 4406 8dbd ea5a 9abd 9033 003e
00000200: c6c9 ef3d c62c 0abe 94e3 0dbe 37ed e2bd
00000210: 8375 b0bd 9f7b c4bd 6068 c8bd 52e3 cb3c
00000220: 8e78 dd3d 9023 fdbd d06b 033e 9fca f1bd
00000230: 39a5 573d 9821 acbc bb3e e5bd b676 b7bd
00000240: 223b f8bd 0f43 c83d 1b27 e9bd 483d 01be
00000250: 0bdb e3bd adda 003e 37ff e8bd 5f7b 9dbd
00000260: 0646 003e 8147 a3bc 0426 0abe 376d a3bd
00000270: d7da e3bd fdb6 cdbd 02cb 073e 69fe babd
00000280: 5701 fabd eb16 d53d d1f4 ea3d 406b b23d
00000290: 6dae fabd 343c 083e 4ae3 9c3d 92ce 96bd
000002a0: 665f 52bd ceaa f73d 9553 8d3d 2d31 f7bd
000002b0: b64c babd 18d4 07be 6c7e ccbd ba73 f93d
000002c0: 1802 f93d 363e 60bd 9dd2 f43d a356 053e
000002d0: b61e 843e 9aba 7b3f 2e1f 85be 383d 2b3f
000002e0: c747 dc3e 1e8a 41be 49c6 3ebe bf7f 353f
000002f0: cd70 843e f78c 803f 3e36 703f ac47 3b3e
00000300: 0f4c 59bd 085e f33d d1df 953d 6854 b5bd
00000310: ecb0 393f 39f4 4b3f 3ac0 043f fa36 f93e
00000320: 3202 09be 1519 49bf 678c ab3d c1f5 453e
00000330: 8247 0d3f 0b15 943e ed6a d33e bccc 363e
00000340: 952e e13e 7751 243f e1ce b03e 756c a6be
00000350: e6d2 2d3f c101 1fbf 948e 2d3f d0f4 42bd
00000360: e87d 543e 9d1b 2f3e 6bd7 833f 5ea3 583e
00000370: d288 f93e ef14 ab3e 90bf e73e f9fb 17be
00000380: db4c 063f 698d 1c3f a46a c9be e0e2 92be
00000390: 2b66 8dbe 7702 293f e818 2ebf 5125 1d3f
000003a0: 3cf1 73be 5391 193f e476 b53e 0cc1 033f
000003b0: ac40 273f 6e7b 2fbf ee95 303e 05a6 823f
0.24475436 0.9761852 -0.26259023 0.6696307 0.43362394 -0.18787213 -0.19709799 0.6519184
0.26032445 1.0207219 0.92524683 0.1882462 -0.055303227 0.11194496 0.073850445 -0.0790147
0.6884681 0.7563222 0.51480716 0.46808848 -0.13821355 -0.78918004 0.099797316 0.18920697
0.5468156 0.2870435 0.41741276 0.17168243 0.42071074 0.6291202 0.3460295 -0.3177967
0.67918783 -0.625344 0.6686357 -0.04753904 0.20541656 0.1656668 1.024658 0.20011571
0.47067496 0.33200988 0.44840392 -0.15768838 0.51847 0.606505 -0.38732848 -0.28495398
-0.25978982 0.6214416 -0.6802529 0.5882441 -0.23531306 0.60681117 0.3587919 0.50761503
0.6393258 -0.6890282 0.17220248 1.0019268 0.23794097 0.5211107 0.49124852 0.43529212
0.45781586 0.26594833 0.52602917 0.41494054 0.37717715 0.4971923 0.43587324 0.4209885
0.21321736 0.3516592 0.32369068 0.8048565 0.34393132 0.43647 0.4887951 0.2638028
0.41850036 0.3290257 0.4427479 0.4026604 0.39177972 0.3285767 0.2425771 0.41119546
0.21934357 0.41768315 0.41119173 0.3219823 0.42944553 0.31218275 0.29400367 0.37776378
0.4424617 0.2955363 0.41713476 0.4556633 0.3281377 0.43619165 0.46872723 0.3357782
0.4816487 0.52452356 0.27221492 0.37599036 0.33898643 0.36157864 0.10817294 0.374994
0.3788669 0.4804803 0.39541036 0.40187454 0.49867767 0.07517341 0.3693764 0.5762512
0.0948598 0.13851309 -0.055527434 -0.12555861 0.120022334 -0.06885961 -0.07536872 0.1251967
0.11708407 -0.13493642 -0.13856345 -0.110804014 -0.086161636 -0.09593891 -0.09785533 0.024888668
0.108140096 -0.12360299 0.12834096 -0.11806225 0.052647803 -0.021012112 -0.111936055 -0.08958189
-0.12120654 0.097784154 -0.11384412 -0.12621033 -0.111257635 0.12583418 -0.11376803 -0.07689547
0.12526712 -0.019931557 -0.13491064 -0.079798155 -0.11125725 -0.10044668 0.13261035 -0.09130556
-0.12207287 0.10404762 0.11472476 0.087118626 -0.122403 0.13304216 0.076605394 -0.07363619
-0.05136051 0.12093125 0.06900708 -0.120699264 -0.09096663 -0.13264501 -0.099850506 0.12180276
0.121586025 -0.05474683 0.11954234 0.1302133 0.2580468 0.98331606 -0.2600035 0.6689029
0.43023512 -0.18900344 -0.18630327 0.7089805 0.2586731 1.0043019 0.93832767 0.1828906
-0.05305105 0.118831694 0.0731808 -0.0885399 0.72535586 0.7966953 0.51855814 0.48674756
-0.13379744 -0.785539 0.08376389 0.19332029 0.5518724 0.28922305 0.41292515 0.17851537
0.43980852 0.64186805 0.34532836 -0.3250462 0.6789993 -0.6211205 0.6779568 -0.047596753
0.20751154 0.17100377 1.0300115 0.2115607 0.48737198 0.3341441 0.45263338 -0.14842214
0.5246102 0.61153275 -0.39339173 -0.28688717 -0.2761701 0.66019386 -0.68006754 0.61385065
-0.23822492 0.5998737 0.3544227 0.5146644 0.65333056 -0.68547714 0.17244694 1.0206915

std.constant7 f4 [1, 80]
00000000: 3ce4 d3bc e639 b5bc 1965 163d 2700 0c3c
00000010: 951f bfbc e9ce 433d ca4c 053d b69b 573d
00000020: c87a 72bc 5a4b 3c3d 6579 1d3c 33ac fe3c
00000030: 3408 94bb f0d1 143d 2ed3 10bd 4950 513d
00000040: 56aa ca3c 4b6a 5e3d 9f2a ed3c 9ea8 3b3d
00000050: ee17 5cbc efb8 433d c408 823d f638 523d
00000060: cb06 2ebd 5856 a33b e613 1ebd c7f7 2c3d
00000070: 4232 13bd db82 04bc ea07 623d b3f9 19bd
00000080: b84b f23c 496f 6fbd 4b13 37bd c844 89bd
00000090: 41b2 00bd 2c87 013c f9e1 b43c 4270 3c3c
000000a0: 1f64 873d 3119 2abd 794b 203d 4f4b 1cbd
000000b0: 1566 2c3d 0858 35bd cd90 733d e374 5a3d
000000c0: dcb0 603d 1c68 ccbc 92bf 083d 83c8 0c3d
000000d0: 5172 193d e307 0f3d 2e3f 08bd 7df1 f7bc
000000e0: eac9 163d 9c04 11bd 0f07 01bd 60df bfbc
000000f0: 268d 743d dd3f 543d 120c 993c 7412 273d
00000100: bec1 44bd c03f bcbc e56b 0b3d 9c92 98bc
00000110: 77c0 203d 1448 f0ba b88e 30bd 1533 21bc
00000120: 4ecc 10bd b734 053d e689 2fbd c076 f5bc
00000130: 5a5a 8d3c a72d 27bd af1a 643d 48d7 0cbd
-0.025865667 -0.022122335 0.036717508 0.008544958 -0.02333049 0.047804747 0.032543935 0.052638732
-0.014799781 0.0459703 0.009611462 0.03108797 -0.0045175795 0.036333025 -0.035357647 0.051101957
0.024739426 0.054300588 0.028950987 0.045815103 -0.01343344 0.04778379 0.06349328 0.051323853
-0.042486947 0.004984658 -0.038593195 0.042228486 -0.0359366 -0.008087839 0.05518333 -0.037591647
0.029577121 -0.05845574 -0.044696134 -0.06702572 -0.031419996 0.007905763 0.022080408 0.011501374
0.066108935 -0.04152793 0.039134476 -0.038157757 0.04208954 -0.044273406 0.059464265 0.053334128
0.054856166 -0.024951987 0.03338582 0.03437091 0.037462536 0.03491963 -0.033263378 -0.030266518
0.036813654 -0.035404786 -0.031500872 -0.023421943 0.059704922 0.051818717 0.018682513 0.040789083
-0.04803633 -0.022979617 0.034038443 -0.018624596 0.03924605 -0.0018332028 -0.043104857 -0.009838839
-0.03535109 0.032520976 -0.04285612 -0.029963851 0.017254997 -0.04081502 0.05568951 -0.034384996

lstm_5/lstm_cell/bias1 f4 [240]
00000000: e3a0 7a3e 46e7 793f 3a72 86be eb6c 2b3f
00000010: f503 de3e 8d61 40be 0ed4 49be 20e4 263f
00000020: 3f49 853e 04a7 823f fadc 6c3f 9dc3 403e
00000030: a385 62bd 6643 e53d e73e 973d 76d2 a1bd
00000040: 723f 303f 559e 413f 67ca 033f 4ba9 ef3e
00000050: da87 0dbe b407 4abf 8962 cc3d 79bf 413e
00000060: 1bfc 0b3f 5ef7 923e 20b7 d53e 85cd 2f3e
00000070: 6667 d73e 050e 213f c72a b13e 40b6 a2be
00000080: 41df 2d3f 8b16 20bf b62b 2b3f 4cb8 42bd
00000090: b858 523e 8fa4 293e fe27 833f 22eb 4c3e
000000a0: 4ffc f03e 33fd a93e 3395 e53e 1079 21be
000000b0: 73ba 043f e943 1b3f eb4f c6be 7de5 91be
000000c0: 2c03 85be cc16 1f3f 0e25 2ebf 2a97 163f
000000d0: e8f5 70be fa57 1b3f 92b3 b73e 0ff3 013f
000000e0: dbaa 233f 2764 30bf d955 303e 233f 803f
000000f0: cca6 733e 8367 053f ed84 fb3e 9cde de3e
00000100: d766 ea3e 612a 883e d9a9 063f 1673 d43e
00000110: 5d1d c13e fd8f fe3e c72a df3e ce8b d73e
00000120: a755 5a3e ad0c b43e c9ba a53e 130b 4e3f
00000130: c417 b03e ff78 df3e 5a43 fa3e 2911 873e
00000140: ae45 d63e 0e76 a83e daaf e23e 8129 ce3e
00000150: 5a97 c83e 353b a83e 2266 783e 3688 d23e
00000160: 9a9b 603e 91da d53e b987 d23e ddda a43e
00000170: 49e0 db3e 6bd6 9f3e a687 963e 416a c13e
00000180: 578a e23e 8950 973e b092 d53e b34c e93e
00000190: aa01 a83e 8354 df3e 04fd ef3e 1feb ab3e
000001a0: a99a f63e 2d47 063f c15f 8b3e cf81 c03e
000001b0: a18f ad3e d620 b93e c689 dd3d 37ff bf3e
000001c0: d8fa c13e 8401 f63e 3a73 ca3e 80c2 cd3e
000001d0: ae52 ff3e 84f4 993d e71e bd3e 3385 133f
000001e0: db45 c23d 60d6 0d3e bc70 63bd 7092 00be
000001f0: 45ce f53d 4406 8dbd ea5a 9abd 9033 003e
00000200: c6c9 ef3d c62c 0abe 94e3 0dbe 37ed e2bd
00000210: 8375 b0bd 9f7b c4bd 6068 c8bd 52e3 cb3c
00000220: 8e78 dd3d 9023 fdbd d06b 033e 9fca f1bd
00000230: 39a5 573d 9821 acbc bb3e e5bd b676 b7bd
00000240: 223b f8bd 0f43 c83d 1b27 e9bd 483d 01be
00000250: 0bdb e3bd adda 003e 37ff e8bd 5f7b 9dbd
00000260: 0646 003e 8147 a3bc 0426 0abe 376d a3bd
00000270: d7da e3bd fdb6 cdbd 02cb 073e 69fe babd
00000280: 5701 fabd eb16 d53d d1f4 ea3d 406b b23d
00000290: 6dae fabd 343c 083e 4ae3 9c3d 92ce 96bd
000002a0: 665f 52bd ceaa f73d 9553 8d3d 2d31 f7bd
000002b0: b64c babd 18d4 07be 6c7e ccbd ba73 f93d
000002c0: 1802 f93d 363e 60bd 9dd2 f43d a356 053e
000002d0: b61e 843e 9aba 7b3f 2e1f 85be 383d 2b3f
000002e0: c747 dc3e 1e8a 41be 49c6 3ebe bf7f 353f
000002f0: cd70 843e f78c 803f 3e36 703f ac47 3b3e
00000300: 0f4c 59bd 085e f33d d1df 953d 6854 b5bd
00000310: ecb0 393f 39f4 4b3f 3ac0 043f fa36 f93e
00000320: 3202 09be 1519 49bf 678c ab3d c1f5 453e
00000330: 8247 0d3f 0b15 943e ed6a d33e bccc 363e
00000340: 952e e13e 7751 243f e1ce b03e 756c a6be
00000350: e6d2 2d3f c101 1fbf 948e 2d3f d0f4 42bd
00000360: e87d 543e 9d1b 2f3e 6bd7 833f 5ea3 583e
00000370: d288 f93e ef14 ab3e 90bf e73e f9fb 17be
00000380: db4c 063f 698d 1c3f a46a c9be e0e2 92be
00000390: 2b66 8dbe 7702 293f e818 2ebf 5125 1d3f
000003a0: 3cf1 73be 5391 193f e476 b53e 0cc1 033f
000003b0: ac40 273f 6e7b 2fbf ee95 303e 05a6 823f
0.24475436 0.9761852 -0.26259023 0.6696307 0.43362394 -0.18787213 -0.19709799 0.6519184
0.26032445 1.0207219 0.92524683 0.1882462 -0.055303227 0.11194496 0.073850445 -0.0790147
0.6884681 0.7563222 0.51480716 0.46808848 -0.13821355 -0.78918004 0.099797316 0.18920697
0.5468156 0.2870435 0.41741276 0.17168243 0.42071074 0.6291202 0.3460295 -0.3177967
0.67918783 -0.625344 0.6686357 -0.04753904 0.20541656 0.1656668 1.024658 0.20011571
0.47067496 0.33200988 0.44840392 -0.15768838 0.51847 0.606505 -0.38732848 -0.28495398
-0.25978982 0.6214416 -0.6802529 0.5882441 -0.23531306 0.60681117 0.3587919 0.50761503
0.6393258 -0.6890282 0.17220248 1.0019268 0.23794097 0.5211107 0.49124852 0.43529212
0.45781586 0.26594833 0.52602917 0.41494054 0.37717715 0.4971923 0.43587324 0.4209885
0.21321736 0.3516592 0.32369068 0.8048565 0.34393132 0.43647 0.4887951 0.2638028
0.41850036 0.3290257 0.4427479 0.4026604 0.39177972 0.3285767 0.2425771 0.41119546
0.21934357 0.41768315 0.41119173 0.3219823 0.42944553 0.31218275 0.29400367 0.37776378
0.4424617 0.2955363 0.41713476 0.4556633 0.3281377 0.43619165 0.46872723 0.3357782
0.4816487 0.52452356 0.27221492 0.37599036 0.33898643 0.36157864 0.10817294 0.374994
0.3788669 0.4804803 0.39541036 0.40187454 0.49867767 0.07517341 0.3693764 0.5762512
0.0948598 0.13851309 -0.055527434 -0.12555861 0.120022334 -0.06885961 -0.07536872 0.1251967
0.11708407 -0.13493642 -0.13856345 -0.110804014 -0.086161636 -0.09593891 -0.09785533 0.024888668
0.108140096 -0.12360299 0.12834096 -0.11806225 0.052647803 -0.021012112 -0.111936055 -0.08958189
-0.12120654 0.097784154 -0.11384412 -0.12621033 -0.111257635 0.12583418 -0.11376803 -0.07689547
0.12526712 -0.019931557 -0.13491064 -0.079798155 -0.11125725 -0.10044668 0.13261035 -0.09130556
-0.12207287 0.10404762 0.11472476 0.087118626 -0.122403 0.13304216 0.076605394 -0.07363619
-0.05136051 0.12093125 0.06900708 -0.120699264 -0.09096663 -0.13264501 -0.099850506 0.12180276
0.121586025 -0.05474683 0.11954234 0.1302133 0.2580468 0.98331606 -0.2600035 0.6689029
0.43023512 -0.18900344 -0.18630327 0.7089805 0.2586731 1.0043019 0.93832767 0.1828906
-0.05305105 0.118831694 0.0731808 -0.0885399 0.72535586 0.7966953 0.51855814 0.48674756
-0.13379744 -0.785539 0.08376389 0.19332029 0.5518724 0.28922305 0.41292515 0.17851537
0.43980852 0.64186805 0.34532836 -0.3250462 0.6789993 -0.6211205 0.6779568 -0.047596753
0.20751154 0.17100377 1.0300115 0.2115607 0.48737198 0.3341441 0.45263338 -0.14842214
0.5246102 0.61153275 -0.39339173 -0.28688717 -0.2761701 0.66019386 -0.68006754 0.61385065
-0.23822492 0.5998737 0.3544227 0.5146644 0.65333056 -0.68547714 0.17244694 1.0206915

std.constant15 i1 [240, 60] scale=0.008445683 zero_point=0
00000000: 1235 fdf4 0a13 000b 0fdc e0f4 f600 fff4
00000010: 15dc 19f9 fbec 03f2 f10f f6eb fc17 f4eb
00000020: fbfe f309 eff0 22f0 ecfb fa04 e805 07fc
00000030: 001d 0ee4 01f7 fa03 0ff3 0920 0145 3bef
00000040: 0ac4 455b f5d6 ef14 010a 11b2 54dd f78b
00000050: d63e 3402 ac1e ff15 d20c f928 08bd fca5
00000060: 1816 7f16 ecf2 f727 e91e 3e30 1a25 12cb
00000070: 1e10 f6f9 1fdc e616 030f fcdc 08fd ec0a
00000080: 11fc fff0 0ddd df0a f8f3 060d 1803 d7ff
00000090: 0e10 f5e7 fe0c 04ee 0701 e2fc 07fb 09f2
000000a0: 0621 0e13 f60d ecf6 f018 fa03 dffc fc15
000000b0: 0210 0511 ff17 34ea 0dff 3800 eee1 e814
000000c0: f9f5 1ac4 21ff 07ea e614 2407 efeb 0cf6
000000d0: 0d12 ea13 05ea 0ff9 1501 1814 fcff f2df
000000e0: da03 0318 22f9 f2e7 22f9 f8f3 0bfe fc1f
000000f0: f105 18f6 f300 1ce4 fbeb 0017 fbec 0ae7
0.15202229 0.4476212 -0.025337048 -0.10134819 0.08445683 0.16046798 0.0 0.09290251
0.12668525 -0.30404457 -0.27026185 -0.10134819 -0.08445683 0.0 -0.008445683 -0.10134819
0.17735934 -0.30404457 0.21114208 -0.05911978 -0.042228416 -0.16891366 0.025337048 -0.11823956
-0.12668525 0.12668525 -0.08445683 -0.17735934 -0.03378273 0.1942507 -0.10134819 -0.17735934
-0.042228416 -0.016891366 -0.10979388 0.07601114 -0.1435766 -0.13513093 0.2871532 -0.13513093
-0.16891366 -0.042228416 -0.050674096 0.03378273 -0.20269638 0.042228416 0.05911978 -0.03378273
0.0 0.2449248 0.11823956 -0.23647912 0.008445683 -0.07601114 -0.050674096 0.025337048
0.12668525 -0.10979388 0.07601114 0.27026185 0.008445683 0.5827521 0.4982953 -0.1435766
0.08445683 -0.506741 0.5827521 0.76855713 -0.09290251 -0.3547187 -0.1435766 0.16891366
0.008445683 0.08445683 0.1435766 -0.6587633 0.7094374 -0.2955989 -0.07601114 -0.9881449
-0.3547187 0.52363235 0.43917552 0.016891366 -0.7094374 0.2533705 -0.008445683 0.17735934
-0.3885014 0.10134819 -0.05911978 0.33782732 0.06756546 -0.56586075 -0.03378273 -0.76855713
0.20269638 0.18580502 1.0726017 0.18580502 -0.16891366 -0.11823956 -0.07601114 0.32938164
-0.1942507 0.2533705 0.52363235 0.40539277 0.21958776 0.31249025 0.15202229 -0.4476212
0.2533705 0.13513093 -0.08445683 -0.05911978 0.26181617 -0.30404457 -0.21958776 0.18580502
0.025337048 0.12668525 -0.03378273 -0.30404457 0.06756546 -0.025337048 -0.16891366 0.08445683
0.1435766 -0.03378273 -0.008445683 -0.13513093 0.10979388 -0.2955989 -0.27870753 0.08445683
-0.06756546 -0.10979388 0.050674096 0.10979388 0.20269638 0.025337048 -0.346273 -0.008445683
0.11823956 0.13513093 -0.09290251 -0.21114208 -0.016891366 0.10134819 0.03378273 -0.15202229
0.05911978 0.008445683 -0.2533705 -0.03378273 0.05911978 -0.042228416 0.07601114 -0.11823956
0.050674096 0.27870753 0.11823956 0.16046798 -0.08445683 0.10979388 -0.16891366 -0.08445683
-0.13513093 0.20269638 -0.050674096 0.025337048 -0.27870753 -0.03378273 -0.03378273 0.17735934
0.016891366 0.13513093 0.042228416 0.1435766 -0.008445683 0.1942507 0.43917552 -0.18580502
0.10979388 -0.008445683 0.47295824 0.0 -0.15202229 -0.26181617 -0.20269638 0.16891366
-0.05911978 -0.09290251 0.21958776 -0.506741 0.27870753 -0.008445683 0.05911978 -0.18580502
-0.21958776 0.16891366 0.30404457 0.05911978 -0.1435766 -0.17735934 0.10134819 -0.08445683
0.10979388 0.15202229 -0.18580502 0.16046798 0.042228416 -0.18580502 0.12668525 -0.05911978
0.17735934 0.008445683 0.20269638 0.16891366 -0.03378273 -0.008445683 -0.11823956 -0.27870753
-0.32093596 0.025337048 0.025337048 0.20269638 0.2871532 -0.05911978 -0.11823956 -0.21114208
0.2871532 -0.05911978 -0.06756546 -0.10979388 0.09290251 -0.016891366 -0.03378273 0.26181617
-0.12668525 0.042228416 0.20269638 -0.08445683 -0.10979388 0.0 0.23647912 -0.23647912
-0.042228416 -0.17735934 0.0 0.1942507 -0.042228416 -0.16891366 0.08445683 -0.21114208

std.constant16 f4 [240, 1]
00000000: a22f 803e f380 2f3f f03a 5cbe 7cdb 083f
00000010: f5da 673e 3c79 39be 49d4 cbbe 7910 1e3f
00000020: cc7c 443e 0c1a 183f 124a eb3e 0796 aa3e
00000030: 68a8 043c b207 41bd 6402 b3bd 089a a5be
00000040: abec 263f 208c f93e a3ca a63e 2061 fe3e
00000050: 697e 33be 23e4 fbbe b1e3 463b 19df 02bc
00000060: d735 3a3f a45a 873e 4d3b e83e 421c 91bc
00000070: 2b31 2b3e 9440 d43e e62f 8b3e c205 32be
00000080: 04ee e63e d44d e5be 0031 f43e 7228 003e
00000090: 9498 553e 78ab 803e a27a 2a3f 3c1c 19bd
000000a0: 01d7 953e 14b7 233e 4d79 ce3e a35d 8ebe
000000b0: f787 aa3e d338 b93e 9b3c b1be 26c4 6abe
000000c0: 7545 d33c 49b0 ee3e 0031 e0be f55c d93e
000000d0: 4094 cfbd 969f ad3e 6165 0d3f e709 a63e
000000e0: 4b21 da3e c889 1ebf d62b 703e eb4a 423f
000000f0: 66eb cbbe d83f a1be 437c 9cbe b33f e0bd
00000100: 3163 69be 03b7 34bf 1968 a1be 02bb d0be
00000110: c14f e7be 7f7a c0be 8c89 a9be ba61 b0be
00000120: ef55 28bf 1914 0abf dcf7 edbe f2db 85be
00000130: 96dd 0cbf 8669 c1be 1f86 83be aeb6 37bf
00000140: e0ce c3be 6346 f5be 0e7e 79be d1f2 debe
00000150: 5863 cebe 28b5 e0be ed08 78be 1e68 dfbe
00000160: 1b4d bfbe 6ac1 82be 8753 07bf ab1c c2be
00000170: 89cd 68be 0bcd 1abf 0204 0ebf 70c8 1abf
00000180: cc3d c2be ca71 a8be 5554 34bf 4a08 ccbe
00000190: 2bc6 fbbe 8722 43be 1b76 24be ed33 3abf
000001a0: 19a1 babe b97c 16be aca9 2cbf 4687 76be
000001b0: 6d69 89be 5ca7 a8be a12f 4abf fbe0 b7be
000001c0: 72a5 91be c075 57be 957e a7be 1dea f8be
000001d0: 127d aabe d65d 41bf fc78 06bf b039 6438
000001e0: 4b82 98be dd91 c4be 6237 073e 9e9b b53e
000001f0: 0a5a afbe 2539 643e 615a 3b3e cf07 b7be
00000200: aab9 8cbe d05e c03e 3cfe c63e d708 973e
00000210: 7624 823e c4f2 8f3e cd83 853e 6124 a83d
00000220: b2ff b1be 7fe2 ad3e af36 a7be d1b3 ab3e
00000230: d89c 7fbe f353 b0bd df7f 883e 51ea 953e
00000240: bbdb a53e 67d8 9bbe 5823 a83e 3529 8e3e
00000250: 9d78 a33e 45be afbe ccb1 9c3e 179f 3d3e
00000260: 3937 b7be 90e3 333e 70f1 af3e 6505 7e3e
00000270: 5fbd 963e 3c64 923e 4bc5 b7be 66c4 993e
00000280: 4029 953e ade4 a3be ba13 a6be 61c7 55be
00000290: f871 b23e 0e05 abbe 5489 4dbe 61de 383e
000002a0: 966e 4f3e 74bd a7be 2de5 f5bd 1fcb ab3e
000002b0: 3eb9 113e e422 bc3e 9e67 9d3e ead6 b4be
000002c0: a186 aebe 328e 323e 6459 85be ba8d cdbe
000002d0: 50ac a23e 3b44 ac3e 966a 9dbe 3a45 363f
000002e0: 7365 0c3f 560b d0be 0116 8bbd 03da da3e
000002f0: 5739 f53e 43ff e33e 261e c83e df1c bb3e
00000300: 8001 41bd 9c81 b63d 78e1 813e a5c8 a9be
00000310: c6c4 de3e f281 3b3f 338a f73e 9d4a 4c3d
00000320: 360d 81be adcf d0be cce0 be3e ab47 7d3e
00000330: 5e64 013f ea51 943e fde9 fc3e 1db3 783e
00000340: c208 7b3e 15a5 e53e f87c cc3e 40dd b3bc
00000350: 7224 d33e c9b4 34bf c06b f03e 5870 5dbe
00000360: febe 893e c0b7 ca3d ae5e 9c3d a36b df3d
00000370: 0c22 0f3f 162a c93e 9e8f 133f 8f83 55be
00000380: d0e9 c23e 02fd 8a3e 71ae 24bf e727 6dbc
00000390: 5b16 8d3e 6cae d73e 1eb9 febe 8604 d93e
000003a0: d5b0 e43d a027 be3e a0b3 153f 0c34 ad3e
000003b0: 730a 193f d24c 3fbf 1ac8 493e dc77 543f
0.2503634 0.68556136 -0.21506858 0.53459907 0.22642119 -0.18112653 -0.39810398 0.61743885
0.19188231 0.59414744 0.4595495 0.33317587 0.008096792 -0.04712648 -0.0874069 -0.3234408
0.65204877 0.4873972 0.32576475 0.49683475 -0.1752869 -0.49197492 0.0030348117 -0.007987761
0.72738403 0.2643634 0.45357743 -0.01771367 0.16717975 0.4145552 0.2718498 -0.17385009
0.45103467 -0.4478594 0.47693634 0.12515429 0.20858985 0.2513082 0.6659337 -0.037380442
0.29265597 0.15987808 0.4032692 -0.27805814 0.33306858 0.36176166 -0.3461655 -0.22926387
0.025789956 0.4661887 -0.43787384 0.42453733 -0.10135698 0.33910817 0.55232817 0.3242943
0.42603526 -0.6192899 0.23454222 0.75895566 -0.39828032 -0.3149402 -0.30563554 -0.1094965
-0.22791745 -0.70591754 -0.31524733 -0.40767676 -0.45178035 -0.37593457 -0.33112752 -0.3444956
-0.65756124 -0.53936917 -0.46478164 -0.26144367 -0.55025613 -0.3777582 -0.25688264 -0.7176312
-0.3824377 -0.47905263 -0.24364492 -0.4354463 -0.40310168 -0.4388821 -0.24222155 -0.43634123
-0.37363514 -0.25538188 -0.5286183 -0.37912497 -0.22734655 -0.6046912 -0.55474865 -0.60462093
-0.37937772 -0.32899314 -0.7044118 -0.39850074 -0.49174628 -0.1905614 -0.16060679 -0.7273548
-0.36451033 -0.14696015 -0.674464 -0.2407504 -0.26838246 -0.32940185 -0.78978926 -0.35913834
-0.28446537 -0.21041012 -0.32713762 -0.48616114 -0.33298546 -0.7553381 -0.5252836 5.441316e-05
-0.29786906 -0.38392535 0.1320472 0.3547029 -0.34248382 0.22287424 0.18296196 -0.35748145
-0.274854 0.37572336 0.3886584 0.29498932 0.25418442 0.28114903 0.2607712 0.08210064
-0.34765393 0.33961865 -0.32658908 0.33535627 -0.24962175 -0.08609762 0.26660058 0.29280332
0.32394204 -0.3043854 0.32839465 0.27765813 0.31927958 -0.34324852 0.30604398 0.18517719
-0.3578432 0.17567277 0.3436389 0.24806745 0.29441354 0.28592098 -0.3589271 0.30032653
0.29133034 -0.32010403 -0.32436925 -0.20876838 0.34852576 -0.33402294 -0.20071918 0.18053581
0.20257029 -0.3276173 -0.120066024 0.33553407 0.1423082 0.3674537 0.30743116 -0.35320216
-0.3408709 0.17437056 -0.26044762 -0.4014719 0.3177209 0.33645806 -0.3074538 0.7119938
0.548423 -0.4063365 -0.06791306 0.42744455 0.4789531 0.44530687 0.390855 0.36545464
-0.04712057 0.0891144 0.25367332 -0.33160892 0.435095 0.73245156 0.48347625 0.049875844
-0.25205392 -0.40783444 0.3728088 0.2473437 0.50543773 0.28968745 0.4939727 0.24287076
0.2451506 0.4485251 0.39939094 -0.021956086 0.41238743 -0.70588356 0.46957207 -0.21624887
0.26903528 0.09898329 0.07635246 0.10909202 0.55911326 0.39289922 0.5764102 -0.20850967
0.3806901 0.27146155 -0.64328676 -0.0144748455 0.27556118 0.4212526 -0.49750608 0.42386264
0.111665405 0.37139606 0.5847721 0.3382877 0.5978157 -0.74726593 0.19705239 0.8299539

lstm_6/lstm_cell_1/bias1 f4 [240]
00000000: 686a bcbd 4d85 273e d19c b4be b47f eebd
00000010: 0814 cb3e 2c6d 7bbd 5cd9 f3bd 4d70 3d3d
00000020: b7c1 a03e 23ff c73e 332b c0be b223 45be
00000030: 44fe fbbc f0be 053f dcfe 54bf e87d 36be
00000040: e45f b13e c127 b13e 7db4 b4be 4cfb 183f
00000050: 3163 343e 0b0e 083e 890b 113e e5f4 693d
00000060: a63f 85be 196e d13e 3dca 4a3e c0d8 bb3e
00000070: 3818 29be 6855 8f3e c720 0abc 35a3 0d3f
00000080: 8497 96be 28bc 313e db66 e73e 6f1d dd3d
00000090: 6486 c93e 27eb f83d 5b58 6c3e db4f 103e
000000a0: bd9a 1fbc 03f3 bf3d f780 983b 37bf 7b3e
000000b0: 664f 99be 04e5 093f 261f b93e aa76 b0bd
000000c0: a37e b2be 6b66 d23d 34c6 2b3f 1d13 57bf
000000d0: 77bc 0b3d 434c 863e c098 a5bd f8d6 af3e
000000e0: 5c6c 323e 8b81 3a3e b12b 313f 6f23 c63d
000000f0: 032b fa3e 7967 1d3f 6b48 e63e 7086 3a3f
00000100: b531 043f 0266 0c3f dc81 323f c53f 253f
00000110: f03e 1f3f 1167 213f 0f57 eb3e d92a 2a3f
00000120: 4a9f 3c3f 3d4b 093f 9603 b53d 45f5 213f
00000130: f057 103f 03d5 fb3e 7e4e 353f 0e0b 063f
00000140: 899f 173f 43a6 ff3e a2a0 203f 061f 153f
00000150: d6a8 373f d2b1 273f 666b 253f f754 113f
00000160: b3d5 513f 7a81 243f 6e4e 163f 4ef4 1d3f
00000170: dfb6 553f 8e41 263f bf3a 0e3f c31f 213f
00000180: 3142 253f 10db 213f a8ee 063f 5ab4 333f
00000190: d46b 0d3f 4911 123f 3fd8 253f 99e0 103f
000001a0: e7a0 5a3f 47d6 ef3e ac1d 1c3f 7d8e 343f
000001b0: 469e 613f 7e75 123f 9f01 073f 4cd9 723e
000001c0: 27cc 073f cfd2 183f be0c 343f 09e4 0e3f
000001d0: 4aa8 fa3e 7744 1b3f 6b9f 043f 225e 0a3f
000001e0: 764a 513d ee77 57bc 91a4 44bd e4f2 33bc
000001f0: 9782 623c 1498 6fbc 10c7 d23b 8061 153d
00000200: 28a4 48bd cb89 59bc 4961 eb3b 1aab 9b3c
00000210: 008c 5dbb 4698 513d 5cdb fd3c 1b21 0a3d
00000220: 8fa6 7d3c 6a7c d0bb 71b5 fdbc 8898 99bc
00000230: 1bdd 963c ee6b ebbb 5a31 853d baf0 e13c
00000240: cfbc cbbd 60ef 163d 12e5 2abd 7d39 a43c
00000250: bc30 893c 4ecc 86bc 1548 f23b d9e1 783c
00000260: b8a6 abbc e1f7 71bd 364e f9bb 8457 8c3c
00000270: 9ee0 d0bc e106 913d cc9b 0cbd d00a 973c
00000280: 3d4d 00bc 8689 33bd c58a 843c e93d 8ebc
00000290: 82b3 8dbd b7eb f33c 4c64 94bc 1116 78bd
000002a0: b0c7 49bc f338 05bd 7f85 22bd b565 eb3b
000002b0: 2eb5 8d3c f184 3fbc c27a e83c 7cde 053b
000002c0: 458b a33c 2bc2 97bc 6567 9f3c 4606 f2bc
000002d0: 1495 a5bd 8874 3d3e 6bac c0be 118f c9bd
000002e0: 8724 ce3e 715b eabc 0ea0 ccbd 15a3 583d
000002f0: 283e 933e d9e8 be3e e223 cebe 47f6 17be
00000300: 37e8 61bc 676d 183f 99c5 54bf 1165 32be
00000310: 1784 9c3e d783 803e 44f2 a6be 62de 3b3f
00000320: b79a 043e 2c6b 213e 0e2a 093e 7101 ad3d
00000330: 6116 2bbe 77cb ea3e d38f 2b3e 702e bd3e
00000340: 3a0c 5bbe 09f0 983e 2602 b63c b92b 123f
00000350: 6197 0bbe a11b 153e 7acd 0b3f 219a e03d
00000360: da51 bc3e e8c2 9f3e 1418 813e becb 233e
00000370: 98fb 0e3d ab9e 0e3e 879b d43c cc37 8e3e
00000380: 161a 84be 9eea 553f a9a4 cb3e f5a7 a93b
00000390: ffc3 bfbe d29c dc3e b5ff 383f e65d 4fbf
000003a0: b7ff 243d 93a4 713e 7a92 adbc bf16 be3e
000003b0: 1dd1 343e 95e9 3b3e df24 663f 6c73 ef3d
-0.09199983 0.16359444 -0.3527589 -0.11645451 0.3966372 -0.06138341 -0.119066924 0.046249676
0.31397793 0.3906184 -0.37532958 -0.19251898 -0.030760892 0.5224447 -0.83201385 -0.17821467
0.3464347 0.34600642 -0.35293952 0.5975845 0.17615964 0.13286607 0.14164557 0.057118315
-0.26025122 0.4090431 0.1980371 0.36688805 -0.16513145 0.27994847 -0.008430666 0.5532716
-0.29412472 0.17356932 0.4519566 0.1079663 0.39360344 0.12154227 0.2308058 0.14092962
-0.009741482 0.09372523 0.0046540457 0.24584661 -0.2994339 0.53865075 0.36156577 -0.086163834
-0.3486224 0.10273441 0.6709931 -0.8401354 0.03411528 0.26230058 -0.080857754 0.34343696
0.17424148 0.18213479 0.6920729 0.09674727 0.4886094 0.6148601 0.44977126 0.72861385
0.51638347 0.5484315 0.697294 0.6455043 0.6220541 0.6304789 0.45964858 0.6647163
0.73680556 0.5363043 0.088385746 0.63264877 0.5638418 0.49185953 0.70822895 0.5236062
0.59227806 0.49931535 0.62745106 0.58250463 0.71742 0.6550571 0.64617 0.5677027
0.81966704 0.64260066 0.58713424 0.61700904 0.83482164 0.6494378 0.5555839 0.6293909
0.64554125 0.6322489 0.5270791 0.7019707 0.5524266 0.57057625 0.6478309 0.5659271
0.8540177 0.46843168 0.60982776 0.7052992 0.8813213 0.5721053 0.5273685 0.23715705
0.53045887 0.5969667 0.70331943 0.55816704 0.4895652 0.60651344 0.5180575 0.54049885
0.051096402 -0.013151152 -0.048008505 -0.010983203 0.01382508 -0.014623661 0.0064324215 0.036469936
-0.048984677 -0.013277481 0.007183228 0.019002486 -0.003380537 0.05117061 0.030988388 0.033722978
0.015481605 -0.0063624876 -0.030970307 -0.01874949 0.018415978 -0.007184497 0.06503554 0.027580608
-0.09948122 0.03684938 -0.041722365 0.020046944 0.016746871 -0.016454842 0.0073938468 0.015190565
-0.020953521 -0.059074286 -0.0076082004 0.017131574 -0.02549773 0.0708139 -0.034328267 0.018437773
-0.007830915 -0.043832324 0.016179452 -0.017363505 -0.06919004 0.029775484 -0.018114232 -0.06056792
-0.012315676 -0.032525014 -0.039678093 0.0071837553 0.017298307 -0.011689411 0.028378848 0.00204268
0.01996387 -0.018525204 0.019458482 -0.029544007 -0.08085075 0.18501484 -0.37631544 -0.09841741
0.40262243 -0.028608056 -0.099914655 0.052889902 0.2875836 0.37287024 -0.4026175 -0.14840041
-0.0137882745 0.59541935 -0.8311401 -0.17421366 0.30569527 0.25100586 -0.3260671 0.73386204
0.12949644 0.15763539 0.13394949 0.084475406 -0.16707756 0.45858356 0.16754083 0.36949492
-0.21391383 0.29870632 0.022217821 0.57097965 -0.13631965 0.14561321 0.5461041 0.10966898
0.36781198 0.3120339 0.25213683 0.1599569 0.034907907 0.13927715 0.025953067 0.27776945
-0.25801152 0.8356112 0.39774063 0.0051774927 -0.3745422 0.43088394 0.7226518 -0.8100265
0.04028293 0.23597936 -0.02118801 0.3712673 0.17657895 0.18350823 0.8990001 0.11691937
