DATN_LSTM_SMGW-main/rx_service/src/LSTM_model/LSTM_model_2_DO.tflite (tflite, 67312 bytes, 9 tensors)

lstm_1/lstm_cell_1/bias f4 [240]
-0.38955644 -0.3225246 -0.25226492 -0.21498822 -0.13934186 -0.39812404 0.080839425 -0.44083586
-0.5178804 -0.41729835 -0.5351098 -0.19749121 -0.12414721 -0.47295362 -0.28803515 -0.34043434
-0.4601412 -0.41189197 -0.16037336 -0.42613265 -0.567695 -0.45678636 -0.50313234 -0.4754525
-0.4251213 -0.4289772 -0.4363107 -0.44416505 -0.4218319 -0.41697654 -0.23883078 -0.4221405
-0.43390515 -0.35159734 -0.52339727 -0.29413292 -0.19417591 -0.22442856 -0.11203875 -0.3301946
-0.4915888 -0.47646797 -0.42059964 -0.40408787 -0.039738175 -0.35030597 -0.35157222 0.3154647
-0.5234777 -0.24344276 -0.34923148 -0.39407837 -0.33995506 -0.43521455 -0.4019415 -0.38806933
-0.34140116 -0.40946937 -0.4242603 -0.60419786 0.6789399 0.75397545 0.5736645 0.6527348
0.30902565 0.76196426 0.88435084 0.72571075 0.51286507 0.74146867 0.74969506 0.57778317
0.7108595 0.68457365 0.63440824 0.5905702 0.66482115 0.63021535 0.7107658 0.8010903
-0.08562827 0.7989334 0.75051165 0.32321844 0.7282694 0.8116654 0.759795 0.6753953
0.6940754 0.6672916 0.6085164 0.7490624 0.5330051 0.84570754 0.7942113 0.7830427
0.5396098 0.47537106 -0.021229427 0.6797203 0.77548337 0.6701549 0.68918145 0.7663645
0.76108265 0.73145545 0.40094003 0.58814085 0.41843057 0.5484241 0.49987757 0.5116602
0.80254376 0.67431825 0.7563144 0.6988528 0.8121773 0.54812497 0.679646 0.6186419
-0.049169946 -0.014126046 -0.00471789 0.006357088 -0.03310409 0.0068633575 -0.017585892 0.026589274
0.017645394 0.033093903 -0.0035966951 -0.026061706 -0.048679177 -0.012302055 0.0057930765 0.0010660919
-0.00085686555 0.008301979 0.014216883 -0.01415733 -0.033065025 0.012794775 0.0030066422 0.010050364
0.017976582 -0.0032138366 0.00039765428 -0.008773694 -0.0016771111 0.01557866 0.039878845 -0.026557812
-0.0041692914 -0.016610956 -0.042070966 -0.018101599 0.027771216 -0.0067277453 0.050285008 -0.02317839
-0.0035010017 -0.0138757685 0.0047409884 -0.04457366 0.026399955 0.029647509 -0.0037497447 0.024074404
0.020276261 -0.031994577 -0.012258715 -0.0032193845 0.02996098 -0.010379775 -0.0053283353 0.009664838
-0.021519627 0.0068553323 0.05322322 -0.0029121116 -0.41105816 -0.32183123 -0.3787164 -0.2555853
-0.099945664 -0.34959653 0.055376094 -0.47561336 -0.5160994 -0.42081633 -0.4844704 -0.16308323
-0.24676839 -0.48208445 -0.23357785 -0.011225104 -0.43889755 -0.41189128 -0.44537604 -0.37207302
-0.5545503 -0.42616868 -0.4805499 -0.45055464 -0.3717236 -0.38755482 -0.46658498 -0.44596794
-0.39680305 -0.35758626 -0.23484223 -0.36984873 -0.49311796 -0.37175038 -0.48322695 -0.3627471
-0.15908384 -0.1438658 -0.14480174 -0.38038576 -0.4371116 -0.42906874 -0.4432728 -0.35988173
-0.13874726 -0.30626306 -0.35250005 0.027736569 -0.49295738 -0.24532339 -0.33672675 -0.36457404
-0.318847 -0.50403774 -0.4131363 -0.40432778 -0.36102512 -0.41074055 -0.43113536 -0.5753469
00000000: f173 c7be f221 a5be de28 81be df25 5cbe
00000010: a2af 0ebe ead6 cbbe 248f a53d 3db5 e1be
00000020: cf93 04bf 21a8 d5be f5fc 08bf 233b 4abe
00000030: e440 febd fa26 f2be 5879 93be 694d aebe
00000040: a197 ebbe 81e3 d2be ea38 24be 0f2e dabe
00000050: 7654 11bf e7df e9be 48cd 00bf 836e f3be
00000060: 80a9 d9be e6a2 dbbe 1e64 dfbe 9a69 e3be
00000070: 5afa d7be f37d d5be 0e90 74be cd22 d8be
00000080: d128 debe 9104 b4be 5dfd 05bf 9798 96be
00000090: 0dd6 46be 9ad0 65be 9274 e5bd 440f a9be
000000a0: 87b1 fbbe 9cf3 f3be d658 d7be 9be4 cebe
000000b0: 7fc4 22bd 4e5b b3be 4601 b4be 9784 a13e
000000c0: a202 06bf 0f49 79be 78ce b2be a4c4 c9be
000000d0: 970e aebe 71d4 debe 47cb cdbe 06b1 c6be
000000e0: 22cc aebe f8a5 d1be a538 d9be b6ac 1abf
000000f0: 01cf 2d3f 8904 413f addb 123f a119 273f
00000100: 9c38 9e3e 1710 433f d164 623f 2ec8 393f
00000110: 204b 033f e4d0 3d3f 04ec 3f3f 99e9 133f
00000120: e3fa 353f 3840 2f3f 9468 223f 9c2f 173f
00000130: b831 2a3f cb55 213f bff4 353f 4114 4d3f
00000140: e05d afbd e686 4c3f 8821 403f e37c a53e
00000150: dd6f 3a3f 4ec9 4f3f ed81 423f b5e6 2c3f
00000160: edae 313f 9fd3 2a3f bbc7 1b3f 8ec2 3f3f
00000170: 0673 083f 4a80 583f 6f51 4b3f 7d75 483f
00000180: de23 0a3f d663 f33e 56e9 adbc 2602 2e3f
00000190: 1486 463f 468f 2b3f 326e 303f 7730 443f
000001a0: 50d6 423f aa40 3b3f 0348 cd3e 6690 163f
000001b0: 883c d63e 8665 0c3f f4ef ff3e 2afc 023f
000001c0: 8273 4d3f 1fa0 2c3f d29d 413f 04e8 323f
000001d0: daea 4f3f eb51 0c3f 48fd 2d3f 515f 1e3f
000001e0: 6d66 49bd ee70 67bc 8898 9abb 1f4f d03b
000001f0: 2798 07bd 04e6 e03b 4a10 90bc c0d1 d93c
00000200: 138d 903c 798d 073d 88b6 6bbb 5c7f d5bc
00000210: d163 47bd 8f8e 49bc d9d3 bd3b 1cbc 8b3a
00000220: 469f 60ba 0605 083c eeed 683c 25f4 67bc
00000230: 316f 07bd 2da1 513c 160b 453b 48aa 243c
00000240: a043 933c 3b9f 52bb 417c d039 8abf 0fbc
00000250: 83d2 dbba a33d 7f3c 0058 233d c58f d9bc
00000260: 8d9e 88bb b313 88bc 9b52 2cbd ce49 94bc
00000270: 7680 e33c 6b74 dcbb a7f7 4d3d 9be0 bdbc
00000280: 1071 65bb 3157 63bc 4b5a 9b3b df92 36bd
00000290: b844 d83c 55df f23c 47be 75bb af37 c53c
000002a0: 671a a63c bf0c 03bd c7d8 48bc 4ffc 52bb
000002b0: bb70 f53c ef0f 2abc 5199 aebb 4559 1e3c
000002c0: ee49 b0bc b2a2 e03b 9700 5a3d 20d9 3ebb
000002d0: 3776 d2be 10c7 a4be 1ee7 c1be 14dc 82be
000002e0: 50b0 ccbd 51fe b2be 0bd2 623d 9883 f3be
000002f0: 171f 04bf 3d75 d7be 810c f8be 4aff 26be
00000300: dab0 7cbe c6d3 f6be 082f 6fbe 80e9 37bc
00000310: 2eb7 e0be 6ae3 d2be 5408 e4be 5b80 bebe
00000320: 02f7 0dbf c832 dabe a30a f6be 19af e6be
00000330: 8e52 bebe 966d c6be 3ae4 eebe e955 e4be
00000340: c529 cbbe 8c15 b7be 7b7a 70be d05c bdbe
00000350: f579 fcbe 1156 bebe 8669 f7be fdb9 b9be
00000360: e0e6 22be 8e51 13be e846 14be ecc1 c2be
00000370: 17cd dfbe e6ae dbbe a7f4 e2be 6b42 b8be
00000380: c313 0ebe 83ce 9cbe e37a b4be cd37 e33c
00000390: e964 fcbe 0e36 7bbe 7367 acbe 73a9 babe
000003a0: ea3f a3be 9e08 01bf 9a86 d3be 0d04 cfbe
000003b0: 49d8 b8be 964c d2be c6bd dcbe ef49 13bf

lstm/lstm_cell/bias f4 [240]
0.33723563 0.2099647 0.021183917 0.15759178 0.67873 0.2269256 -0.06957965 0.29361665
0.17992504 0.08335481 0.5846674 0.29206505 0.021458093 0.6981694 0.75186646 0.23694523
0.24501707 0.26301068 0.3338842 0.19252114 0.6892652 0.14969067 0.25818747 0.097487696
0.30604166 -0.31260696 -0.09857825 0.32475767 0.040845104 0.104177654 0.6003618 -0.04754077
0.34026244 0.2898592 0.14633155 0.38152185 0.05415409 0.44714615 0.47582906 -0.083654515
-0.15335785 0.7893345 0.16617405 0.037249606 0.21694748 0.12606283 0.24491236 -0.011888389
0.25296962 -0.083621316 0.013141745 0.13769355 0.6028016 0.46196038 0.095901206 0.09287153
0.58950603 0.13411254 0.41498563 0.0004875271 0.43310884 0.5118084 0.41918305 0.3861079
0.5610331 0.50927716 0.4089444 0.2272741 0.5796298 0.57029384 0.5168174 0.551863
0.4593416 0.44408697 0.6315447 0.4842261 0.60655516 0.32088992 0.44898567 0.5009544
0.60984606 0.58085054 0.3683224 0.53605723 0.47187856 0.54685163 0.64502364 0.6799257
0.41731295 0.4508423 0.5715286 0.63614905 0.4872987 0.5813767 0.58044976 0.51856095
0.5173553 0.42981055 0.57981354 0.49119246 0.56448156 0.5281556 0.46750587 0.4594679
0.630863 0.11956888 0.5882993 0.530544 0.5498599 0.6742998 0.43449193 0.5755228
0.4691443 0.649549 0.5102575 0.604206 0.2088019 0.53086334 0.5590029 0.5490832
0.1253329 0.15627708 0.099268734 0.07159512 0.14944625 0.11501199 0.10055278 0.04841254
0.12575199 -0.10574762 -0.090669215 -0.14328755 0.102608405 -0.1441686 0.1705321 -0.18611677
0.14370248 -0.11953806 0.13618794 0.122326635 0.15613358 0.14297405 -0.142916 0.16181241
0.10942203 0.10394766 -0.004126423 0.118431516 -0.10489573 -0.09469395 -0.17192459 0.053801306
0.12666182 0.13813342 0.10994644 0.14841543 -0.07671233 0.15675882 -0.14361404 -0.08353322
0.0015242128 0.16543949 0.10400023 0.12761343 -0.13911268 0.12407782 0.14347541 -0.083817564
0.13153584 -0.10028534 -0.067240216 -0.13570504 -0.15106359 0.15028575 0.097459406 0.09709007
0.14387737 0.12356523 0.14686325 -0.11486921 0.36416873 0.21174112 -0.015294561 0.13149996
0.7791542 0.13920584 -0.06975703 0.2583373 0.25825235 0.13912658 0.65674716 0.35985598
0.011384118 0.7188766 0.88989943 0.42765793 0.31745678 0.2449688 0.39654016 0.21680826
0.98256814 0.24460255 0.2637894 0.26648772 0.35557595 -0.36068577 -0.1326721 0.53637487
0.020611482 0.07453627 0.71704245 -0.09730695 0.32305777 0.35836592 0.1345978 0.4499047
0.1286642 0.67683345 0.53741413 -0.08451472 -0.22860076 0.9648167 0.16606906 0.088652104
0.054573935 0.06520785 0.2456596 0.0181252 0.24281365 -0.087955184 0.00059124903 0.14357224
0.685251 0.50143236 0.12556922 0.1968301 0.6754009 0.14534213 0.48704144 0.00169302
00000000: 26aa ac3e fc00 573e e589 ad3c bd5f 213e
00000010: 40c1 2d3f 2f5f 683e c77f 8ebd ec54 963e
00000020: 453e 383e edb5 aa3d c3ac 153f 8d89 953e
00000030: e2c8 af3c 3bbb 323f 527a 403f c5a1 723e
00000040: c1e5 7a3e 56a9 863e dff2 aa3e 4324 453e
00000050: af73 303f 8348 193e 2631 843e a1a7 c73d
00000060: 7eb1 9c3e 050e a0be 65e3 c9bd a346 a63e
00000070: 324d 273d 185b d53d 50b1 193f 1cba 42bd
00000080: e136 ae3e 6d68 943e f0d7 153e d556 c33e
00000090: aed0 5d3d 57f0 e43e de9f f33e 0f53 abbd
000000a0: d709 1dbe d311 4a3f 8829 2a3e 0b93 183d
000000b0: 7b27 5e3e 9d16 013e 4eca 7a3e 84c7 42bc
000000c0: 3c85 813e a741 abbd 7950 573c 8aff 0c3e
000000d0: 3551 1a3f 1286 ec3e da67 c43d 6e33 be3d
000000e0: dee9 163f cc54 093e ff78 d43e c89a ff39
000000f0: 71c0 dd3e e005 033f 299f d63e efaf c53e
00000100: de9f 0f3f fd5f 023f 2961 d13e 8bba 683e
00000110: 9e62 143f c7fe 113f 254e 043f e546 0d3f
00000120: d22e eb3e 5e5f e33e eaac 213f 7cec f73e
00000130: 3347 1b3f af4b a43e 73e1 e53e 8c3e 003f
00000140: df1e 1c3f 9fb2 143f c194 bc3e 0c3b 093f
00000150: 119a f13e 78fe 0b3f 4520 253f 9c0f 2e3f
00000160: 0baa d53e cdd4 e63e b34f 123f aada 223f
00000170: 377f f93e 1ad5 143f 5b98 143f 69c0 043f
00000180: 6671 043f 2110 dc3e a96e 143f 947d fb3e
00000190: dd81 103f 3535 073f ee5c ef3e 603f eb3e
000001a0: 3d80 213f 87e0 f43d c89a 163f bbd1 073f
000001b0: 9ec3 0c3f e99e 2c3f ba75 de3e 7655 133f
000001c0: af33 f03e d848 263f 3ca0 023f 3fad 1a3f
000001d0: 2ad0 553e a9e6 073f d01a 0f3f b790 0c3f
000001e0: 4557 003e 1907 203e 684d cb3d 76a0 923d
000001f0: 7008 193e 688b eb3d 9eee cd3d 3a4c 463d
00000200: 21c5 003e 3592 d8bd c8b0 b9bd f9b9 12be
00000210: 5b24 d23d efa0 13be f89f 2e3e 6595 3ebe
00000220: be26 133e 5fd0 f4bd da74 0b3e 6386 fa3d
00000230: 7be1 1f3e ca67 123e 9258 12be 27b2 253e
00000240: a818 e03d 83e2 d43d f236 87bb 398c f23d
00000250: 93d3 d6bd e7ee c1bd 000d 30be c25e 5c3d
00000260: a3b3 013e d972 0d3e 992b e13d 37fa 173e
00000270: 5b1b 9dbd 6285 203e 8f0f 13be 7713 abbd
00000280: 18c8 c73a f868 293e 13fe d43d 18ad 023e
00000290: 8e73 0ebe 831c fe3d 38eb 123e 8ba8 abbd
000002a0: 55b1 063e 6662 cdbd 3db5 89bd 43f6 0abe
000002b0: 6ab0 1abe 82e4 193e cc98 c73d 29d7 c63d
000002c0: 9754 133e c40f fd3d 5263 163e 8c40 ebbd
000002d0: 5374 ba3e aad2 583e 0a96 7abc eda7 063e
000002e0: a676 473f fa8b 0e3e c6dc 8ebd c944 843e
000002f0: a739 843e 3377 0e3e 9520 283f 0b3f b83e
00000300: 7484 3a3c 4c08 383f 73d0 633f fbf5 da3e
00000310: b289 a23e 1ad9 7a3e 5007 cb3e fc02 5e3e
00000320: 9689 7b3f 1779 7a3e 670f 873e 1471 883e
00000330: 0d0e b63e ceab b8be 32db 07be dd4f 093f
00000340: 69d9 a83c 79a6 983d 1890 373f de48 c7bd
00000350: d467 a53e bd7b b73e 01d4 093e e959 e63e
00000360: 8cc0 033e f544 2d3f f993 093f 0e16 adbd
00000370: 5116 6abe 3afe 763f 020e 2a3e 3c8f b53d
00000380: eb88 5f3d b18b 853d 318e 7b3e 4d7b 943c
00000390: 24a4 783e d921 b4bd 0dfe 1a3a 9a04 133e
000003a0: 9c6c 2f3f df5d 003f 3895 003e d48d 493e
000003b0: 13e7 2c3f 91d4 143e 7f5d f93e 53e8 dd3a

std.constant5 f4 [1, 60]
-0.075142264 0.07449693 -0.054084785 -0.020466456 0.1487148 0.06538059 0.06928773 0.046726473
0.026508896 -0.06772669 0.053013463 0.09897602 0.027473517 0.05452698 -0.09220123 0.0012594913
-0.06625041 -0.07834558 -0.016078787 -0.090929806 -0.02919753 -0.04975665 0.04501009 -0.053037
-0.054989245 -0.083060056 -0.05623022 0.05054289 0.050395284 -0.066331916 0.10534465 -0.06608681
0.058013782 -0.060084134 -0.05773408 0.058323357 -0.0051718443 -0.08414142 0.01764083 0.07204749
-0.05057252 -0.07513062 -0.060244136 0.06455109 -0.074683435 -0.067646556 0.030296596 0.09273405
-0.05432084 0.026748735 -0.032863587 -0.031143531 -0.06937402 0.069629274 0.048492625 -0.060470913
0.059697513 0.06711318 -0.028158538 0.043935888
00000000: 30e4 99bd d991 983d 0288 5dbd 45a9 a7bc
00000010: b148 183e 42e6 853d bae6 8d3d 4264 3f3d
00000020: 2f29 d93c 4ab4 8abd a524 593d f1b3 ca3d
00000030: 2410 e13c af57 5f3d 00d4 bcbd 8415 a53a
00000040: 4cae 87bd a673 a0bd a9b7 83bc 6839 babd
00000050: a92f efbc a1cd 4bbd 805c 383d 533d 59bd
00000060: 673c 61bd 641b aabd a951 66bd 1006 4f3d
00000070: 496b 4e3d 07d9 87bd f0be d73d 8558 87bd
00000080: dc9f 6d3d c81a 76bd 927a 6cbd 79e4 6e3d
00000090: 9378 a9bb 5652 acbd 8083 903c a28d 933d
000000a0: 2125 4fbd 15de 99bd 8ec2 76bd 5d33 843d
000000b0: a1f3 98bd 478a 8abd 9130 f83c 59eb bd3d
000000c0: 877f 5ebd 2a20 db3c f89b 06bd b820 ffbc
000000d0: f713 8ebd cb99 8e3d 34a0 463d 59b0 77bd
000000e0: 6185 743d a372 893d bcac e6bc 1ef6 333d

lstm/lstm_cell/bias1 f4 [240]
0.33723563 0.2099647 0.021183917 0.15759178 0.67873 0.2269256 -0.06957965 0.29361665
0.17992504 0.08335481 0.5846674 0.29206505 0.021458093 0.6981694 0.75186646 0.23694523
0.24501707 0.26301068 0.3338842 0.19252114 0.6892652 0.14969067 0.25818747 0.097487696
0.30604166 -0.31260696 -0.09857825 0.32475767 0.040845104 0.104177654 0.6003618 -0.04754077
0.34026244 0.2898592 0.14633155 0.38152185 0.05415409 0.44714615 0.47582906 -0.083654515
-0.15335785 0.7893345 0.16617405 0.037249606 0.21694748 0.12606283 0.24491236 -0.011888389
0.25296962 -0.083621316 0.013141745 0.13769355 0.6028016 0.46196038 0.095901206 0.09287153
0.58950603 0.13411254 0.41498563 0.0004875271 0.43310884 0.5118084 0.41918305 0.3861079
0.5610331 0.50927716 0.4089444 0.2272741 0.5796298 0.57029384 0.5168174 0.551863
0.4593416 0.44408697 0.6315447 0.4842261 0.60655516 0.32088992 0.44898567 0.5009544
0.60984606 0.58085054 0.3683224 0.53605723 0.47187856 0.54685163 0.64502364 0.6799257
0.41731295 0.4508423 0.5715286 0.63614905 0.4872987 0.5813767 0.58044976 0.51856095
0.5173553 0.42981055 0.57981354 0.49119246 0.56448156 0.5281556 0.46750587 0.4594679
0.630863 0.11956888 0.5882993 0.530544 0.5498599 0.6742998 0.43449193 0.5755228
0.4691443 0.649549 0.5102575 0.604206 0.2088019 0.53086334 0.5590029 0.5490832
0.1253329 0.15627708 0.099268734 0.07159512 0.14944625 0.11501199 0.10055278 0.04841254
0.12575199 -0.10574762 -0.090669215 -0.14328755 0.102608405 -0.1441686 0.1705321 -0.18611677
0.14370248 -0.11953806 0.13618794 0.122326635 0.15613358 0.14297405 -0.142916 0.16181241
0.10942203 0.10394766 -0.004126423 0.118431516 -0.10489573 -0.09469395 -0.17192459 0.053801306
0.12666182 0.13813342 0.10994644 0.14841543 -0.07671233 0.15675882 -0.14361404 -0.08353322
0.0015242128 0.16543949 0.10400023 0.12761343 -0.13911268 0.12407782 0.14347541 -0.083817564
0.13153584 -0.10028534 -0.067240216 -0.13570504 -0.15106359 0.15028575 0.097459406 0.09709007
0.14387737 0.12356523 0.14686325 -0.11486921 0.36416873 0.21174112 -0.015294561 0.13149996
0.7791542 0.13920584 -0.06975703 0.2583373 0.25825235 0.13912658 0.65674716 0.35985598
0.011384118 0.7188766 0.88989943 0.42765793 0.31745678 0.2449688 0.39654016 0.21680826
0.98256814 0.24460255 0.2637894 0.26648772 0.35557595 -0.36068577 -0.1326721 0.53637487
0.020611482 0.07453627 0.71704245 -0.09730695 0.32305777 0.35836592 0.1345978 0.4499047
0.1286642 0.67683345 0.53741413 -0.08451472 -0.22860076 0.9648167 0.16606906 0.088652104
0.054573935 0.06520785 0.2456596 0.0181252 0.24281365 -0.087955184 0.00059124903 0.14357224
0.685251 0.50143236 0.12556922 0.1968301 0.6754009 0.14534213 0.48704144 0.00169302
00000000: 26aa ac3e fc00 573e e589 ad3c bd5f 213e
00000010: 40c1 2d3f 2f5f 683e c77f 8ebd ec54 963e
00000020: 453e 383e edb5 aa3d c3ac 153f 8d89 953e
00000030: e2c8 af3c 3bbb 323f 527a 403f c5a1 723e
00000040: c1e5 7a3e 56a9 863e dff2 aa3e 4324 453e
00000050: af73 303f 8348 193e 2631 843e a1a7 c73d
00000060: 7eb1 9c3e 050e a0be 65e3 c9bd a346 a63e
00000070: 324d 273d 185b d53d 50b1 193f 1cba 42bd
00000080: e136 ae3e 6d68 943e f0d7 153e d556 c33e
00000090: aed0 5d3d 57f0 e43e de9f f33e 0f53 abbd
000000a0: d709 1dbe d311 4a3f 8829 2a3e 0b93 183d
000000b0: 7b27 5e3e 9d16 013e 4eca 7a3e 84c7 42bc
000000c0: 3c85 813e a741 abbd 7950 573c 8aff 0c3e
000000d0: 3551 1a3f 1286 ec3e da67 c43d 6e33 be3d
000000e0: dee9 163f cc54 093e ff78 d43e c89a ff39
000000f0: 71c0 dd3e e005 033f 299f d63e efaf c53e
00000100: de9f 0f3f fd5f 023f 2961 d13e 8bba 683e
00000110: 9e62 143f c7fe 113f 254e 043f e546 0d3f
00000120: d22e eb3e 5e5f e33e eaac 213f 7cec f73e
00000130: 3347 1b3f af4b a43e 73e1 e53e 8c3e 003f
00000140: df1e 1c3f 9fb2 143f c194 bc3e 0c3b 093f
00000150: 119a f13e 78fe 0b3f 4520 253f 9c0f 2e3f
00000160: 0baa d53e cdd4 e63e b34f 123f aada 223f
00000170: 377f f93e 1ad5 143f 5b98 143f 69c0 043f
00000180: 6671 043f 2110 dc3e a96e 143f 947d fb3e
00000190: dd81 103f 3535 073f ee5c ef3e 603f eb3e
000001a0: 3d80 213f 87e0 f43d c89a 163f bbd1 073f
000001b0: 9ec3 0c3f e99e 2c3f ba75 de3e 7655 133f
000001c0: af33 f03e d848 263f 3ca0 023f 3fad 1a3f
000001d0: 2ad0 553e a9e6 073f d01a 0f3f b790 0c3f
000001e0: 4557 003e 1907 203e 684d cb3d 76a0 923d
000001f0: 7008 193e 688b eb3d 9eee cd3d 3a4c 463d
00000200: 21c5 003e 3592 d8bd c8b0 b9bd f9b9 12be
00000210: 5b24 d23d efa0 13be f89f 2e3e 6595 3ebe
00000220: be26 133e 5fd0 f4bd da74 0b3e 6386 fa3d
00000230: 7be1 1f3e ca67 123e 9258 12be 27b2 253e
00000240: a818 e03d 83e2 d43d f236 87bb 398c f23d
00000250: 93d3 d6bd e7ee c1bd 000d 30be c25e 5c3d
00000260: a3b3 013e d972 0d3e 992b e13d 37fa 173e
00000270: 5b1b 9dbd 6285 203e 8f0f 13be 7713 abbd
00000280: 18c8 c73a f868 293e 13fe d43d 18ad 023e
00000290: 8e73 0ebe 831c fe3d 38eb 123e 8ba8 abbd
000002a0: 55b1 063e 6662 cdbd 3db5 89bd 43f6 0abe
000002b0: 6ab0 1abe 82e4 193e cc98 c73d 29d7 c63d
000002c0: 9754 133e c40f fd3d 5263 163e 8c40 ebbd
000002d0: 5374 ba3e aad2 583e 0a96 7abc eda7 063e
000002e0: a676 473f fa8b 0e3e c6dc 8ebd c944 843e
000002f0: a739 843e 3377 0e3e 9520 283f 0b3f b83e
00000300: 7484 3a3c 4c08 383f 73d0 633f fbf5 da3e
00000310: b289 a23e 1ad9 7a3e 5007 cb3e fc02 5e3e
00000320: 9689 7b3f 1779 7a3e 670f 873e 1471 883e
00000330: 0d0e b63e ceab b8be 32db 07be dd4f 093f
00000340: 69d9 a83c 79a6 983d 1890 373f de48 c7bd
00000350: d467 a53e bd7b b73e 01d4 093e e959 e63e
00000360: 8cc0 033e f544 2d3f f993 093f 0e16 adbd
00000370: 5116 6abe 3afe 763f 020e 2a3e 3c8f b53d
00000380: eb88 5f3d b18b 853d 318e 7b3e 4d7b 943c
00000390: 24a4 783e d921 b4bd 0dfe 1a3a 9a04 133e
000003a0: 9c6c 2f3f df5d 003f 3895 003e d48d 493e
000003b0: 13e7 2c3f 91d4 143e 7f5d f93e 53e8 dd3a

std.constant13 i1 [240, 60] scale=0.016468085 zero_point=0
-0.49404258 0.18114895 0.29642552 0.049404256 -0.2140851 -0.1152766 0.37876597 -0.14821276
-0.1152766 0.19761702 0.37876597 0.19761702 0.6422553 0.19761702 -0.62578726 -0.19761702
-0.1152766 -0.24702129 -0.37876597 -0.29642552 0.13174468 0.16468085 -0.4611064 0.41170213
0.09880851 0.13174468 -0.14821276 -0.24702129 -0.18114895 -0.5105106 0.37876597 0.24702129
-0.049404256 0.26348937 0.049404256 -0.14821276 -0.24702129 0.06587234 -0.29642552 -0.29642552
0.06587234 -0.016468085 -0.18114895 -0.08234043 0.2140851 0.60931915 0.26348937 -0.1152766
-0.1152766 -0.31289363 -0.31289363 0.2140851 0.24702129 -0.31289363 -0.3622979 0.08234043
-0.1152766 -0.31289363 -0.31289363 0.03293617 -0.47757447 0.14821276 0.3293617 -0.14821276
0.0 -0.09880851 0.09880851 -0.5599149 -0.19761702 0.4446383 -0.27995744 0.049404256
0.24702129 -0.08234043 0.06587234 -0.39523405 0.26348937 -0.52697873 -0.1152766 -0.19761702
0.39523405 0.39523405 -0.27995744 0.3293617 -0.016468085 0.03293617 0.0 -0.18114895
-0.3293617 -0.19761702 0.08234043 0.52697873 -0.09880851 0.13174468 0.19761702 0.14821276
-0.39523405 0.2140851 -0.26348937 -0.06587234 -0.6587234 0.39523405 -0.16468085 0.03293617
0.27995744 0.06587234 0.08234043 0.1152766 0.29642552 -0.24702129 -0.2305532 0.18114895
0.08234043 -0.18114895 -0.19761702 -0.03293617 -0.14821276 -0.2140851 0.016468085 0.1152766
-0.06587234 0.18114895 0.049404256 -0.3622979 0.13174468 -0.09880851 -0.1152766 -0.2305532
0.24702129 0.26348937 -0.31289363 -0.049404256 0.2140851 -0.6751915 0.39523405 -0.26348937
0.2305532 -0.18114895 0.27995744 -0.2305532 0.41170213 0.24702129 -0.26348937 0.03293617
-0.03293617 -0.03293617 0.2305532 0.2305532 -0.08234043 -0.26348937 0.049404256 0.24702129
0.24702129 0.06587234 0.1152766 0.52697873 -0.3293617 0.14821276 -0.27995744 0.049404256
-0.2305532 0.49404258 -0.08234043 0.016468085 0.29642552 -0.27995744 -0.1152766 -0.24702129
0.2305532 -0.03293617 0.016468085 0.13174468 -0.27995744 -0.09880851 -0.18114895 -0.03293617
0.016468085 -0.1152766 0.18114895 -0.06587234 -0.4611064 -0.7245958 -0.2305532 0.49404258
-1.0210212 -0.27995744 -0.06587234 0.08234043 -0.6587234 0.4281702 1.0704255 0.37876597
-0.049404256 1.3668511 -1.2845106 0.54344684 -0.98808515 0.5105106 -0.83987236 -0.3622979
-1.136298 -0.6751915 0.3622979 -0.4446383 -0.5105106 -0.2305532 -0.4611064 -0.60931915
0.31289363 0.049404256 0.7904681 -0.2140851 -0.576383 -0.3293617 -0.54344684 -1.0539575
0.31289363 -0.8563404 0.7081277 0.27995744 0.03293617 -1.2351063 -0.31289363 -0.62578726
0.34582978 0.19761702 -0.83987236 0.24702129 -0.7245958 0.37876597 0.13174468 -0.08234043
0.9057447 -0.18114895 0.06587234 -0.27995744 -1.0539575 -0.41170213 -0.7904681 0.37876597
-0.9222128 0.34582978 0.59285104 -0.16468085 0.19761702 0.049404256 -0.06587234 -1.0045532
-0.34582978 0.24702129 0.19761702 0.34582978 0.39523405 0.26348937 -0.2305532 -1.1198298
00000000: e20b 1203 f3f9 17f7 f90c 170c 270c daf4
00000010: f9f1 e9ee 080a e419 0608 f7f1 f5e1 170f
00000020: fd10 03f7 f104 eeee 04ff f5fb 0d25 10f9
00000030: f9ed ed0d 0fed ea05 f9ed ed02 e309 14f7
00000040: 00fa 06de f41b ef03 0ffb 04e8 10e0 f9f4
00000050: 1818 ef14 ff02 00f5 ecf4 0520 fa08 0c09
00000060: e80d f0fc d818 f602 1104 0507 12f1 f20b
00000070: 05f5 f4fe f7f3 0107 fc0b 03ea 08fa f9f2
00000080: 0f10 edfd 0dd7 18f0 0ef5 11f2 190f f002
00000090: fefe 0e0e fbf0 030f 0f04 0720 ec09 ef03
000000a0: f21e fb01 12ef f9f1 0efe 0108 effa f5fe
000000b0: 01f9 0bfc e4d4 f21e c2ef fc05 d81a 4117
000000c0: fd53 b221 c41f cdea bbd7 16e5 e1f2 e4db
000000d0: 1303 30f3 ddec dfc0 13cc 2b11 02b5 edda
000000e0: 150c cd0f d417 08fb 37f5 04ef c0e7 d017
000000f0: c815 24f6 0c03 fcc3 eb0f 0c15 1810 f2bc

std.constant14 f4 [240, 1]
-0.14119303 0.30095378 0.1778051 0.34319973 0.8814641 0.20605415 0.009298398 0.4806217
0.05758202 -0.32653195 0.32825512 0.23659791 0.15868744 0.8719999 0.89352053 0.8959136
0.17986657 0.3486299 0.6741415 0.05375427 1.2876925 0.48512906 0.30987993 0.77804494
0.10486368 -0.28320664 0.15884905 -0.3287586 0.19432965 0.18602353 0.9693791 0.43059495
0.28957337 0.5293096 0.281985 0.3184141 0.57924825 1.5416621 0.9123398 0.050728247
-0.66687 1.2702444 0.32786614 0.50670415 0.2933817 0.05500347 -0.06885932 -0.35021076
0.3779449 0.5054594 0.013371116 0.3693757 1.0876366 0.16733567 0.11829146 0.21631695
1.0219628 0.19428805 0.28458008 0.31061438 0.0073258816 -0.53121 -0.36873507 -0.553404
-0.12711582 -0.08648688 -0.62213784 -0.48796037 0.018013878 -0.12580028 -0.43399402 -0.1296385
-0.4854207 -0.23559704 0.15494391 -0.4183248 -0.52266556 -0.4683437 0.07779576 -0.11726494
-0.26401186 -0.16812319 -0.44329754 -0.32622743 -0.3148768 -0.50057507 -0.38069797 0.1791658
-0.58464754 -0.46953663 -0.3020022 -0.48292363 -0.21115237 -0.060257617 -0.12856719 -0.39891493
-0.6605744 -0.43747616 -0.27186245 -0.3929826 -0.5089576 -0.34246412 0.15418781 -0.19082841
0.021063952 -0.61708707 -0.32974976 -0.12789397 -0.14308538 -0.4112031 -0.4939737 0.038305283
-0.042175647 -0.028352164 -0.2978012 -0.38254863 -0.4107905 0.0069582784 -0.28745922 -0.07266615
-0.46895605 -0.41407558 -0.3104623 -0.085336514 -0.4763744 -0.45078075 -0.2890473 -0.3058733
-0.42175242 0.43683392 0.28326738 0.44262338 -0.33575144 0.5443348 -0.55608666 0.52951443
-0.4430167 0.24018592 -0.4639199 -0.46313405 -0.4710643 -0.37509075 0.3825891 -0.41785145
-0.4692883 -0.093718275 0.030748192 -0.48120615 0.2366343 0.33846295 0.52045506 -0.056264106
-0.43195212 -0.4407103 -0.4172383 -0.49925196 0.10119128 -0.49351975 0.47430256 0.320965
-0.3321085 -0.5857217 -0.4075307 -0.32634544 0.38349473 -0.16407065 -0.43263057 0.38947704
-0.4326311 0.14917831 0.1623262 0.41792646 0.5589882 -0.47661716 -0.3681585 -0.334475
-0.57670546 -0.4404048 -0.48776612 0.35779017 0.1674973 0.3040201 0.26879618 0.4723993
1.0174122 0.5015475 0.0878947 0.40494373 0.74456704 -0.0044893716 0.62357384 0.50494725
0.04262123 1.3141617 1.1544993 0.6972642 0.34683272 0.24492972 0.67080855 0.37084892
1.006458 0.3251217 0.14819413 0.09974031 0.5026962 -0.40992814 0.14771263 0.42217863
0.023108602 0.0028092354 0.40400863 -0.009193767 0.32666123 0.23866265 0.5558631 0.5527852
0.04310971 0.7762125 0.95755184 0.014571166 -0.19828266 1.2764432 0.4887652 0.19023828
0.48070484 0.02930639 0.104927436 -0.054106366 0.4403779 -0.3976705 0.15983477 0.30944365
0.69909143 0.18796861 0.14157443 0.17030866 1.1648285 0.34000388 0.11595576 0.28386518
00000000: e894 10be 9d16 9a3e 8a12 363e e0b7 af3e
00000010: a2a7 613f dcff 523e 4f58 183c 0c14 f63e
00000020: 20db 6b3d 322f a7be 0e11 a83e b946 723e
00000030: f67e 223e 633b 5f3f c3bd 643f 985a 653f
00000040: f12e 383e 9e7f b23e 8a94 2c3f 702d 5c3d
00000050: 1cd3 a43f d662 f83e 95a8 9e3e f42d 473f
00000060: c5c2 d63d 7600 91be 53a9 223e 0c53 a8be
00000070: 5afe 463e f47c 3e3e 3b29 783f f176 dc3e
00000080: f642 943e d580 073f 5760 903e 2c07 a33e
00000090: 9d49 143f 2f55 c53f 1a8f 693f 6cc8 4f3d
000000a0: feb7 2abf 5e97 a23f 12de a73e 5db7 013f
000000b0: 2036 963e 524b 613d 1d06 8dbd d34e b3be
000000c0: fe81 c13e ca65 013f 8612 5b3c d01e bd3e
000000d0: ad37 8b3f 0b5a 2b3e cb42 f23d 3182 5d3e
000000e0: adcf 823f 72f3 463e 7bb4 913e d908 9f3e
000000f0: f30d f03b 61fd 07bf d8ca bcbe e2ab 0dbf
00000100: a62a 02be 0920 b1bd 6d44 1fbf f1d5 f9be
00000110: d791 933c cad1 00be 7734 debe f4bf 04be
00000120: 1089 f8be 5a40 71be 9ea9 1e3e ab2e d6be
00000130: 69cd 05bf bfca efbe 6253 9f3d 9a28 f0bd
00000140: 902c 87be 7c28 2cbe e5f7 e2be 4807 a7be
00000150: 8837 a1be b025 00bf d8ea c2be 3d77 373e
00000160: 76ab 15bf 1b67 f0be 08a0 9abe c441 f7be
00000170: 5438 58be b1d0 76bd 1ea7 03be 943e ccbe
00000180: 671b 29bf e0fc dfbe 8e31 8bbe 0435 c9be
00000190: 0c4b 02bf 7557 afbe 69e3 1d3e 8668 43be
000001a0: 4f8e ac3c 6bf9 1dbf f6d4 a8be a3f6 02be
000001b0: f984 12be 3689 d2be 1fea fcbe 00e6 1c3d
000001c0: 5fc0 2cbd cc42 e8bc 6679 98be 6add c3be
000001d0: 2253 d2be 4502 e43b db2d 93be fed1 94bd
000001e0: 021b f0be b701 d4be eaf4 9ebe e9c4 aebd
000001f0: 58e7 f3be bccc e6be 02fe 93be 6d9b 9cbe
00000200: efef d7be b2a8 df3e 6c08 913e 889f e23e
00000210: 9de7 abbe 8759 0b3f b25b 0ebf 428e 073f
00000220: 16d3 e2be 4cf3 753e e986 edbe e81f edbe
00000230: 572f f1be e50b c0be b8e2 c33e a0f0 d5be
00000240: 8e46 f0be 5eef bfbd a2e3 fb3c a760 f6be
00000250: 4350 723e 044b ad3e 8b3c 053f 3175 66bd
00000260: d428 ddbe c8a4 e1be 42a0 d5be f49d ffbe
00000270: 603d cf3d 9fae fcbe c9d7 f23e 8655 a43e
00000280: 200a aabe dbf1 15bf dda7 d0be c016 a7be
00000290: 6c59 c43e 2302 28be c181 ddbe 8969 c73e
000002a0: d381 ddbe 33c2 183e d738 263e 75fa d53e
000002b0: da19 0f3f 2a07 f4be 457f bcbe 4f40 abbe
000002c0: f8a2 13bf bd7c e1be 7bbc f9be 4630 b73e
000002d0: 6a84 2b3e 86a8 9b3e a79f 893e 52de f13e
000002e0: 903a 823f 6b65 003f 2302 b43d c954 cf3e
000002f0: f29b 3e3f 941b 93bb 89a2 1f3f 3944 013f
00000300: 9993 2e3d 7336 a83f a2c6 933f e87f 323f
00000310: 0f94 b13e dbce 7a3e 1cba 2b3f e9df bd3e
00000320: 9ed3 803f 5a76 a63e 34c0 173e a644 cc3d
00000330: b3b0 003f 1ae2 d1be fb41 173e cc27 d83e
00000340: 404e bd3c 261b 383b 38da ce3e 74a1 16bc
00000350: 2440 a73e fb63 743e 0b4d 0e3f 5583 0d3f
00000360: cf93 303d ddb5 463f 1e22 753f e6bb 6e3c
00000370: 9c0a 4bbe 7e62 a33f 6f3f fa3e d3cd 423e
00000380: f21e f63e f413 f03c 32e4 d63d a39e 5dbd
00000390: 3679 e13e 789b cbbe baab 233e 666f 9e3e
000003a0: a8f7 323f d87a 403e e3f8 103e 6565 2e3e
000003b0: 1a19 953f fd14 ae3e 377a ed3d c756 913e

lstm_1/lstm_cell_1/bias1 f4 [240]
-0.38955644 -0.3225246 -0.25226492 -0.21498822 -0.13934186 -0.39812404 0.080839425 -0.44083586
-0.5178804 -0.41729835 -0.5351098 -0.19749121 -0.12414721 -0.47295362 -0.28803515 -0.34043434
-0.4601412 -0.41189197 -0.16037336 -0.42613265 -0.567695 -0.45678636 -0.50313234 -0.4754525
-0.4251213 -0.4289772 -0.4363107 -0.44416505 -0.4218319 -0.41697654 -0.23883078 -0.4221405
-0.43390515 -0.35159734 -0.52339727 -0.29413292 -0.19417591 -0.22442856 -0.11203875 -0.3301946
-0.4915888 -0.47646797 -0.42059964 -0.40408787 -0.039738175 -0.35030597 -0.35157222 0.3154647
-0.5234777 -0.24344276 -0.34923148 -0.39407837 -0.33995506 -0.43521455 -0.4019415 -0.38806933
-0.34140116 -0.40946937 -0.4242603 -0.60419786 0.6789399 0.75397545 0.5736645 0.6527348
0.30902565 0.76196426 0.88435084 0.72571075 0.51286507 0.74146867 0.74969506 0.57778317
0.7108595 0.68457365 0.63440824 0.5905702 0.66482115 0.63021535 0.7107658 0.8010903
-0.08562827 0.7989334 0.75051165 0.32321844 0.7282694 0.8116654 0.759795 0.6753953
0.6940754 0.6672916 0.6085164 0.7490624 0.5330051 0.84570754 0.7942113 0.7830427
0.5396098 0.47537106 -0.021229427 0.6797203 0.77548337 0.6701549 0.68918145 0.7663645
0.76108265 0.73145545 0.40094003 0.58814085 0.41843057 0.5484241 0.49987757 0.5116602
0.80254376 0.67431825 0.7563144 0.6988528 0.8121773 0.54812497 0.679646 0.6186419
-0.049169946 -0.014126046 -0.00471789 0.006357088 -0.03310409 0.0068633575 -0.017585892 0.026589274
0.017645394 0.033093903 -0.0035966951 -0.026061706 -0.048679177 -0.012302055 0.0057930765 0.0010660919
-0.00085686555 0.008301979 0.014216883 -0.01415733 -0.033065025 0.012794775 0.0030066422 0.010050364
0.017976582 -0.0032138366 0.00039765428 -0.008773694 -0.0016771111 0.01557866 0.039878845 -0.026557812
-0.0041692914 -0.016610956 -0.042070966 -0.018101599 0.027771216 -0.0067277453 0.050285008 -0.02317839
-0.0035010017 -0.0138757685 0.0047409884 -0.04457366 0.026399955 0.029647509 -0.0037497447 0.024074404
0.020276261 -0.031994577 -0.012258715 -0.0032193845 0.02996098 -0.010379775 -0.0053283353 0.009664838
-0.021519627 0.0068553323 0.05322322 -0.0029121116 -0.41105816 -0.32183123 -0.3787164 -0.2555853
-0.099945664 -0.34959653 0.055376094 -0.47561336 -0.5160994 -0.42081633 -0.4844704 -0.16308323
-0.24676839 -0.48208445 -0.23357785 -0.011225104 -0.43889755 -0.41189128 -0.44537604 -0.37207302
-0.5545503 -0.42616868 -0.4805499 -0.45055464 -0.3717236 -0.38755482 -0.46658498 -0.44596794
-0.39680305 -0.35758626 -0.23484223 -0.36984873 -0.49311796 -0.37175038 -0.48322695 -0.3627471
-0.15908384 -0.1438658 -0.14480174 -0.38038576 -0.4371116 -0.42906874 -0.4432728 -0.35988173
-0.13874726 -0.30626306 -0.35250005 0.027736569 -0.49295738 -0.24532339 -0.33672675 -0.36457404
-0.318847 -0.50403774 -0.4131363 -0.40432778 -0.36102512 -0.41074055 -0.43113536 -0.5753469
00000000: f173 c7be f221 a5be de28 81be df25 5cbe
00000010: a2af 0ebe ead6 cbbe 248f a53d 3db5 e1be
00000020: cf93 04bf 21a8 d5be f5fc 08bf 233b 4abe
00000030: e440 febd fa26 f2be 5879 93be 694d aebe
00000040: a197 ebbe 81e3 d2be ea38 24be 0f2e dabe
00000050: 7654 11bf e7df e9be 48cd 00bf 836e f3be
00000060: 80a9 d9be e6a2 dbbe 1e64 dfbe 9a69 e3be
00000070: 5afa d7be f37d d5be 0e90 74be cd22 d8be
00000080: d128 debe 9104 b4be 5dfd 05bf 9798 96be
00000090: 0dd6 46be 9ad0 65be 9274 e5bd 440f a9be
000000a0: 87b1 fbbe 9cf3 f3be d658 d7be 9be4 cebe
000000b0: 7fc4 22bd 4e5b b3be 4601 b4be 9784 a13e
000000c0: a202 06bf 0f49 79be 78ce b2be a4c4 c9be
000000d0: 970e aebe 71d4 debe 47cb cdbe 06b1 c6be
000000e0: 22cc aebe f8a5 d1be a538 d9be b6ac 1abf
000000f0: 01cf 2d3f 8904 413f addb 123f a119 273f
00000100: 9c38 9e3e 1710 433f d164 623f 2ec8 393f
00000110: 204b 033f e4d0 3d3f 04ec 3f3f 99e9 133f
00000120: e3fa 353f 3840 2f3f 9468 223f 9c2f 173f
00000130: b831 2a3f cb55 213f bff4 353f 4114 4d3f
00000140: e05d afbd e686 4c3f 8821 403f e37c a53e
00000150: dd6f 3a3f 4ec9 4f3f ed81 423f b5e6 2c3f
00000160: edae 313f 9fd3 2a3f bbc7 1b3f 8ec2 3f3f
00000170: 0673 083f 4a80 583f 6f51 4b3f 7d75 483f
00000180: de23 0a3f d663 f33e 56e9 adbc 2602 2e3f
00000190: 1486 463f 468f 2b3f 326e 303f 7730 443f
000001a0: 50d6 423f aa40 3b3f 0348 cd3e 6690 163f
000001b0: 883c d63e 8665 0c3f f4ef ff3e 2afc 023f
000001c0: 8273 4d3f 1fa0 2c3f d29d 413f 04e8 323f
000001d0: daea 4f3f eb51 0c3f 48fd 2d3f 515f 1e3f
000001e0: 6d66 49bd ee70 67bc 8898 9abb 1f4f d03b
000001f0: 2798 07bd 04e6 e03b 4a10 90bc c0d1 d93c
00000200: 138d 903c 798d 073d 88b6 6bbb 5c7f d5bc
00000210: d163 47bd 8f8e 49bc d9d3 bd3b 1cbc 8b3a
00000220: 469f 60ba 0605 083c eeed 683c 25f4 67bc
00000230: 316f 07bd 2da1 513c 160b 453b 48aa 243c
00000240: a043 933c 3b9f 52bb 417c d039 8abf 0fbc
00000250: 83d2 dbba a33d 7f3c 0058 233d c58f d9bc
00000260: 8d9e 88bb b313 88bc 9b52 2cbd ce49 94bc
00000270: 7680 e33c 6b74 dcbb a7f7 4d3d 9be0 bdbc
00000280: 1071 65bb 3157 63bc 4b5a 9b3b df92 36bd
00000290: b844 d83c 55df f23c 47be 75bb af37 c53c
000002a0: 671a a63c bf0c 03bd c7d8 48bc 4ffc 52bb
000002b0: bb70 f53c ef0f 2abc 5199 aebb 4559 1e3c
000002c0: ee49 b0bc b2a2 e03b 9700 5a3d 20d9 3ebb
000002d0: 3776 d2be 10c7 a4be 1ee7 c1be 14dc 82be
000002e0: 50b0 ccbd 51fe b2be 0bd2 623d 9883 f3be
000002f0: 171f 04bf 3d75 d7be 810c f8be 4aff 26be
00000300: dab0 7cbe c6d3 f6be 082f 6fbe 80e9 37bc
00000310: 2eb7 e0be 6ae3 d2be 5408 e4be 5b80 bebe
00000320: 02f7 0dbf c832 dabe a30a f6be 19af e6be
00000330: 8e52 bebe 966d c6be 3ae4 eebe e955 e4be
00000340: c529 cbbe 8c15 b7be 7b7a 70be d05c bdbe
00000350: f579 fcbe 1156 bebe 8669 f7be fdb9 b9be
00000360: e0e6 22be 8e51 13be e846 14be ecc1 c2be
00000370: 17cd dfbe e6ae dbbe a7f4 e2be 6b42 b8be
00000380: c313 0ebe 83ce 9cbe e37a b4be cd37 e33c
00000390: e964 fcbe 0e36 7bbe 7367 acbe 73a9 babe
000003a0: ea3f a3be 9e08 01bf 9a86 d3be 0d04 cfbe
000003b0: 49d8 b8be 964c d2be c6bd dcbe ef49 13bf

std.constant23 i1 [240, 60] scale=0.01326748 zero_point=0
0.17247725 -0.05306992 0.2520821 0.19901219 -0.09287236 -0.14594227 -0.05306992 -0.2520821
-0.2520821 0.05306992 -0.22554716 -0.01326748 0.03980244 -0.1326748 0.01326748 -0.3449545
0.1326748 0.02653496 -0.61030406 0.07960488 -0.02653496 0.07960488 -0.03980244 -0.0663374
0.10613984 0.1326748 -0.1326748 -0.02653496 0.03980244 0.15920976 -0.2520821 0.03980244
-0.31841952 0.19901219 0.03980244 0.02653496 0.09287236 0.07960488 -0.03980244 0.03980244
0.0 0.17247725 0.09287236 -0.15920976 -0.03980244 -0.1326748 0.05306992 0.14594227
0.23881464 0.0663374 0.02653496 0.01326748 -0.03980244 0.10613984 -0.03980244 -0.07960488
-0.0663374 0.0 0.11940732 -0.19901219 0.01326748 0.02653496 0.689909 0.5837691
-0.05306992 -0.09287236 -0.14594227 -0.07960488 0.10613984 -0.1326748 -0.29188454 -0.0663374
-0.05306992 -0.21227968 0.19901219 -0.7827813 -0.09287236 0.14594227 -1.0481309 -0.01326748
0.23881464 -0.01326748 -0.23881464 -0.05306992 -0.31841952 0.11940732 -0.41129187 0.0
-0.02653496 0.30515203 -0.27861708 0.3449545 -0.4643618 0.30515203 -0.03980244 0.23881464
0.22554716 0.7164439 -0.5970366 0.41129187 0.0 0.15920976 -0.39802438 0.35822195
-0.03980244 0.19901219 0.7164439 -0.15920976 -0.01326748 0.42455935 -0.15920976 -0.11940732
-0.4643618 0.17247725 0.41129187 -0.35822195 0.2653496 0.09287236 -0.27861708 -0.15920976
-0.23881464 -0.07960488 -0.5970366 0.38475692 -0.42455935 -0.11940732 0.09287236 0.35822195
-0.11940732 0.22554716 0.09287236 -0.63683903 -0.5306992 0.11940732 0.10613984 -0.55723417
0.05306992 0.05306992 -0.5970366 0.11940732 0.03980244 0.0663374 -0.2653496 0.10613984
0.37148944 0.15920976 0.21227968 -0.07960488 -0.11940732 0.0 0.17247725 0.1326748
0.5705016 -0.10613984 0.05306992 0.01326748 0.23881464 -0.3449545 0.2653496 -0.1326748
0.0663374 0.27861708 0.03980244 0.0 0.30515203 0.17247725 -0.14594227 -0.4643618
-0.0663374 -0.51743174 0.11940732 0.2520821 0.0 0.19901219 -0.07960488 0.14594227
-0.0663374 0.22554716 0.01326748 -0.14594227 0.63683903 -0.14594227 0.67664146 0.19901219
-0.01326748 -0.2520821 -0.09287236 -0.7827813 -0.22554716 0.09287236 -0.3449545 -0.07960488
-0.02653496 0.11940732 -0.29188454 0.31841952 0.41129187 -0.0663374 0.3449545 0.10613984
-0.18574472 0.5705016 -0.21227968 -0.23881464 0.29188454 0.331687 0.14594227 -0.55723417
-0.18574472 0.5837691 -0.5837691 0.35822195 -0.331687 0.5041642 0.22554716 -0.331687
-0.29188454 0.37148944 -0.47762927 0.10613984 0.3449545 0.30515203 0.5041642 -0.37148944
-0.09287236 -0.01326748 0.15920976 0.38475692 -0.21227968 0.45109433 -0.01326748 0.09287236
0.23881464 -0.5837691 -0.5837691 0.09287236 -0.21227968 -0.7562463 0.18574472 -0.37148944
0.05306992 -0.07960488 0.49089676 0.0663374 0.19901219 -0.01326748 -0.29188454 -0.02653496
-0.05306992 0.03980244 0.1326748 0.31841952 0.27861708 0.21227968 0.43782684 0.10613984
00000000: 0dfc 130f f9f5 fced ed04 efff 03f6 01e6
00000010: 0a02 d206 fe06 fdfb 080a f6fe 030c ed03
00000020: e80f 0302 0706 fd03 000d 07f4 fdf6 040b
00000030: 1205 0201 fd08 fdfa fb00 09f1 0102 342c
00000040: fcf9 f5fa 08f6 eafb fcf0 0fc5 f90b b1ff
00000050: 12ff eefc e809 e100 fe17 eb1a dd17 fd12
00000060: 1136 d31f 000c e21b fd0f 36f4 ff20 f4f7
00000070: dd0d 1fe5 1407 ebf4 eefa d31d e0f7 071b
00000080: f711 07d0 d809 08d6 0404 d309 0305 ec08
00000090: 1c0c 10fa f700 0d0a 2bf8 0401 12e6 14f6
000000a0: 0515 0300 170d f5dd fbd9 0913 000f fa0b
000000b0: fb11 01f5 30f5 330f ffed f9c5 ef07 e6fa
000000c0: fe09 ea18 1ffb 1a08 f22b f0ee 1619 0bd6
000000d0: f22c d41b e726 11e7 ea1c dc08 1a17 26e4
000000e0: f9ff 0c1d f022 ff07 12d4 d407 f0c7 0ee4
000000f0: 04fa 2505 0fff eafe fc03 0a18 1510 2108

std.constant24 i1 [240, 60] scale=0.015671536 zero_point=0
-0.062686145 -0.109700754 -0.04701461 0.20372997 -0.14104383 0.21940151 -0.109700754 -0.04701461
-0.14104383 0.15671536 0.14104383 0.04701461 0.015671536 0.29775918 0.0 -0.14104383
0.14104383 -0.09402922 -0.1723869 -0.09402922 -0.109700754 0.14104383 0.0 0.26641613
-0.21940151 0.015671536 -0.28208765 -0.14104383 -0.062686145 0.015671536 -0.1723869 0.31343073
-0.1723869 -0.109700754 0.015671536 0.09402922 -0.25074458 0.09402922 -0.015671536 0.062686145
-0.15671536 0.12537229 -0.09402922 0.25074458 0.09402922 -0.15671536 -0.39178842 0.031343073
-0.32910228 0.0 0.04701461 0.031343073 0.31343073 0.14104383 0.15671536 -0.20372997
-0.12537229 -0.15671536 -0.26641613 0.12537229 0.53283226 0.04701461 0.09402922 0.40745994
0.45447457 0.43880302 0.0 0.31343073 -0.015671536 -0.59551835 0.21940151 -0.18805844
0.26641613 -0.78357685 0.62686145 -0.62686145 -0.04701461 0.109700754 0.37611687 0.42313147
0.79924834 0.32910228 0.109700754 0.25074458 0.31343073 0.40745994 -0.20372997 0.07835768
-0.1723869 -0.12537229 -0.59551835 0.4701461 0.26641613 0.062686145 0.12537229 0.062686145
-0.09402922 0.67387605 -0.57984686 -0.12537229 -0.062686145 0.62686145 0.29775918 0.29775918
-0.39178842 -0.39178842 -0.09402922 0.015671536 -0.09402922 -0.31343073 0.15671536 -0.54850376
-0.42313147 0.6111899 0.6111899 0.12537229 0.7679053 0.09402922 0.18805844 -0.25074458
0.57984686 -0.031343073 -0.25074458 0.59551835 0.42313147 0.84626293 0.20372997 0.50148916
0.0 -0.14104383 -0.14104383 -0.54850376 -0.09402922 -0.28208765 0.3447738 0.0
0.04701461 0.4701461 0.36044532 0.642533 -0.14104383 -0.18805844 0.18805844 -0.31343073
0.6895476 -0.20372997 0.062686145 0.62686145 0.29775918 0.09402922 -0.39178842 -0.32910228
0.53283226 0.12537229 0.3447738 0.18805844 0.09402922 -0.18805844 0.15671536 -0.42313147
-0.26641613 -0.015671536 0.37611687 -0.04701461 -0.7679053 -0.32910228 0.18805844 -0.09402922
0.21940151 0.26641613 0.0 -0.59551835 -0.28208765 0.90894914 0.5641753 0.109700754
0.32910228 0.7365622 0.5171607 -0.42313147 0.15671536 -0.45447457 -0.15671536 -0.031343073
-0.1723869 -0.21940151 -0.37611687 0.39178842 -0.031343073 -0.43880302 0.36044532 0.062686145
0.39178842 0.14104383 0.04701461 -0.1723869 -0.43880302 0.109700754 -0.04701461 0.109700754
-0.09402922 0.031343073 -0.28208765 0.32910228 -0.015671536 0.25074458 -0.26641613 -0.50148916
0.40745994 -0.18805844 -0.015671536 0.109700754 -0.26641613 0.04701461 -0.25074458 -0.42313147
-0.25074458 0.031343073 -0.14104383 0.31343073 0.07835768 -0.12537229 -0.14104383 -0.20372997
0.14104383 0.29775918 -0.642533 0.21940151 -0.031343073 -0.26641613 0.7365622 -0.1723869
0.09402922 -0.031343073 0.07835768 0.015671536 -0.21940151 -0.14104383 -0.29775918 0.18805844
1.1596937 0.39178842 -0.23507304 0.36044532 0.9873068 0.72089064 -0.3447738 0.7679053
0.54850376 -0.67387605 -0.42313147 -0.57984686 0.23507304 -1.0970075 1.4104383 -0.67387605
00000000: fcf9 fd0d f70e f9fd f70a 0903 0113 00f7
00000010: 09fa f5fa f909 0011 f201 eef7 fc01 f514
00000020: f5f9 0106 f006 ff04 f608 fa10 06f6 e702
00000030: eb00 0302 1409 0af3 f8f6 ef08 2203 061a
00000040: 1d1c 0014 ffda 0ef4 11ce 28d8 fd07 181b
00000050: 3315 0710 141a f305 f5f8 da1e 1104 0804
00000060: fa2b dbf8 fc28 1313 e7e7 fa01 faec 0add
00000070: e527 2708 3106 0cf0 25fe f026 1b36 0d20
00000080: 00f7 f7dd faee 1600 031e 1729 f7f4 0cec
00000090: 2cf3 0428 1306 e7eb 2208 160c 06f4 0ae5
000000a0: efff 18fd cfeb 0cfa 0e11 00da ee3a 2407
000000b0: 152f 21e5 0ae3 f6fe f5f2 e819 fee4 1704
000000c0: 1909 03f5 e407 fd07 fa02 ee15 ff10 efe0
000000d0: 1af4 ff07 ef03 f0e5 f002 f714 05f8 f7f3
000000e0: 0913 d70e feef 2ff5 06fe 0501 f2f7 ed0c
000000f0: 4a19 f117 3f2e ea31 23d5 e5db 0fba 5ad5
