DATN_LSTM_SMGW-main/rx_service/src/LSTM_model/LSTM_model_2_temp.tflite (tflite, 67328 bytes, 9 tensors)

lstm_4/lstm_cell_1/bias f4 [240]
-0.29555288 -0.40912497 -0.42502952 -0.39783132 0.13378188 -0.32533014 -0.50260204 -0.4669966
-0.6056238 -0.14713034 -0.49760434 -0.19922711 -0.5356337 -0.532866 -0.43440595 -0.47562525
-0.47761732 -0.50849706 -0.32555214 -0.4861504 -0.43872747 -0.633483 -0.47170764 -0.5549401
-0.5336355 -0.26992932 -0.5361782 -0.64274865 -0.56009156 -0.4470466 -0.5501745 -0.5781245
-0.34096512 -0.4602865 -0.336863 -0.5002895 -0.5095175 -0.4779276 -0.51786226 -0.46551448
-0.6611299 -0.19387259 -0.5164468 -0.49496 -0.5833573 -0.5774058 -0.49469247 0.09665245
-0.5265972 -0.49864095 -0.5789132 -0.35468858 -0.34208193 -0.62032336 -0.5516467 -0.48353958
-0.274607 -0.46856615 -0.21060681 -0.49671108 1.0456345 0.5848372 0.61890066 0.8872812
0.113574 0.3746772 0.49331835 0.5232928 0.57088935 1.1455591 0.4917326 1.1040853
0.4568694 0.8175278 0.88066417 0.5485354 0.6525898 0.6881563 0.9313988 0.39056268
0.83946806 0.4600999 0.60727507 0.6915747 0.76816773 1.0237435 0.4251298 0.4360362
0.6178142 0.8722587 0.53886884 0.47577867 0.9542359 0.9098925 0.9172272 0.72826886
0.41530576 0.82274294 0.4002202 0.5446731 0.533966 0.77909714 0.74234295 0.7622592
0.6728217 0.67847407 0.6575056 1.2299528 0.30412722 0.8056603 0.41594163 1.0056702
0.91355765 0.4733941 0.50107455 0.65520823 1.0235676 0.7098742 1.131745 0.6588794
-0.018773338 -0.015395928 -0.014421569 0.017501999 0.009259931 0.0072460957 -0.008244937 0.013151706
-0.002572497 -0.014012537 -0.015497648 -0.012558033 -0.006853954 0.015483647 0.0046411986 -0.024741322
-0.005902955 -0.014207221 -0.019686133 -0.0054008057 -0.030942835 0.0054792706 0.012507952 0.014431171
-0.008198194 -0.017292228 -0.015977107 0.0015286354 -0.0050782124 -0.0009411185 -0.00039289566 0.013033709
-0.008387282 -0.0151451 0.0093611125 0.009861137 -0.021058697 -0.0038465809 0.015043089 -0.0025517913
-0.0066343336 0.01674409 0.019491443 -0.01007092 0.020519342 0.020297801 0.0069238883 -0.007519
-0.006887551 0.0062896544 -0.005534784 -0.01537609 0.011218009 -0.008119856 -0.0020191062 -0.02564024
-0.024108052 0.016298529 -0.01591257 0.004236571 -0.30537653 -0.4112835 -0.41260284 -0.39716116
0.0037937192 -0.34446937 -0.47743446 -0.45513245 -0.5984927 -0.14704205 -0.52743083 -0.20906284
-0.5457765 -0.5320166 -0.42431295 -0.4839661 -0.49332252 -0.5180631 -0.32563385 -0.48537302
-0.44107962 -0.6290799 -0.49253476 -0.5714674 -0.5512314 -0.28211483 -0.51568913 -0.6359126
-0.5772281 -0.41705602 -0.5573303 -0.58899087 -0.33877504 -0.45786202 -0.3392894 -0.49568743
-0.518996 -0.48226914 -0.5230331 -0.47190768 -0.6603256 -0.24512093 -0.51992583 -0.51049143
-0.5683011 -0.5758255 -0.49218506 0.053467464 -0.521718 -0.50635105 -0.57445246 -0.35972252
-0.3420023 -0.62396246 -0.5341779 -0.49954337 -0.27428818 -0.491321 -0.22054085 -0.49025258
00000000: b552 97be d478 d1be 789d d9be 8cb0 cbbe
00000010: 1efe 083e ac91 a6be 87aa 00bf 2e1a efbe
00000020: 290a 1bbf 56a9 16be ffc5 febe 3102 4cbe
00000030: 4a1f 09bf e869 08bf 756a debe 2785 f3be
00000040: 428a f4be dd2c 02bf c5ae a6be b5e8 f8be
00000050: e3a0 e0be f12b 22bf aa83 f1be 8e10 0ebf
00000060: 569c 08bf 2d34 8abe f942 09bf 2d8b 24bf
00000070: 2962 0fbf 4be3 e4be 3cd8 0cbf f8ff 13bf
00000080: fb92 aebe acaa ebbe 4f79 acbe f912 00bf
00000090: bd6f 02bf edb2 f4be 9f92 04bf ea57 eebe
000000a0: cf3f 29bf 8986 46be dc35 04bf 666b fdbe
000000b0: e756 15bf ded0 13bf 5548 fdbe b8f1 c53d
000000c0: 13cf 06bf de4d ffbe a833 14bf be99 b5be
000000d0: 5d25 afbe 83cd 1ebf b838 0dbf 8092 f7be
000000e0: 4a99 8cbe e7e7 efbe 50a9 57be ea50 febe
000000f0: 5ad7 853f e4b7 153f 4670 1e3f dc24 633f
00000100: 7c99 e83d b1d5 bf3e 3994 fc3e 84f6 053f
00000110: ce25 123f aea1 923f 60c4 fb3e ab52 8d3f
00000120: c9ea e93e 8049 513f 3573 613f d16c 0c3f
00000130: 2010 273f 032b 303f 2770 6e3f d5f7 c73e
00000140: 61e7 563f 3792 eb3e 6176 1b3f 0a0b 313f
00000150: a4a6 443f 070a 833f 9daa d93e 2340 df3e
00000160: 1229 1e3f 594c 5f3f 4ff3 093f 4399 f33e
00000170: ce48 743f b7ee 683f 67cf 6a3f d46f 3a3f
00000180: f5a2 d43e 489f 523f a9e9 cc3e b26f 0b3f
00000190: ffb1 083f e972 473f 300a 3e3f 6b23 433f
000001a0: 0b3e 2c3f 7ab0 2d3f 4952 283f 186f 9d3f
000001b0: 90b6 9b3e c13f 4e3f 4df6 d43e cdb9 803f
000001c0: eade 693f b660 f23e 6c46 003f babb 273f
000001d0: 4304 833f 51ba 353f 05dd 903f 52ac 283f
000001e0: 8bca 99bc 343f 7cbc 7248 6cbc 5a60 8f3c
000001f0: f7b6 173c a870 ed3b c615 07bc 417a 573c
00000200: 5697 28bb d794 65bc d9e9 7dbc 35c0 4dbc
00000210: 2297 e0bb 1faf 7d3c 3215 983b 50ae cabc
00000220: 936d c1bb 67c5 68bc d044 a1bc 3ef9 b0bb
00000230: d47b fdbc 748b b33b 27ee 4c3c b870 6c3c
00000240: b851 06bc 6ea8 8dbc 6ce2 82bc 7e5c c83a
00000250: 2267 a6bb 65b5 76ba 90fd cdb9 568b 553c
00000260: cf6a 09bc 2723 78bc 5a5f 193c 9b90 213c
00000270: 4a83 acbc eb16 7cbb 4a77 763c f43b 27bb
00000280: d364 d9bb e72a 893c 85ac 9f3c 8000 25bc
00000290: 2e18 a83c 9347 a63c c9e1 e23b f261 f6bb
000002a0: f7b0 e1bb 7219 ce3b 225d b5bb ffeb 7bbc
000002b0: bdcb 373c 2509 05bc fb52 04bb 7b0b d2bc
000002c0: 407e c5bc 7e84 853c 145b 82bc efd2 8a3b
000002d0: 505a 9cbe c093 d2be ae40 d3be b558 cbbe
000002e0: 0ca0 783b 4a5e b0be 4a72 f4be 1f07 e9be
000002f0: d136 19bf 3192 16be b505 07bf 9214 56be
00000300: 02b8 0bbf 3d32 08bf 8c3f d9be 68ca f7be
00000310: c594 fcbe c99f 04bf 7bb9 a6be d082 f8be
00000320: 30d5 e1be 610b 21bf 842d fcbe b04b 12bf
00000330: 801d 0dbf 5b71 90be 3404 04bf 2bcb 22bf
00000340: 39c5 13bf 5e88 d5be 33ad 0ebf 1bc8 16bf
00000350: ec73 adbe e46c eabe 57b7 adbe beca fdbe
00000360: ecdc 04bf fbeb f6be 7fe5 05bf e29d f1be
00000370: 190b 29bf fb00 7bbe dc19 05bf 91af 02bf
00000380: 2e7c 11bf 4d69 13bf aeff fbbe b300 5b3d
00000390: 508f 05bf 39a0 01bf 510f 13bf 8d2d b8be
000003a0: ed1a afbe 01bc 1fbf e2bf 08bf 26c4 ffbe
000003b0: 806f 8cbe 6d8e fbbe 76d5 61be 6302 fbbe

lstm_3/lstm_cell/bias f4 [240]
0.32859236 0.14324462 -0.6153911 -0.20040284 0.024934566 1.0737997 -0.2735842 0.09278966
-0.07246875 -0.06669911 -0.42134953 -0.110884696 -0.19459759 -0.16710518 -0.31313455 -0.37414768
-0.3514298 -0.06002221 0.32877263 -0.37088236 0.95583516 0.12152917 -0.074462876 -0.40602225
1.424849 0.17249507 0.013355179 -0.21833676 0.14855586 -0.34246528 -0.2558634 -0.14899293
-0.3724079 -0.05439543 -0.009685093 -0.230068 -0.24417284 0.0083097005 -0.07083773 -0.23028867
0.24681896 -0.36178836 -0.11881868 -0.3415309 0.06756796 -0.33152592 -0.34662253 -0.012871595
-0.058276474 -0.18468796 -0.32127008 -0.20104101 0.4366763 -0.055562805 0.096511155 0.25399333
0.041326523 -0.45985177 1.626691 -0.1711345 0.26189065 0.6804774 0.80093396 1.1685501
0.82860684 0.14365655 1.0447567 0.345371 0.43612352 1.265268 0.9373906 1.2278497
0.25417912 1.1875343 0.80159724 0.8472 0.9088274 0.9068687 0.6724243 0.86194265
0.13012747 0.84712625 0.31081286 0.5457093 0.55587834 0.29882437 0.6991258 0.94755876
0.9600842 0.6780501 0.5665076 0.8355149 0.51558596 1.2319278 0.86475396 1.0315901
0.37204006 0.69886506 0.4328616 0.7939045 0.48044917 0.68414974 0.6155615 0.6616927
0.5008787 0.4847601 0.9599576 1.1983823 0.6557367 0.43407738 0.6456194 0.6046136
0.13748418 0.742732 0.7842189 0.60436606 0.9165947 0.4828173 0.94673216 0.26265794
-0.13333192 0.15105562 0.022024233 -0.072100036 0.14345233 0.17438298 0.059546087 0.13005485
-0.13329625 0.016536053 0.038371306 -0.048706852 0.10806975 -0.10454105 0.05859615 -0.109706156
-0.06540155 0.12087397 -0.16415398 0.05166865 0.16608447 -0.13968515 0.114472434 -0.041004505
-0.22548242 0.14183581 0.13741952 -0.11586839 0.085404046 -0.10576813 -0.11743542 0.1421501
-0.10736964 -0.08944542 -0.13185833 -0.0006912288 -0.10490565 0.15843597 0.1366943 -0.11477702
-0.16047503 0.10111679 -0.07621119 0.07427849 -0.14389412 0.0992299 -0.020373242 -0.015562905
-0.14284128 -0.11468339 0.08802045 0.12336033 0.15188943 -0.12797959 0.07459574 0.15076558
-0.14772485 -0.10081596 -0.19610386 0.11718869 0.32003734 0.13186051 -0.58577734 -0.2024561
0.020714577 1.1559521 -0.2731556 0.07623377 -0.07236231 -0.10251045 -0.41617483 -0.11800697
-0.18637389 -0.16200237 -0.29315868 -0.37459755 -0.3813214 -0.060549375 0.39793068 -0.37274316
0.9681353 0.1661387 -0.08509334 -0.4160699 1.6593134 0.17834398 -0.005139053 -0.24064896
0.16287038 -0.3459977 -0.26516178 -0.16394857 -0.38666287 -0.068614036 -0.021444434 -0.23955438
-0.2558811 0.0233117 -0.06793374 -0.23602124 0.2444234 -0.3664743 -0.12715541 -0.3376323
0.055227257 -0.3419868 -0.3459969 -0.027479336 -0.08067249 -0.17887047 -0.33237153 -0.19486426
0.45173347 -0.052904982 0.10730761 0.17362668 0.034924578 -0.4629475 1.6975441 -0.17286435
00000000: 423d a83e b8ae 123e 458a 1dbf 6736 4dbe
00000010: 9343 cc3c 4572 893f 3a13 8cbe 8108 be3d
00000020: 7f6a 94bd 8b99 88bd 20bb d7be 8417 e3bd
00000030: 9744 47be 9f1d 2bbe 2c53 a0be 4990 bfbe
00000040: 9bee b3be d9d9 75bd e354 a83e 4be4 bdbe
00000050: 9db1 743f 49e4 f83d fe7f 98bd 26e2 cfbe
00000060: 7461 b63f 8ca2 303e aecf 5a3c ac93 5fbe
00000070: 071f 183e 9c57 afbe 8700 83be 9a91 18be
00000080: 40ac bebe becd 5ebd 39ae 1ebc f296 6bbe
00000090: 7208 7abe 6925 083c 5f13 91bd cbd0 6bbe
000000a0: 1cbe 7c3e 533c b9be 3557 f3bd 23dd aebe
000000b0: 1261 8a3d c4bd a9be 8278 b1be 62e3 52bc
000000c0: 50b3 6ebd d71e 3dbe 837d a4be b2dd 4dbe
000000d0: 0994 df3e d395 63bd a4a7 c53d 6a0b 823e
000000e0: 0046 293d b171 ebbe 6937 d03f e23d 2fbe
000000f0: 8816 863e c433 2e3f 020a 4d3f 0d93 953f
00000100: 941f 543f b41a 133e 96ba 853f 78d4 b03e
00000110: 954b df3e 4df4 a13f d5f8 6f3f 2e2a 9d3f
00000120: c423 823e 2001 983f 7a35 4d3f 19e2 583f
00000130: eaa8 683f 8c28 683f 0024 2c3f 46a8 5c3f
00000140: 2340 053e 44dd 583f dd22 9f3e 9bb3 0b3f
00000150: 0b4e 0e3f 82ff 983e e9f9 323f 3693 723f
00000160: 14c8 753f b194 2d3f a406 113f 4ee4 553f
00000170: 71fd 033f cfaf 9d3f 8460 5d3f 250b 843f
00000180: 097c be3e d2e8 323f 09a0 dd3e 533d 4b3f
00000190: 6ffd f53e 7024 2f3f 7095 1d3f b164 293f
000001a0: 9639 003f 7a32 f83e c8bf 753f 9764 993f
000001b0: 5cde 273f 643f de3e 5047 253f f5c7 1a3f
000001c0: a7c8 0c3e af23 3e3f 92c2 483f bcb7 1a3f
000001d0: f3a5 6a3f d433 f73e 0a5d 723f 1a7b 863e
000001e0: 2a88 08be 53ae 1a3e 2a6c b43c 2fa9 93bd
000001f0: 2be5 123e 7491 323e 99e6 733d 192d 053e
00000200: d07e 08be 9e76 873c 3b2b 1d3d d680 47bd
00000210: ac53 dd3d 9e19 d6bd 8402 703d 9fad e0bd
00000220: 3ff1 85bd c68c f73d fb17 28be 82a2 533d
00000230: 0c12 2a3e a009 0fbe 8670 ea3d 57f4 27bd
00000240: dde4 66be 683d 113e b4b7 0c3e 684c edbd
00000250: 51e8 ae3d f69c d8bd fb81 f0bd cc8f 113e
00000260: 9de4 dbbd 292f b7bd df05 07be 9433 35ba
00000270: c6d8 d6bd 0a3d 223e 97f9 0b3e 3710 ebbd
00000280: 9153 24be 5216 cf3d 9d14 9cbd 521f 983d
00000290: fb58 13be 0c39 cb3d c9e5 a6bc 8efb 7ebc
000002a0: fc44 12be 20df eabd 1144 b43d 57a4 fc3d
000002b0: e788 1b3e 150d 03be a7c5 983d 4b62 1a3e
000002c0: 2f45 17be 9978 cebd 73cf 48be a000 f03d
000002d0: efdb a33e 7106 073e 81f5 15bf a750 4fbe
000002e0: 9eb1 a93c 3df6 933f 0ddb 8bbe 7320 9c3d
000002f0: b132 94bd 00f1 d1bd de14 d5be a3ad f1bd
00000300: ccd8 3ebe f3e3 25be e518 96be 40cb bfbe
00000310: 8f3c c3be 9f02 78bd 92bd cb3e 31d8 bebe
00000320: b7d7 773f 4320 2a3e 6b45 aebd 1d07 d5be
00000330: 6264 d43f ce9f 363e 8065 a8bb ae6c 76be
00000340: 7ec7 263e 9c26 b1be 49c3 87be 22e2 27be
00000350: adf8 c5be 8485 8cbd 3dac afbc be4d 75be
00000360: d902 83be 2ef8 be3c d820 8bbd 8daf 71be
00000370: 214a 7a3e 85a2 bbbe 0735 02be 24de acbe
00000380: fa35 623d e518 afbe 8126 b1be 581c e1bc
00000390: 9e37 a5bd d229 37be 9a2c aabe 7f8a 47be
000003a0: 9c49 e73e e5b2 58bd 18c4 db3d 31cb 313e
000003b0: 130d 0f3d 7407 edbe 2049 d93f 5a03 31be

std.constant5 f4 [1, 60]
0.06491171 0.13164613 -0.1194412 -0.10789074 -0.15040284 -0.15968113 0.16045515 -0.14741714
-0.1490464 0.044256445 0.15440334 0.04732867 -0.16093606 -0.1090305 -0.11128729 0.14567551
0.15619572 0.10926986 0.08044677 0.14590931 0.10074114 0.14975561 -0.13938606 0.14415981
0.11408175 0.07167993 -0.165958 0.15656269 0.14155011 -0.12200342 -0.13481109 0.13185741
0.08181097 0.10486483 -0.107765034 -0.12480394 0.17904183 0.11737717 -0.16173722 -0.12398508
-0.140429 -0.10982217 -0.13131754 0.12417356 -0.13008067 -0.13697757 -0.15992007 -0.027635563
0.15824845 0.116229005 0.17457163 0.07440377 -0.10381496 0.15361789 -0.1679883 -0.12849915
0.06295967 -0.15344788 0.04818467 -0.14886466
00000000: 6ef0 843d 3ece 063e 969d f4bd d2f5 dcbd
00000010: 3403 1abe 7383 23be 5b4e 243e 85f4 16be
00000020: 9f9f 18be 3f46 353d e91b 1e3e b5db 413d
00000030: 6ccc 24be 624b dfbd 97ea e3bd f62b 153e
00000040: c5f1 1f3e e0c8 df3d 47c1 a43d 4069 153e
00000050: 5f51 ce3d 8959 193e 38bb 0ebe a19e 133e
00000060: b1a3 e93d edcc 923d e5f0 29be f851 203e
00000070: 83f2 103e eedc f9bd eb0b 0abe a105 073e
00000080: 838c a73d 5fc3 d63d eab3 dcbd 3599 ffbd
00000090: be56 373e 7163 f03d 719e 25be e4eb fdbd
000000a0: 9fcc 0fbe 72ea e0bd 1b78 06be b54e fe3d
000000b0: de33 05be d943 0cbe 16c2 23be fa63 e2bc
000000c0: e20b 223e 7909 ee3d e8c2 323e 0161 983d
000000d0: f09c d4bd 024e 1d3e 2005 2cbe 4895 03be
000000e0: 00f1 803d 7121 1dbe 4a5d 453d fa6f 18be

lstm_3/lstm_cell/bias1 f4 [240]
0.32859236 0.14324462 -0.6153911 -0.20040284 0.024934566 1.0737997 -0.2735842 0.09278966
-0.07246875 -0.06669911 -0.42134953 -0.110884696 -0.19459759 -0.16710518 -0.31313455 -0.37414768
-0.3514298 -0.06002221 0.32877263 -0.37088236 0.95583516 0.12152917 -0.074462876 -0.40602225
1.424849 0.17249507 0.013355179 -0.21833676 0.14855586 -0.34246528 -0.2558634 -0.14899293
-0.3724079 -0.05439543 -0.009685093 -0.230068 -0.24417284 0.0083097005 -0.07083773 -0.23028867
0.24681896 -0.36178836 -0.11881868 -0.3415309 0.06756796 -0.33152592 -0.34662253 -0.012871595
-0.058276474 -0.18468796 -0.32127008 -0.20104101 0.4366763 -0.055562805 0.096511155 0.25399333
0.041326523 -0.45985177 1.626691 -0.1711345 0.26189065 0.6804774 0.80093396 1.1685501
0.82860684 0.14365655 1.0447567 0.345371 0.43612352 1.265268 0.9373906 1.2278497
0.25417912 1.1875343 0.80159724 0.8472 0.9088274 0.9068687 0.6724243 0.86194265
0.13012747 0.84712625 0.31081286 0.5457093 0.55587834 0.29882437 0.6991258 0.94755876
0.9600842 0.6780501 0.5665076 0.8355149 0.51558596 1.2319278 0.86475396 1.0315901
0.37204006 0.69886506 0.4328616 0.7939045 0.48044917 0.68414974 0.6155615 0.6616927
0.5008787 0.4847601 0.9599576 1.1983823 0.6557367 0.43407738 0.6456194 0.6046136
0.13748418 0.742732 0.7842189 0.60436606 0.9165947 0.4828173 0.94673216 0.26265794
-0.13333192 0.15105562 0.022024233 -0.072100036 0.14345233 0.17438298 0.059546087 0.13005485
-0.13329625 0.016536053 0.038371306 -0.048706852 0.10806975 -0.10454105 0.05859615 -0.109706156
-0.06540155 0.12087397 -0.16415398 0.05166865 0.16608447 -0.13968515 0.114472434 -0.041004505
-0.22548242 0.14183581 0.13741952 -0.11586839 0.085404046 -0.10576813 -0.11743542 0.1421501
-0.10736964 -0.08944542 -0.13185833 -0.0006912288 -0.10490565 0.15843597 0.1366943 -0.11477702
-0.16047503 0.10111679 -0.07621119 0.07427849 -0.14389412 0.0992299 -0.020373242 -0.015562905
-0.14284128 -0.11468339 0.08802045 0.12336033 0.15188943 -0.12797959 0.07459574 0.15076558
-0.14772485 -0.10081596 -0.19610386 0.11718869 0.32003734 0.13186051 -0.58577734 -0.2024561
0.020714577 1.1559521 -0.2731556 0.07623377 -0.07236231 -0.10251045 -0.41617483 -0.11800697
-0.18637389 -0.16200237 -0.29315868 -0.37459755 -0.3813214 -0.060549375 0.39793068 -0.37274316
0.9681353 0.1661387 -0.08509334 -0.4160699 1.6593134 0.17834398 -0.005139053 -0.24064896
0.16287038 -0.3459977 -0.26516178 -0.16394857 -0.38666287 -0.068614036 -0.021444434 -0.23955438
-0.2558811 0.0233117 -0.06793374 -0.23602124 0.2444234 -0.3664743 -0.12715541 -0.3376323
0.055227257 -0.3419868 -0.3459969 -0.027479336 -0.08067249 -0.17887047 -0.33237153 -0.19486426
0.45173347 -0.052904982 0.10730761 0.17362668 0.034924578 -0.4629475 1.6975441 -0.17286435
00000000: 423d a83e b8ae 123e 458a 1dbf 6736 4dbe
00000010: 9343 cc3c 4572 893f 3a13 8cbe 8108 be3d
00000020: 7f6a 94bd 8b99 88bd 20bb d7be 8417 e3bd
00000030: 9744 47be 9f1d 2bbe 2c53 a0be 4990 bfbe
00000040: 9bee b3be d9d9 75bd e354 a83e 4be4 bdbe
00000050: 9db1 743f 49e4 f83d fe7f 98bd 26e2 cfbe
00000060: 7461 b63f 8ca2 303e aecf 5a3c ac93 5fbe
00000070: 071f 183e 9c57 afbe 8700 83be 9a91 18be
00000080: 40ac bebe becd 5ebd 39ae 1ebc f296 6bbe
00000090: 7208 7abe 6925 083c 5f13 91bd cbd0 6bbe
000000a0: 1cbe 7c3e 533c b9be 3557 f3bd 23dd aebe
000000b0: 1261 8a3d c4bd a9be 8278 b1be 62e3 52bc
000000c0: 50b3 6ebd d71e 3dbe 837d a4be b2dd 4dbe
000000d0: 0994 df3e d395 63bd a4a7 c53d 6a0b 823e
000000e0: 0046 293d b171 ebbe 6937 d03f e23d 2fbe
000000f0: 8816 863e c433 2e3f 020a 4d3f 0d93 953f
00000100: 941f 543f b41a 133e 96ba 853f 78d4 b03e
00000110: 954b df3e 4df4 a13f d5f8 6f3f 2e2a 9d3f
00000120: c423 823e 2001 983f 7a35 4d3f 19e2 583f
00000130: eaa8 683f 8c28 683f 0024 2c3f 46a8 5c3f
00000140: 2340 053e 44dd 583f dd22 9f3e 9bb3 0b3f
00000150: 0b4e 0e3f 82ff 983e e9f9 323f 3693 723f
00000160: 14c8 753f b194 2d3f a406 113f 4ee4 553f
00000170: 71fd 033f cfaf 9d3f 8460 5d3f 250b 843f
00000180: 097c be3e d2e8 323f 09a0 dd3e 533d 4b3f
00000190: 6ffd f53e 7024 2f3f 7095 1d3f b164 293f
000001a0: 9639 003f 7a32 f83e c8bf 753f 9764 993f
000001b0: 5cde 273f 643f de3e 5047 253f f5c7 1a3f
000001c0: a7c8 0c3e af23 3e3f 92c2 483f bcb7 1a3f
000001d0: f3a5 6a3f d433 f73e 0a5d 723f 1a7b 863e
000001e0: 2a88 08be 53ae 1a3e 2a6c b43c 2fa9 93bd
000001f0: 2be5 123e 7491 323e 99e6 733d 192d 053e
00000200: d07e 08be 9e76 873c 3b2b 1d3d d680 47bd
00000210: ac53 dd3d 9e19 d6bd 8402 703d 9fad e0bd
00000220: 3ff1 85bd c68c f73d fb17 28be 82a2 533d
00000230: 0c12 2a3e a009 0fbe 8670 ea3d 57f4 27bd
00000240: dde4 66be 683d 113e b4b7 0c3e 684c edbd
00000250: 51e8 ae3d f69c d8bd fb81 f0bd cc8f 113e
00000260: 9de4 dbbd 292f b7bd df05 07be 9433 35ba
00000270: c6d8 d6bd 0a3d 223e 97f9 0b3e 3710 ebbd
00000280: 9153 24be 5216 cf3d 9d14 9cbd 521f 983d
00000290: fb58 13be 0c39 cb3d c9e5 a6bc 8efb 7ebc
000002a0: fc44 12be 20df eabd 1144 b43d 57a4 fc3d
000002b0: e788 1b3e 150d 03be a7c5 983d 4b62 1a3e
000002c0: 2f45 17be 9978 cebd 73cf 48be a000 f03d
000002d0: efdb a33e 7106 073e 81f5 15bf a750 4fbe
000002e0: 9eb1 a93c 3df6 933f 0ddb 8bbe 7320 9c3d
000002f0: b132 94bd 00f1 d1bd de14 d5be a3ad f1bd
00000300: ccd8 3ebe f3e3 25be e518 96be 40cb bfbe
00000310: 8f3c c3be 9f02 78bd 92bd cb3e 31d8 bebe
00000320: b7d7 773f 4320 2a3e 6b45 aebd 1d07 d5be
00000330: 6264 d43f ce9f 363e 8065 a8bb ae6c 76be
00000340: 7ec7 263e 9c26 b1be 49c3 87be 22e2 27be
00000350: adf8 c5be 8485 8cbd 3dac afbc be4d 75be
00000360: d902 83be 2ef8 be3c d820 8bbd 8daf 71be
00000370: 214a 7a3e 85a2 bbbe 0735 02be 24de acbe
00000380: fa35 623d e518 afbe 8126 b1be 581c e1bc
00000390: 9e37 a5bd d229 37be 9a2c aabe 7f8a 47be
000003a0: 9c49 e73e e5b2 58bd 18c4 db3d 31cb 313e
000003b0: 130d 0f3d 7407 edbe 2049 d93f 5a03 31be

std.constant13 i1 [240, 60] scale=0.019723179 zero_point=0
-0.29584768 -0.09861589 -0.078892715 0.29584768 0.552249 0.29584768 0.15778543 -0.039446358
-0.4536331 0.33529404 -0.13806225 0.3747404 -0.019723179 0.05916954 -0.078892715 0.17750861
0.9269894 -0.039446358 -0.4536331 -0.2761245 0.23667815 0.019723179 0.019723179 -0.13806225
-0.53252584 0.4536331 -0.29584768 0.76920396 -0.15778543 -0.078892715 0.21695496 0.17750861
-0.019723179 0.41418675 -0.552249 -0.09861589 0.0 0.23667815 -0.13806225 -0.039446358
-0.552249 -0.5719722 -0.11833908 0.15778543 -0.19723178 -0.05916954 -0.078892715 0.09861589
-0.05916954 -0.09861589 -0.33529404 -0.19723178 0.13806225 -0.25640133 0.6705881 -0.31557086
-0.35501722 -0.11833908 -1.1636676 -0.019723179 0.05916954 -0.4536331 -0.019723179 0.17750861
0.15778543 -0.49307948 0.7494808 -0.31557086 -0.2761245 1.0847749 -0.6311417 0.98615897
-0.05916954 -0.39446357 0.53252584 0.11833908 0.49307948 -0.2761245 0.43390992 -0.33529404
-0.41418675 -0.13806225 -0.13806225 -0.3747404 0.35501722 0.2761245 -0.7297576 0.69031125
0.2761245 0.43390992 0.39446357 -0.2761245 0.15778543 0.4536331 -0.23667815 -0.11833908
0.0 -0.2761245 -0.11833908 0.51280266 -0.21695496 -0.3747404 -0.21695496 -0.078892715
0.33529404 -0.15778543 -0.71003443 0.5719722 0.13806225 -0.039446358 0.09861589 -0.39446357
-0.11833908 0.19723178 0.35501722 -0.84809667 0.21695496 -0.41418675 -0.7297576 -0.05916954
-0.23667815 0.23667815 0.39446357 0.0 0.05916954 0.13806225 0.61141855 0.2761245
-0.19723178 -0.039446358 -0.5719722 0.41418675 0.31557086 -0.61141855 0.43390992 -0.6508649
-0.2761245 0.23667815 -0.019723179 0.3747404 0.039446358 -0.039446358 0.23667815 -0.5719722
-0.31557086 0.078892715 0.13806225 -0.41418675 0.4536331 0.0 -0.49307948 0.19723178
-0.41418675 -0.17750861 -0.21695496 -0.41418675 -0.39446357 0.11833908 0.05916954 -0.19723178
-0.078892715 0.21695496 -0.039446358 0.43390992 0.0 0.29584768 -0.4536331 0.15778543
-0.19723178 -0.25640133 0.29584768 0.21695496 0.29584768 -0.039446358 -0.05916954 0.21695496
-0.15778543 -0.33529404 -0.09861589 0.25640133 -0.09861589 0.11833908 0.05916954 0.0
0.23667815 0.05916954 0.09861589 0.19723178 -0.2761245 0.0 -0.29584768 0.21695496
0.09861589 -0.17750861 0.09861589 -0.2761245 -0.25640133 0.25640133 -0.2761245 0.23667815
-0.05916954 0.09861589 -0.11833908 0.039446358 -0.15778543 0.09861589 0.11833908 -0.17750861
-0.078892715 0.13806225 -0.2761245 0.39446357 -0.13806225 -0.2761245 -0.11833908 -0.09861589
-0.05916954 0.29584768 -0.13806225 -0.21695496 -0.09861589 0.25640133 -0.019723179 0.078892715
0.19723178 0.019723179 0.039446358 0.13806225 -0.23667815 -0.11833908 0.17750861 0.13806225
0.05916954 -0.13806225 0.41418675 -0.019723179 -0.35501722 -0.29584768 -0.25640133 0.17750861
0.0 0.17750861 0.2761245 -0.4536331 -0.13806225 0.0 -0.039446358 0.15778543
0.15778543 0.13806225 -0.039446358 -0.21695496 0.078892715 -0.19723178 0.25640133 -0.17750861
00000000: f1fb fc0f 1c0f 08fe e911 f913 ff03 fc09
00000010: 2ffe e9f2 0c01 01f9 e517 f127 f8fc 0b09
00000020: ff15 e4fb 000c f9fe e4e3 fa08 f6fd fc05
00000030: fdfb eff6 07f3 22f0 eefa c5ff 03e9 ff09
00000040: 08e7 26f0 f237 e032 fdec 1b06 19f2 16ef
00000050: ebf9 f9ed 120e db23 0e16 14f2 0817 f4fa
00000060: 00f2 fa1a f5ed f5fc 11f8 dc1d 07fe 05ec
00000070: fa0a 12d5 0beb dbfd f40c 1400 0307 1f0e
00000080: f6fe e315 10e1 16df f20c ff13 02fe 0ce3
00000090: f004 07eb 1700 e70a ebf7 f5eb ec06 03f6
000000a0: fc0b fe16 000f e908 f6f3 0f0b 0ffe fd0b
000000b0: f8ef fb0d fb06 0300 0c03 050a f200 f10b
000000c0: 05f7 05f2 f30d f20c fd05 fa02 f805 06f7
000000d0: fc07 f214 f9f2 fafb fd0f f9f5 fb0d ff04
000000e0: 0a01 0207 f4fa 0907 03f9 15ff eef1 f309
000000f0: 0009 0ee9 f900 fe08 0807 fef5 04f6 0df7

std.constant14 f4 [240, 1]
0.076767005 0.17843965 -0.7926926 -0.15637484 -0.03930724 0.6369988 -0.16770686 0.15719698
-0.2541588 -0.12961373 -0.46493497 -0.10980894 -0.26661956 0.00066430506 -0.25551334 -0.108112074
0.00029852858 -0.027465386 0.17616263 -0.241098 0.6547778 0.05708584 -0.11329979 -0.25858042
1.0112191 -0.027446063 0.07303548 -0.1596041 -0.09250962 -0.13450609 -0.2757622 -0.05081244
-0.33763227 0.1321389 0.045062494 -0.06923195 -0.23832534 -0.19463815 0.020670438 -0.12890606
0.044889785 -0.084090956 0.078883044 -0.24421816 -0.034444537 -0.37192366 -0.3234406 0.011086565
-0.08819431 -0.1805305 -0.11601953 -0.13565978 0.28341043 -0.193343 0.017591532 0.43092254
0.032374363 -0.31391296 1.0627391 -0.0852721 -0.63394827 -0.2026916 -0.20422997 -0.061703604
0.038541276 -0.5399882 0.027344944 -0.5871468 -0.5407083 0.27051234 -0.090847135 0.31337634
-0.7486533 0.3803783 -0.15383503 0.001895003 0.2827208 0.030658783 -0.28630906 0.04716903
-0.46369436 0.02499093 -0.53847706 -0.5373857 -0.07897773 -0.41499984 -0.16494328 0.07505011
0.011069822 -0.25486323 -0.14619318 0.060627565 -0.47038117 0.27710024 0.010497102 -0.0945515
-0.50613546 -0.20854017 -0.454085 0.021342104 -0.52705765 -0.12101728 -0.38712516 -0.033454835
-0.4550579 -0.28274637 -0.016175045 0.07575182 -0.2583083 -0.5401246 -0.30279338 -0.25156778
-0.63388795 -0.0047158874 0.11483925 -0.035802014 -0.013300572 -0.43887585 -0.059333626 -0.3894937
0.31392485 -0.2964115 -0.073460184 0.14623816 -0.29908627 -0.35954127 -0.14413738 -0.2817981
0.2530753 -0.010283283 -0.035837583 0.06353885 -0.26972497 0.2068025 -0.17216887 0.2200465
0.14094853 -0.23751873 0.33418274 -0.104615286 -0.34613445 0.3362178 -0.26372272 0.16317944
0.46099776 -0.30277905 -0.268803 0.2350634 -0.19787292 0.21063596 0.25710738 -0.27855986
0.21308456 0.13676812 0.27755547 -0.021438465 0.22729725 -0.29812422 -0.29120943 0.23141894
0.32747498 -0.20066302 0.23507375 -0.17416854 0.3018723 -0.22604094 0.077247955 0.09376447
0.29147884 0.2425665 -0.2283532 -0.25331298 -0.31627542 0.26181617 -0.112360135 -0.31455943
0.27962202 0.1836992 0.43063968 -0.2510398 0.15618199 0.02125762 -0.39198202 -0.125013
-0.21958235 0.8716206 -0.14974004 0.066411704 -0.03135826 -0.035795797 -0.41503 -0.103956684
-0.22428475 -0.1736498 -0.3093729 -0.11971028 0.10558674 -0.044553824 0.2125185 -0.27729982
0.79281586 0.113027826 -0.00016306873 -0.16822167 0.9077831 -0.059022076 -0.120386995 0.13246305
-0.0241342 -0.30939007 -0.2840075 -0.019506149 -0.32619926 0.17103861 -0.16486943 -0.31289807
-0.29423848 -0.15735635 -0.12611063 -0.11659956 0.03717802 -0.10742991 -0.2226374 -0.116636485
0.24156801 -0.21620367 -0.17675117 -0.059911188 -0.22235982 -0.3505789 -0.05829232 -0.22098793
0.22093786 -0.043919172 0.058392655 0.43809897 0.11056661 -0.08625996 1.216139 -0.079038315
00000000: 0538 9d3d e2b8 363e e7ed 4abf ba20 20be
00000010: a100 21bd 5a12 233f 59bb 2bbe 3ff8 203e
00000020: 1a21 82be 76b9 04be f50b eebe 82e3 e0bd
00000030: 5c82 88be c224 2e3a a5d2 82be dd69 ddbd
00000040: d483 9c39 17ff e0bc fa63 343e 65e2 76be
00000050: 859f 273f d7d2 693d b809 e8bd a764 84be
00000060: a16f 813f 91d6 e0bc a093 953d 426f 23be
00000070: af75 bdbd f7bb 09be b430 8dbe b520 50bd
00000080: 23de acbe 6b4f 073e 7393 383d 7bc9 8dbd
00000090: 8f0b 74be 394f 47be 0d55 a93c f3ff 03be
000000a0: 5ade 373d e137 acbd 6f8d a13d 5314 7abe
000000b0: b715 0dbd c76c bebe 029a a5be 6da4 353c
000000c0: 389f b4bd fddc 38be a69b edbd 66ea 0abe
000000d0: 2c1b 913e b5fb 45be 1e1c 903c e1a1 dc3e
000000e0: fb9a 043d 33b9 a0be d607 883f 24a3 aebd
000000f0: 6f4a 22bf 638e 4fbe a921 51be ebbc 7cbd
00000100: 75dd 1d3d ab3c 0abf 8102 e03c 414f 16bf
00000110: dc6b 0abf 9880 8a3e 100e babd dd72 a03e
00000120: bea7 3fbf f2c0 c23e ee86 1dbe c061 f83a
00000130: c8c0 903e 2128 fb3c 1a97 92be 5034 413d
00000140: 5969 edbe c7b9 cc3c a2d9 09bf 1c92 09bf
00000150: 13bf a1bd dc7a d4be e4e6 28be dfb3 993d
00000160: 335e 353c 6f7d 82be aab3 15be 9c54 783d
00000170: cdd5 f0be 15e0 8d3e 09fc 2b3c 38a4 c1bd
00000180: 1892 01bf 8e8b 55be d47d e8be a3d5 ae3c
00000190: 40ed 06bf e8d7 f7bd 4535 c6be f007 09bd
000001a0: 59fd e8be 22c4 90be 8781 84bc c523 9b3d
000001b0: fc40 84be 9b45 0abf bc07 9bbe 7ecd 80be
000001c0: 7b46 22bf bb87 9abb d730 eb3d 22a5 12bd
000001d0: a4ea 59bc 56b4 e0be d107 73bd b86b c7be
000001e0: c2ba a03e 40c3 97be 4b72 96bd 75bf 153e
000001f0: d621 99be cb15 b8be c098 13be d747 90be
00000200: 1693 813e 377b 28bc 6eca 12bd a820 823d
00000210: 6419 8abe 09c4 533e 094d 30be df53 613e
00000220: d054 103e 1c38 73be 001a ab3e 8a40 d6bd
00000230: 8938 b1be bd24 ac3e aa06 87be 8318 273e
00000240: e607 ec3e db05 9bbe 8ca0 89be 76b4 703e
00000250: 339f 4abe f4b0 573e 94a3 833e 669f 8ebe
00000260: d732 5a3e f10c 0c3e c01b 8e3e b89f afbc
00000270: 9cc0 683e bda3 98be 6719 95be 16f9 6c3e
00000280: cdaa a73e 9b7a 4dbe 2cb7 703e 3d59 32be
00000290: 028f 9a3e 4777 67be 2d34 9e3d 9607 c03d
000002a0: b73c 953e 5a63 783e 6cd5 69be 3db2 81be
000002b0: daee a1be c50c 863e 121d e6bd ef0d a1be
000002c0: 9e2a 8f3e a51b 3c3e ce7c dc3e 4a88 80be
000002d0: 2cee 1f3e 7624 ae3c deb1 c8be 6803 00be
000002e0: 32da 60be 8722 5f3f 7455 19be dc02 883d
000002f0: 8571 00bd 9d9e 12bd d07e d4be 3ee7 d4bd
00000300: e7aa 65be 41d1 31be 2066 9ebe aa2a f5bd
00000310: dc3d d83d 127e 36bd 739e 593e 3efa 8dbe
00000320: fbf5 4a3f 227b e73d 6efd 2ab9 4d42 2cbe
00000330: 7964 683f 22c1 71bd 758d f6bd 65a4 073e
00000340: 16b5 c5bc 6068 9ebe 6e69 91be 5ccb 9fbc
00000350: 9703 a7be bf24 2f3e 88d3 28be 2d34 a0be
00000360: 6da6 96be 0622 21be 2523 01be c0cb eebd
00000370: fb47 183d 3604 dcbd 0ffb 63be 1cdf eebd
00000380: 9b5d 773e 7f64 5dbe 42fe 34be 6f65 75bd
00000390: 4bb2 63be 147f b3be eec3 6ebd a94a 62be
000003a0: 893d 623e 97e4 33bd 232d 6f3d 824e e03e
000003b0: bf70 e23d 10a9 b0bd 71aa 9b3f d7de a1bd

lstm_4/lstm_cell_1/bias1 f4 [240]
-0.29555288 -0.40912497 -0.42502952 -0.39783132 0.13378188 -0.32533014 -0.50260204 -0.4669966
-0.6056238 -0.14713034 -0.49760434 -0.19922711 -0.5356337 -0.532866 -0.43440595 -0.47562525
-0.47761732 -0.50849706 -0.32555214 -0.4861504 -0.43872747 -0.633483 -0.47170764 -0.5549401
-0.5336355 -0.26992932 -0.5361782 -0.64274865 -0.56009156 -0.4470466 -0.5501745 -0.5781245
-0.34096512 -0.4602865 -0.336863 -0.5002895 -0.5095175 -0.4779276 -0.51786226 -0.46551448
-0.6611299 -0.19387259 -0.5164468 -0.49496 -0.5833573 -0.5774058 -0.49469247 0.09665245
-0.5265972 -0.49864095 -0.5789132 -0.35468858 -0.34208193 -0.62032336 -0.5516467 -0.48353958
-0.274607 -0.46856615 -0.21060681 -0.49671108 1.0456345 0.5848372 0.61890066 0.8872812
0.113574 0.3746772 0.49331835 0.5232928 0.57088935 1.1455591 0.4917326 1.1040853
0.4568694 0.8175278 0.88066417 0.5485354 0.6525898 0.6881563 0.9313988 0.39056268
0.83946806 0.4600999 0.60727507 0.6915747 0.76816773 1.0237435 0.4251298 0.4360362
0.6178142 0.8722587 0.53886884 0.47577867 0.9542359 0.9098925 0.9172272 0.72826886
0.41530576 0.82274294 0.4002202 0.5446731 0.533966 0.77909714 0.74234295 0.7622592
0.6728217 0.67847407 0.6575056 1.2299528 0.30412722 0.8056603 0.41594163 1.0056702
0.91355765 0.4733941 0.50107455 0.65520823 1.0235676 0.7098742 1.131745 0.6588794
-0.018773338 -0.015395928 -0.014421569 0.017501999 0.009259931 0.0072460957 -0.008244937 0.013151706
-0.002572497 -0.014012537 -0.015497648 -0.012558033 -0.006853954 0.015483647 0.0046411986 -0.024741322
-0.005902955 -0.014207221 -0.019686133 -0.0054008057 -0.030942835 0.0054792706 0.012507952 0.014431171
-0.008198194 -0.017292228 -0.015977107 0.0015286354 -0.0050782124 -0.0009411185 -0.00039289566 0.013033709
-0.008387282 -0.0151451 0.0093611125 0.009861137 -0.021058697 -0.0038465809 0.015043089 -0.0025517913
-0.0066343336 0.01674409 0.019491443 -0.01007092 0.020519342 0.020297801 0.0069238883 -0.007519
-0.006887551 0.0062896544 -0.005534784 -0.01537609 0.011218009 -0.008119856 -0.0020191062 -0.02564024
-0.024108052 0.016298529 -0.01591257 0.004236571 -0.30537653 -0.4112835 -0.41260284 -0.39716116
0.0037937192 -0.34446937 -0.47743446 -0.45513245 -0.5984927 -0.14704205 -0.52743083 -0.20906284
-0.5457765 -0.5320166 -0.42431295 -0.4839661 -0.49332252 -0.5180631 -0.32563385 -0.48537302
-0.44107962 -0.6290799 -0.49253476 -0.5714674 -0.5512314 -0.28211483 -0.51568913 -0.6359126
-0.5772281 -0.41705602 -0.5573303 -0.58899087 -0.33877504 -0.45786202 -0.3392894 -0.49568743
-0.518996 -0.48226914 -0.5230331 -0.47190768 -0.6603256 -0.24512093 -0.51992583 -0.51049143
-0.5683011 -0.5758255 -0.49218506 0.053467464 -0.521718 -0.50635105 -0.57445246 -0.35972252
-0.3420023 -0.62396246 -0.5341779 -0.49954337 -0.27428818 -0.491321 -0.22054085 -0.49025258
00000000: b552 97be d478 d1be 789d d9be 8cb0 cbbe
00000010: 1efe 083e ac91 a6be 87aa 00bf 2e1a efbe
00000020: 290a 1bbf 56a9 16be ffc5 febe 3102 4cbe
00000030: 4a1f 09bf e869 08bf 756a debe 2785 f3be
00000040: 428a f4be dd2c 02bf c5ae a6be b5e8 f8be
00000050: e3a0 e0be f12b 22bf aa83 f1be 8e10 0ebf
00000060: 569c 08bf 2d34 8abe f942 09bf 2d8b 24bf
00000070: 2962 0fbf 4be3 e4be 3cd8 0cbf f8ff 13bf
00000080: fb92 aebe acaa ebbe 4f79 acbe f912 00bf
00000090: bd6f 02bf edb2 f4be 9f92 04bf ea57 eebe
000000a0: cf3f 29bf 8986 46be dc35 04bf 666b fdbe
000000b0: e756 15bf ded0 13bf 5548 fdbe b8f1 c53d
000000c0: 13cf 06bf de4d ffbe a833 14bf be99 b5be
000000d0: 5d25 afbe 83cd 1ebf b838 0dbf 8092 f7be
000000e0: 4a99 8cbe e7e7 efbe 50a9 57be ea50 febe
000000f0: 5ad7 853f e4b7 153f 4670 1e3f dc24 633f
00000100: 7c99 e83d b1d5 bf3e 3994 fc3e 84f6 053f
00000110: ce25 123f aea1 923f 60c4 fb3e ab52 8d3f
00000120: c9ea e93e 8049 513f 3573 613f d16c 0c3f
00000130: 2010 273f 032b 303f 2770 6e3f d5f7 c73e
00000140: 61e7 563f 3792 eb3e 6176 1b3f 0a0b 313f
00000150: a4a6 443f 070a 833f 9daa d93e 2340 df3e
00000160: 1229 1e3f 594c 5f3f 4ff3 093f 4399 f33e
00000170: ce48 743f b7ee 683f 67cf 6a3f d46f 3a3f
00000180: f5a2 d43e 489f 523f a9e9 cc3e b26f 0b3f
00000190: ffb1 083f e972 473f 300a 3e3f 6b23 433f
000001a0: 0b3e 2c3f 7ab0 2d3f 4952 283f 186f 9d3f
000001b0: 90b6 9b3e c13f 4e3f 4df6 d43e cdb9 803f
000001c0: eade 693f b660 f23e 6c46 003f babb 273f
000001d0: 4304 833f 51ba 353f 05dd 903f 52ac 283f
000001e0: 8bca 99bc 343f 7cbc 7248 6cbc 5a60 8f3c
000001f0: f7b6 173c a870 ed3b c615 07bc 417a 573c
00000200: 5697 28bb d794 65bc d9e9 7dbc 35c0 4dbc
00000210: 2297 e0bb 1faf 7d3c 3215 983b 50ae cabc
00000220: 936d c1bb 67c5 68bc d044 a1bc 3ef9 b0bb
00000230: d47b fdbc 748b b33b 27ee 4c3c b870 6c3c
00000240: b851 06bc 6ea8 8dbc 6ce2 82bc 7e5c c83a
00000250: 2267 a6bb 65b5 76ba 90fd cdb9 568b 553c
00000260: cf6a 09bc 2723 78bc 5a5f 193c 9b90 213c
00000270: 4a83 acbc eb16 7cbb 4a77 763c f43b 27bb
00000280: d364 d9bb e72a 893c 85ac 9f3c 8000 25bc
00000290: 2e18 a83c 9347 a63c c9e1 e23b f261 f6bb
000002a0: f7b0 e1bb 7219 ce3b 225d b5bb ffeb 7bbc
000002b0: bdcb 373c 2509 05bc fb52 04bb 7b0b d2bc
000002c0: 407e c5bc 7e84 853c 145b 82bc efd2 8a3b
000002d0: 505a 9cbe c093 d2be ae40 d3be b558 cbbe
000002e0: 0ca0 783b 4a5e b0be 4a72 f4be 1f07 e9be
000002f0: d136 19bf 3192 16be b505 07bf 9214 56be
00000300: 02b8 0bbf 3d32 08bf 8c3f d9be 68ca f7be
00000310: c594 fcbe c99f 04bf 7bb9 a6be d082 f8be
00000320: 30d5 e1be 610b 21bf 842d fcbe b04b 12bf
00000330: 801d 0dbf 5b71 90be 3404 04bf 2bcb 22bf
00000340: 39c5 13bf 5e88 d5be 33ad 0ebf 1bc8 16bf
00000350: ec73 adbe e46c eabe 57b7 adbe beca fdbe
00000360: ecdc 04bf fbeb f6be 7fe5 05bf e29d f1be
00000370: 190b 29bf fb00 7bbe dc19 05bf 91af 02bf
00000380: 2e7c 11bf 4d69 13bf aeff fbbe b300 5b3d
00000390: 508f 05bf 39a0 01bf 510f 13bf 8d2d b8be
000003a0: ed1a afbe 01bc 1fbf e2bf 08bf 26c4 ffbe
000003b0: 806f 8cbe 6d8e fbbe 76d5 61be 6302 fbbe

std.constant23 i1 [240, 60] scale=0.008707491 zero_point=0
0.0 -0.21768726 0.13931985 0.17414981 0.017414981 0.14802735 0.017414981 0.21768726
0.24380974 -0.10448989 -0.13931985 -0.07836742 0.13931985 0.14802735 0.060952436 -0.15673484
-0.22639476 -0.16544232 -0.10448989 -0.087074906 -0.07836742 -0.13061236 0.026122473 -0.1828573
-0.25251722 -0.043537453 0.14802735 -0.2699322 -0.16544232 0.052244946 0.17414981 -0.20897979
-0.069659926 -0.13061236 0.13061236 0.20897979 -0.087074906 -0.026122473 0.1828573 0.11319738
-0.052244946 0.23510225 0.060952436 -0.034829963 0.13931985 0.026122473 0.15673484 0.24380974
-0.20897979 -0.043537453 -0.12190487 -0.10448989 0.17414981 -0.043537453 0.16544232 0.043537453
-0.10448989 0.25251722 -0.21768726 0.13931985 0.35700712 -0.3744221 0.80108917 -0.16544232
0.5746944 0.31346968 -0.42666703 0.64435434 0.26122472 0.22639476 -0.026122473 0.31346968
0.4702045 -0.31346968 0.052244946 -0.20897979 -0.2960547 0.1915648 0.07836742 -0.69659925
-0.043537453 -0.26122472 -0.043537453 0.043537453 0.043537453 0.34829962 0.4876195 -0.11319738
0.0 0.0 0.33959213 -0.3831296 0.1828573 0.22639476 0.07836742 0.16544232
-0.33088464 0.043537453 0.043537453 0.91428655 0.20027229 0.22639476 -0.14802735 0.0
0.2960547 0.017414981 0.17414981 0.6530618 -0.3657146 0.043537453 -0.16544232 0.23510225
0.3657146 -0.21768726 0.1915648 0.026122473 0.017414981 0.14802735 0.008707491 0.10448989
0.58340186 0.034829963 0.07836742 -0.33959213 0.40925208 0.008707491 -0.11319738 0.07836742
-0.026122473 0.5572794 0.17414981 0.5398644 0.07836742 -0.40925208 -0.3657146 0.0
0.026122473 0.3918371 0.30476218 -0.17414981 0.33088464 0.12190487 -0.2873472 0.24380974
0.23510225 0.31346968 0.0 -0.026122473 0.24380974 -0.15673484 0.13931985 -0.008707491
0.5921094 0.49632698 -0.24380974 -0.2786397 -0.14802735 0.2786397 -0.052244946 0.2786397
-0.0957824 -0.16544232 -0.2960547 0.3744221 -0.13931985 -0.12190487 0.07836742 0.2960547
-0.069659926 0.2786397 -0.1915648 0.21768726 -0.23510225 0.07836742 -0.14802735 -0.008707491
0.478912 -0.22639476 0.40925208 -0.23510225 -0.043537453 -0.026122473 0.12190487 0.060952436
0.15673484 0.14802735 -0.13061236 0.12190487 0.069659926 -0.16544232 -0.21768726 -0.017414981
0.10448989 -0.026122473 0.043537453 -0.11319738 -0.13931985 -0.1828573 -0.13061236 -0.0957824
-0.13931985 -0.060952436 0.17414981 -0.017414981 -0.10448989 -0.087074906 0.052244946 -0.034829963
-0.0957824 0.026122473 0.16544232 -0.026122473 -0.060952436 -0.087074906 0.23510225 -0.026122473
-0.24380974 0.0 0.0957824 0.13061236 0.060952436 0.052244946 0.043537453 -0.16544232
0.07836742 -0.07836742 0.10448989 0.026122473 -0.052244946 -0.026122473 -0.12190487 0.026122473
0.20897979 -0.07836742 0.060952436 0.052244946 -0.069659926 0.13061236 -0.3744221 0.10448989
0.1828573 -0.3744221 0.69659925 -0.026122473 0.4702045 0.41795957 -0.3918371 0.7488442
0.2873472 0.17414981 0.1915648 0.13931985 0.478912 -0.43537453 0.50503445 -0.008707491
00000000: 00e7 1014 0211 0219 1cf4 f0f7 1011 07ee
00000010: e6ed f4f6 f7f1 03eb e3fb 11e1 ed06 14e8
00000020: f8f1 0f18 f6fd 150d fa1b 07fc 1003 121c
00000030: e8fb f2f4 14fb 1305 f41d e710 29d5 5ced
00000040: 4224 cf4a 1e1a fd24 36dc 06e8 de16 09b0
00000050: fbe2 fb05 0528 38f3 0000 27d4 151a 0913
00000060: da05 0569 171a ef00 2202 144b d605 ed1b
00000070: 2ae7 1603 0211 010c 4304 09d9 2f01 f309
00000080: fd40 143e 09d1 d600 032d 23ec 260e df1c
00000090: 1b24 00fd 1cee 10ff 4439 e4e0 ef20 fa20
000000a0: f5ed de2b f0f2 0922 f820 ea19 e509 efff
000000b0: 37e6 2fe5 fbfd 0e07 1211 f10e 08ed e7fe
000000c0: 0cfd 05f3 f0eb f1f5 f0f9 14fe f4f6 06fc
000000d0: f503 13fd f9f6 1bfd e400 0b0f 0706 05ed
000000e0: 09f7 0c03 fafd f203 18f7 0706 f80f d50c
000000f0: 15d5 50fd 3630 d356 2114 1610 37ce 3aff

std.constant24 i1 [240, 60] scale=0.014976956 zero_point=0
0.2396313 -0.29953912 0.014976956 0.11981565 -0.20967738 -0.2695852 0.2396313 -0.16474652
0.07488478 0.1347926 -0.2396313 0.28456217 -0.014976956 -0.1347926 0.10483869 0.029953912
-0.1347926 -0.19470042 0.28456217 0.029953912 -0.11981565 0.0 -0.22465435 0.044930868
0.31451607 -0.20967738 -0.40437782 0.014976956 0.20967738 0.1347926 0.19470042 0.014976956
0.07488478 -0.34447 0.2695852 -0.19470042 -0.07488478 -0.2695852 -0.16474652 0.20967738
0.059907824 0.089861736 -0.07488478 0.10483869 0.029953912 0.014976956 -0.34447 0.35944694
0.10483869 -0.10483869 -0.014976956 -0.16474652 -0.22465435 0.059907824 0.089861736 -0.11981565
0.10483869 -0.10483869 0.089861736 0.07488478 -0.19470042 -0.11981565 -0.40437782 0.1347926
0.20967738 0.34447 0.34447 0.14976956 0.029953912 0.34447 -0.7039169 0.97350216
-0.17972347 -0.58410126 0.58410126 -0.35944694 0.22465435 0.014976956 0.16474652 0.089861736
0.25460824 -0.41935477 -0.14976956 -0.22465435 -0.22465435 0.35944694 -0.46428564 0.35944694
0.5391704 0.35944694 -0.089861736 0.16474652 0.014976956 0.40437782 -0.3744239 -0.20967738
-0.044930868 -0.059907824 -0.07488478 -0.20967738 -0.4792626 -0.17972347 -0.41935477 0.059907824
0.34447 -0.17972347 -0.49423954 0.41935477 -0.3744239 -0.089861736 0.059907824 -0.22465435
0.20967738 -0.1347926 0.2396313 -0.14976956 -0.22465435 -0.38940084 -0.38940084 0.31451607
-0.089861736 -0.19470042 -0.34447 0.56912434 0.35944694 0.32949305 0.31451607 -0.29953912
0.19470042 0.4493087 -0.089861736 0.6589861 -0.2695852 -0.20967738 -0.014976956 0.2396313
0.2695852 -0.044930868 -0.3744239 -0.32949305 0.20967738 -0.25460824 -0.20967738 -0.044930868
-0.4493087 0.10483869 -0.32949305 0.56912434 -0.029953912 0.31451607 0.0 0.07488478
0.029953912 0.07488478 -0.14976956 -0.43433172 -0.014976956 0.17972347 -0.14976956 -0.029953912
-0.31451607 -0.20967738 -0.029953912 -0.11981565 0.14976956 -0.29953912 -0.2396313 0.73387086
-0.16474652 -0.029953912 -0.19470042 -0.19470042 0.10483869 -0.20967738 0.35944694 -0.20967738
-0.29953912 -0.059907824 -0.32949305 0.029953912 0.14976956 0.059907824 -0.07488478 0.11981565
-0.10483869 -0.059907824 -0.029953912 -0.029953912 -0.16474652 -0.029953912 -0.059907824 0.56912434
-0.059907824 -0.29953912 0.0 -0.014976956 0.044930868 -0.10483869 0.07488478 0.044930868
0.07488478 0.0 0.014976956 -0.044930868 0.16474652 -0.059907824 -0.11981565 0.059907824
0.089861736 0.089861736 -0.014976956 0.20967738 -0.029953912 0.044930868 0.089861736 -0.20967738
-0.044930868 0.029953912 -0.11981565 0.10483869 0.10483869 -0.14976956 0.089861736 0.19470042
0.014976956 -0.07488478 0.0 -0.07488478 0.10483869 -0.029953912 -0.014976956 -0.089861736
-0.044930868 -0.014976956 0.07488478 -0.11981565 0.014976956 -0.044930868 -0.07488478 0.044930868
-0.9884791 1.4228108 -0.56912434 -0.28456217 0.76382476 0.9435482 0.11981565 0.80875564
0.1347926 0.059907824 -0.4493087 0.52419347 0.059907824 -0.4493087 1.5725803 -0.35944694
00000000: 10ec 0108 f2ee 10f5 0509 f013 fff7 0702
00000010: f7f3 1302 f800 f103 15f2 e501 0e09 0d01
00000020: 05e9 12f3 fbee f50e 0406 fb07 0201 e918
00000030: 07f9 fff5 f104 06f8 07f9 0605 f3f8 e509
00000040: 0e17 170a 0217 d141 f4d9 27e8 0f01 0b06
00000050: 11e4 f6f1 f118 e118 2418 fa0b 011b e7f2
00000060: fdfc fbf2 e0f4 e404 17f4 df1c e7fa 04f1
00000070: 0ef7 10f6 f1e6 e615 faf3 e926 1816 15ec
00000080: 0d1e fa2c eef2 ff10 12fd e7ea 0eef f2fd
00000090: e207 ea26 fe15 0005 0205 f6e3 ff0c f6fe
000000a0: ebf2 fef8 0aec f031 f5fe f3f3 07f2 18f2
000000b0: ecfc ea02 0a04 fb08 f9fc fefe f5fe fc26
000000c0: fcec 00ff 03f9 0503 0500 01fd 0bfc f804
000000d0: 0606 ff0e fe03 06f2 fd02 f807 07f6 060d
000000e0: 01fb 00fb 07fe fffa fdff 05f8 01fd fb03
000000f0: be5f daed 333f 0836 0904 e223 04e2 69e8
