DATN_LSTM_SMGW-main/rx_service/src/LSTM_model/LSTM_model_2_PH.tflite (tflite, 67312 bytes, 9 tensors)

lstm_1/lstm_cell_1/bias f4 [240]
0	0xbe6526fd	-0.22378154
1	0xbe8d2cde	-0.27573293
2	0xbed28cc3	-0.41123018
3	0xbed1d9f2	-0.40986592
4	0xbed9224a	-0.42408973
5	0xbec4dac7	-0.38448164
6	0xbc3e5910	-0.011617914
7	0xbedd8979	-0.43268946
8	0xbdb67398	-0.089087665
9	0x3d171e00	0.036893845
10	0xbecaffe2	-0.39648348
11	0xbec34231	-0.38136438
12	0xbe0496de	-0.12948176
13	0xbee6d688	-0.4508555
14	0xbe9ae5a6	-0.30253333
15	0xbec9a133	-0.39380798
16	0xbedac734	-0.42730105
17	0xbef0c8cc	-0.47028196
18	0xbf020024	-0.50781465
19	0xbeb28a30	-0.34871054
20	0xbdc7ac10	-0.09749615
21	0xbe1813c6	-0.14851293
22	0xbeae0a7a	-0.33992368
23	0xbecd19cb	-0.4005874
24	0xbea8afc2	-0.32946593
25	0xbecf1929	-0.40448883
26	0xbe947ca6	-0.2900135
27	0xbede45fb	-0.43412766
28	0xbee3dbe8	-0.44503713
29	0xbec8cb54	-0.39217627
30	0xbe236540	-0.15956593
31	0xbebb9620	-0.36637974
32	0xbed5b1f0	-0.41737318
33	0xbec0c947	-0.37653562
34	0xbea024c1	-0.3127804
35	0xbea7e4e2	-0.3279181
36	0xbed252c3	-0.41078767
37	0xbd1ff639	-0.039053176
38	0xbee65e1d	-0.44993678
39	0x3d319591	0.04335553
40	0xbe21a61f	-0.15786026
41	0xbec3cac7	-0.38240644
42	0xbee9d6ed	-0.45671788
43	0xbec493a5	-0.38393894
44	0xbf042011	-0.5161143
45	0x3d2ce418	0.042209715
46	0xbe9a0c4c	-0.30087507
47	0xbecbad48	-0.3978064
48	0xbed4d8ce	-0.4157166
49	0xbed4ddbf	-0.4157543
50	0xbea31fd6	-0.31860226
51	0xbebc46a4	-0.36772645
52	0xbee2e02f	-0.44311664
53	0xbebe33d8	-0.3714893
54	0xbec3edc3	-0.38267335
55	0xbe98a108	-0.29810357
56	0xbeb5ce09	-0.35508755
57	0xbedfd67d	-0.4371833
58	0xbec8c24c	-0.39210737
59	0xbeab134b	-0.33413157
60	0x3f485794	0.78258634
61	0x3f32ac71	0.69794375
62	0x3f2da9fe	0.6783751
63	0x3f4d5156	0.80202234
64	0x3f420bea	0.7579943
65	0x3f1985c3	0.5996973
66	0x3f310d24	0.69160676
67	0x3f5005dc	0.8125894
68	0x3f2634f9	0.6492458
69	0x3f274597	0.6534056
70	0x3f3ba744	0.733021
71	0x3f58e59c	0.84725356
72	0x3f662d4e	0.8991288
73	0x3f0eac11	0.557313
74	0x3f6378ac	0.88856006
75	0x3f412c33	0.7545807
76	0x3f50f642	0.8162576
77	0x3f3fbc47	0.74896663
78	0x3f178703	0.59190387
79	0x3f4553e3	0.77081126
80	0x3f13807e	0.5761794
81	0x3f695962	0.9115201
82	0x3f5b2d91	0.85616404
83	0x3f0ace39	0.5422092
84	0x3f33249f	0.69977754
85	0x3f4af230	0.792758
86	0x3f3cf2b3	0.7380783
87	0x3f40740a	0.7517706
88	0x3f48e445	0.7847331
89	0x3f5ad1e0	0.85476494
90	0x3f0f1514	0.5589154
91	0x3f57b61c	0.8426225
92	0x3f3da65f	0.7408199
93	0x3f4c72e9	0.7986284
94	0x3f42b00a	0.76049864
95	0x3f4d1cf3	0.801223
96	0x3f3537b3	0.70788115
97	0x3f202d17	0.625688
98	0x3f2e39c9	0.68056923
99	0x3f55dbc9	0.8353849
100	0x3f014438	0.5049472
101	0x3f282732	0.6568481
102	0x3f4aeda7	0.7926888
103	0x3f512a29	0.81704956
104	0x3f366fb8	0.7126422
105	0x3f10b89c	0.5653169
106	0x3f32a3a7	0.69780964
107	0x3f36a4da	0.71345294
108	0x3f33fd88	0.70308733
109	0x3f234caa	0.63788855
110	0x3f4350b3	0.7629501
111	0x3f342906	0.70375097
112	0x3f39f072	0.72632515
113	0x3f2f6fab	0.68529767
114	0x3f61c4b9	0.881908
115	0x3f3869f0	0.7203665
116	0x3f31c79b	0.694452
117	0x3f3dfd52	0.7421466
118	0x3f38a46a	0.72125876
119	0x3f5f0e93	0.87131613
120	0xbc1d515b	-0.009601916
121	0xbad28539	-0.0016061432
122	0xbb6bc480	-0.0035975277
123	0xbc42ac05	-0.011881833
124	0x3bfbcd8e	0.007684416
125	0x3d5f53e6	0.05452337
126	0xbbaa8a18	-0.0052044503
127	0xbc57730c	-0.013149988
128	0xbd34bf32	-0.04412765
129	0xbb54b763	-0.003245794
130	0x3cc9d1f3	0.024636244
131	0x3b0d3e97	0.00215522
132	0x3cb3ae8b	0.021933815
133	0x3cd94862	0.026523773
134	0xbb4a79c7	-0.003089534
135	0x3d8152c2	0.06314613
136	0xbca6a038	-0.02034007
137	0xbc9fba6c	-0.019498073
138	0x3cdb0ee2	0.026740495
139	0x3ca29b38	0.019849405
140	0xbca75dc8	-0.02043046
141	0xbbed097a	-0.0072337957
142	0xbb27b583	-0.0025590367
143	0x3d083932	0.03325767
144	0xbd2d4a93	-0.042307448
145	0x3c00670e	0.00783707
146	0xbcd814ab	-0.026377043
147	0xbc0cff55	-0.008605798
148	0x3bafd3b8	0.005365815
149	0x3c1da506	0.009621864
150	0xbd05c151	-0.032655064
151	0x3c3aabdb	0.011393513
152	0xbc9ab40b	-0.01888468
153	0xbc60100b	-0.0136757
154	0xbbd515ec	-0.0065028574
155	0x3c533165	0.012890195
156	0x3ccd265f	0.02504271
157	0x3bbe2e9a	0.005803895
158	0x3d4a8442	0.049442537
159	0xbd9294be	-0.071572766
160	0x3c1df1b8	0.00964015
161	0xbd01cd58	-0.03168997
162	0xbcc8b041	-0.024498107
163	0x3d191230	0.03737086
164	0x3d5ccf34	0.05390854
165	0x3c294830	0.010332152
166	0xbbc61d7e	-0.006045996
167	0x3d9afc92	0.07567705
168	0xbc29d476	-0.010365596
169	0x3d2e5255	0.042558987
170	0xba9f5b18	-0.0012157885
171	0x3cd0dedc	0.025496893
172	0x3c432e91	0.011912958
173	0xbc70f383	-0.014706495
174	0x3c05e999	0.00817337
175	0xbc8d0b3c	-0.017217271
176	0x3d421d72	0.047391362
177	0xbd125b87	-0.03573182
178	0xbb2a777a	-0.0026011155
179	0xbce2f182	-0.02770305
180	0xbe98be52	-0.29832703
181	0xbe96aecc	-0.29430234
182	0xbed856ad	-0.42253628
183	0xbed259cb	-0.41084132
184	0xbedc189a	-0.4298752
185	0xbec9002f	-0.39257953
186	0xbe1cf6d9	-0.1532854
187	0xbee34e1d	-0.44395533
188	0xbe5211de	-0.20514628
189	0xbd904923	-0.070452
190	0xbeccf6e0	-0.400321
191	0xbecba02d	-0.39770642
192	0xbe33c568	-0.17555773
193	0xbee35d95	-0.44407335
194	0xbe9d499a	-0.30720216
195	0xbecfe8a4	-0.40607178
196	0xbed8436e	-0.42238945
197	0xbef50b79	-0.47860315
198	0xbf04cee0	-0.51878166
199	0xbeba1ad1	-0.36348584
200	0xbe5d3bc6	-0.21604833
201	0xbe39ff00	-0.18163681
202	0xbeb22f2e	-0.3480162
203	0xbedd49a9	-0.4322026
204	0xbeaec526	-0.34134787
205	0xbecf58b2	-0.40497357
206	0xbec2570e	-0.37957042
207	0xbee3be07	-0.44480917
208	0xbedeb9c7	-0.43501112
209	0xbed11465	-0.40835872
210	0xbe4e1ae7	-0.2012745
211	0xbebc0d1c	-0.36728752
212	0xbeda8fcb	-0.4268783
213	0xbec710b8	-0.38879943
214	0xbeac4be3	-0.33651647
215	0xbeaf6a5b	-0.3426083
216	0xbedf68fb	-0.4363478
217	0xbe240edc	-0.16021293
218	0xbeeb047e	-0.45901865
219	0xbde0a668	-0.109692395
220	0xbe644382	-0.22291377
221	0xbecab527	-0.39591333
222	0xbee9308f	-0.4554486
223	0xbed18af0	-0.40926313
224	0xbf047bad	-0.51751214
225	0xbdf92dd3	-0.121669434
226	0xbea1a4ad	-0.3157095
227	0xbed0f006	-0.40808123
228	0xbed895a3	-0.42301664
229	0xbee1f264	-0.44130242
230	0xbeafd287	-0.34340307
231	0xbec39366	-0.38198394
232	0xbee29723	-0.44255933
233	0xbed3492c	-0.41266763
234	0xbec77975	-0.38959852
235	0xbea7e8f8	-0.3279493
236	0xbec08a00	-0.37605286
237	0xbee3fbd8	-0.4452808
238	0xbecefbc2	-0.4042645
239	0xbeb1f348	-0.3475592

lstm/lstm_cell/bias f4 [240]
0	0x3e9991f6	0.29994172
1	0xbe43ef97	-0.19134365
2	0x3f4034ac	0.7508037
3	0xbde8a29f	-0.113591425
4	0xbeffdb52	-0.49972016
5	0xbe8429b6	-0.25813073
6	0x3cba9469	0.022775846
7	0x3de82302	0.11334802
8	0xbe02379f	-0.1271653
9	0x3e83443b	0.25637993
10	0xbe953b86	-0.29146975
11	0x3f15d850	0.5853319
12	0xbe17cd97	-0.1482452
13	0xbe51eb2a	-0.20499864
14	0x3d87ae48	0.066250384
15	0x3ec99475	0.39371076
16	0x3e76bae5	0.24094732
17	0xbde767db	-0.11299106
18	0xbd39ec8b	-0.0453916
19	0x3f834d88	1.0258036
20	0x3ea913be	0.33022875
21	0xbea0f997	-0.31440422
22	0xbeb8b250	-0.36073542
23	0x3d5e83ac	0.05432479
24	0x3e8b88c1	0.27252772
25	0x3eafc00e	0.34326214
26	0x3e943fde	0.28954977
27	0xbcf19e97	-0.029494567
28	0x3e96f43f	0.2948322
29	0x3e9e289c	0.30890357
30	0xbe0be0c1	-0.13659956
31	0xbe92a087	-0.28638098
32	0x3cc7c13e	0.024384137
33	0x3f3dfaba	0.74210703
34	0x3d41ed7b	0.04734562
35	0x3ed3cc14	0.41366637
36	0x3ea4ac1a	0.32162553
37	0xbce00ce7	-0.027349902
38	0x3f211150	0.6291704
39	0x3eebb819	0.46038893
40	0x3ea0160e	0.31266826
41	0x3e5644e3	0.20924716
42	0x3e3b01cb	0.18262403
43	0x3da1adaa	0.07894452
44	0xbe460273	-0.19336872
45	0x3f30348b	0.68830174
46	0x3f45a145	0.771992
47	0x3e8b7d99	0.2724426
48	0xbe03a17d	-0.12854572
49	0xbe00e75b	-0.12588255
50	0x3e8d5184	0.27601254
51	0x3e99041f	0.29885957
52	0x3e26cda9	0.1628939
53	0xbe141a50	-0.14463162
54	0x3f473a15	0.77823
55	0x3d666699	0.05625019
56	0xbe9ea832	-0.30987698
57	0xbeed2fab	-0.4632543
58	0x3e772c21	0.24137928
59	0xbdf30779	-0.1186666
60	0x3efc3838	0.49261642
61	0x3ef45699	0.4772232
62	0x3f1b4baa	0.6066233
63	0x3f406e4f	0.7516832
64	0x3ed3ebaa	0.41390735
65	0x3efcaec8	0.49352098
66	0x3ef2277f	0.47295758
67	0x3ed4e22a	0.415788
68	0x3f28ce25	0.6593955
69	0x3f0151c3	0.50515383
70	0x3f038585	0.5137561
71	0x3eef765b	0.46769986
72	0x3ecccfcc	0.40002286
73	0x3f2a49fb	0.66519135
74	0x3eeb99a1	0.46015647
75	0x3edd2105	0.43189254
76	0x3ef7761a	0.48332292
77	0x3ee1700f	0.44030806
78	0x3ef46bbf	0.47738454
79	0x3f08a302	0.5337373
80	0x3ee71829	0.4513562
81	0x3eb9f1d1	0.36317304
82	0x3ee36a65	0.4441711
83	0x3eed4ac0	0.46346092
84	0x3ef907dc	0.4863881
85	0x3f1a1f28	0.6020379
86	0x3ec7cf26	0.3902523
87	0x3f02ea70	0.51138973
88	0x3edc2f3a	0.4300478
89	0x3f0301d4	0.51174664
90	0x3f42d19a	0.76101077
91	0x3ec459ca	0.38349754
92	0x3ef8a5ac	0.48563898
93	0x3e7b1e50	0.24523282
94	0x3f15a6a6	0.5845741
95	0x3f0621e2	0.5239545
96	0x3f0f5a9f	0.5599765
97	0x3f0f923a	0.560825
98	0x3f020e16	0.50802743
99	0x3ed15fc5	0.4089338
100	0x3f0a5a69	0.54044205
101	0x3ef0fdc3	0.47068605
102	0x3ea9613b	0.33081993
103	0x3ed0ce83	0.40782556
104	0x3f2d412e	0.6767758
105	0x3eea5131	0.4576507
106	0x3efc9200	0.4933014
107	0x3eb948ed	0.3618845
108	0x3eed2a94	0.46321547
109	0x3f0bd090	0.54615116
110	0xbe7ff046	-0.24994001
111	0x3edfbd7b	0.4369925
112	0x3f0a2f60	0.5397854
113	0x3efce75d	0.49395266
114	0x3f1b8add	0.60758764
115	0x3e685e21	0.22692157
116	0x3f01b02d	0.5065945
117	0x3f01ec2b	0.5075099
118	0x3ee7f9af	0.4530768
119	0x3f0fc3d3	0.5615818
120	0xbe2dd06b	-0.16974036
121	0xbd690929	-0.0568935
122	0x3e43a30b	0.19105165
123	0xbc95f861	-0.018306913
124	0xbcb0eb2e	-0.021596517
125	0xbdabc5fb	-0.08387371
126	0xbe1168a8	-0.1420008
127	0xbe14ce3d	-0.14531799
128	0xbd967601	-0.07346726
129	0xbe2a15a0	-0.16609812
130	0xbdae9ec1	-0.08526374
131	0x3e4a4cb7	0.19755827
132	0xbdc9e521	-0.09858156
133	0xbc9b8dbb	-0.01898848
134	0x3dd97524	0.10618046
135	0xbe436bc2	-0.19084075
136	0x3e2613ef	0.16218542
137	0xbdfa3696	-0.12217443
138	0xbe154931	-0.14578702
139	0xbe57ee36	-0.21086964
140	0xbe3034ee	-0.17207691
141	0x3dacb6fe	0.084333405
142	0x3da20e53	0.079128884
143	0x3e075a1c	0.13217968
144	0x3e25d455	0.1619428
145	0x3e412267	0.1886078
146	0x3e213217	0.15741764
147	0x3e19eb15	0.15031083
148	0xbe25574a	-0.1614658
149	0x3e0665bb	0.13124745
150	0xbdc77582	-0.0973921
151	0x3da0e0cf	0.07855379
152	0xbe016632	-0.1263664
153	0x3e2bfdb5	0.16796
154	0x3e12afe6	0.14324912
155	0xbe3280bf	-0.17431925
156	0x3e33b7fa	0.1755065
157	0xbdf47e30	-0.11938131
158	0xbe3a4dcc	-0.1819374
159	0x3e237567	0.15962754
160	0x3e30ea14	0.17276794
161	0x3e135001	0.14385988
162	0xbe349326	-0.17634258
163	0xbdee3053	-0.11630311
164	0x3d97ec81	0.074181564
165	0x3e52d8b7	0.20590483
166	0x3e3cde76	0.18444237
167	0x3e06b8db	0.13156454
168	0xbde45524	-0.11149052
169	0x3e077102	0.13226703
170	0x3e7ccd43	0.24687676
171	0x3e37ba07	0.17942058
172	0x3e379860	0.1792922
173	0xbe040234	-0.12891465
174	0xbe42d7d8	-0.1902765
175	0x3c62328e	0.0138059985
176	0xbcc3884f	-0.023868708
177	0xbd274107	-0.0408335
178	0xbe0b2145	-0.1358691
179	0xbe01f645	-0.126916
180	0x3e640921	0.22269107
181	0xbe598242	-0.21241096
182	0x3f2d33a3	0.67656916
183	0xbe1b253d	-0.15150924
184	0xbefc9929	-0.49335602
185	0xbd92fff5	-0.07177726
186	0x3c52ca87	0.012865669
187	0x3e023c5b	0.12718336
188	0xbe0d0a7f	-0.13773535
189	0x3e886048	0.26635957
190	0xbe9ea0d4	-0.30982077
191	0x3f09e3dc	0.5386331
192	0xbe26e304	-0.16297537
193	0xbe659b3d	-0.224225
194	0x3daa118e	0.083041295
195	0x3eb29195	0.34876695
196	0x3e7ecab2	0.2488201
197	0xbdccf647	-0.10007911
198	0xbc0b9e32	-0.008521603
199	0x3f8d8739	1.1056892
200	0x3e9e5629	0.3092511
201	0xbe9ba882	-0.30402
202	0xbeb4ad54	-0.3528849
203	0x3cd5d191	0.026100906
204	0x3e84774d	0.2587227
205	0x3ea4f84a	0.3222068
206	0x3e9c1c58	0.30490375
207	0xbcc5ef2e	-0.024161901
208	0x3e669ddd	0.22521158
209	0x3eabb6bd	0.33537856
210	0xbe119da1	-0.14220287
211	0xbe9827b2	-0.29717785
212	0x3c3911ce	0.011295749
213	0x3f34101d	0.70337087
214	0x3d970d01	0.07375527
215	0x3ea653ce	0.32485813
216	0x3e957a4e	0.29194874
217	0xbc845d98	-0.01615791
218	0x3f0bb947	0.54579586
219	0x3eeaa8bf	0.45831868
220	0x3eb5bc1f	0.35495088
221	0x3e5772b9	0.21039857
222	0x3e63c66f	0.22243665
223	0x3d1b43d0	0.037906468
224	0xbe71261a	-0.23549691
225	0x3f1904cb	0.5977294
226	0x3f4b4850	0.79407215
227	0x3e811dff	0.25218198
228	0xbdf908ea	-0.12159903
229	0xbe0aafce	-0.13543627
230	0x3e96ba54	0.29439032
231	0x3e933419	0.28750685
232	0x3e206415	0.15663178
233	0xbe03ad64	-0.12859112
234	0x3f1b8d2c	0.60762286
235	0x3d8f30e5	0.06991748
236	0xbea2f0af	-0.31824252
237	0xbeee0e24	-0.46495163
238	0x3e80c5c5	0.25150886
239	0xbde6d0ba	-0.1127028

std.constant5 f4 [1, 60]
0	0xbda9b42a	-0.08286317
1	0x3e02acb9	0.12761201
2	0x3d986593	0.07441249
3	0xbd6bff43	-0.057616483
4	0xbd9a0d20	-0.07522035
5	0x3d31834f	0.043338116
6	0xbe05f25f	-0.13080738
7	0xbd9e720e	-0.07736598
8	0xbda7c14f	-0.081911676
9	0xbe59c383	-0.21265988
10	0x3d9ee818	0.07759112
11	0xbd73a8e0	-0.059487224
12	0x3bd4c03a	0.0064926418
13	0x3d99ea3e	0.07515381
14	0x3d86b694	0.06577793
15	0x3db1d3f1	0.08683003
16	0xbded65dc	-0.11591694
17	0xbdc18bad	-0.09450469
18	0x3cc79748	0.024364129
19	0x3dd5a72f	0.10432278
20	0xbe205077	-0.15655695
21	0xbd4c53c6	-0.04988458
22	0xbdb01e3e	-0.08599518
23	0x3dc044ee	0.09388147
24	0xbd8f7b76	-0.0700597
25	0x3d9bfe50	0.07616866
26	0xbde7b8bb	-0.113145314
27	0xbdbfcc4e	-0.0936514
28	0x3d9d3022	0.07675196
29	0x3d985d45	0.07439665
30	0xbdb2739c	-0.08713457
31	0x3db44414	0.08802047
32	0xbdb04a2f	-0.086078994
33	0xbd743384	-0.05961944
34	0xbe25f807	-0.16207896
35	0x3d8c1829	0.06840546
36	0x3d63b39a	0.055591203
37	0x3e0918f2	0.13388422
38	0x3da1b893	0.07896533
39	0x3bdf460d	0.0068137706
40	0x3e09697c	0.13419145
41	0xbdd619e9	-0.10454161
42	0xbda035bd	-0.0782275
43	0x3d89dbc1	0.06731368
44	0x3d919610	0.071087
45	0x3e35ee0b	0.17766587
46	0xbdaa50b5	-0.08316175
47	0x3dc501fe	0.096195206
48	0xbd86893f	-0.06569146
49	0x3dc3a21a	0.09552403
50	0x3dc0afc1	0.094085224
51	0x3da4563c	0.080242604
52	0x3de60f51	0.1123339
53	0xbdd8a18b	-0.10577687
54	0x3db29dca	0.08721502
55	0xbe015d71	-0.12633301
56	0x3d99b262	0.07504727
57	0xbd617385	-0.05504181
58	0x3d9ea97e	0.07747172
59	0x3dab4a95	0.08363835

lstm/lstm_cell/bias1 f4 [240]
0	0x3e9991f6	0.29994172
1	0xbe43ef97	-0.19134365
2	0x3f4034ac	0.7508037
3	0xbde8a29f	-0.113591425
4	0xbeffdb52	-0.49972016
5	0xbe8429b6	-0.25813073
6	0x3cba9469	0.022775846
7	0x3de82302	0.11334802
8	0xbe02379f	-0.1271653
9	0x3e83443b	0.25637993
10	0xbe953b86	-0.29146975
11	0x3f15d850	0.5853319
12	0xbe17cd97	-0.1482452
13	0xbe51eb2a	-0.20499864
14	0x3d87ae48	0.066250384
15	0x3ec99475	0.39371076
16	0x3e76bae5	0.24094732
17	0xbde767db	-0.11299106
18	0xbd39ec8b	-0.0453916
19	0x3f834d88	1.0258036
20	0x3ea913be	0.33022875
21	0xbea0f997	-0.31440422
22	0xbeb8b250	-0.36073542
23	0x3d5e83ac	0.05432479
24	0x3e8b88c1	0.27252772
25	0x3eafc00e	0.34326214
26	0x3e943fde	0.28954977
27	0xbcf19e97	-0.029494567
28	0x3e96f43f	0.2948322
29	0x3e9e289c	0.30890357
30	0xbe0be0c1	-0.13659956
31	0xbe92a087	-0.28638098
32	0x3cc7c13e	0.024384137
33	0x3f3dfaba	0.74210703
34	0x3d41ed7b	0.04734562
35	0x3ed3cc14	0.41366637
36	0x3ea4ac1a	0.32162553
37	0xbce00ce7	-0.027349902
38	0x3f211150	0.6291704
39	0x3eebb819	0.46038893
40	0x3ea0160e	0.31266826
41	0x3e5644e3	0.20924716
42	0x3e3b01cb	0.18262403
43	0x3da1adaa	0.07894452
44	0xbe460273	-0.19336872
45	0x3f30348b	0.68830174
46	0x3f45a145	0.771992
47	0x3e8b7d99	0.2724426
48	0xbe03a17d	-0.12854572
49	0xbe00e75b	-0.12588255
50	0x3e8d5184	0.27601254
51	0x3e99041f	0.29885957
52	0x3e26cda9	0.1628939
53	0xbe141a50	-0.14463162
54	0x3f473a15	0.77823
55	0x3d666699	0.05625019
56	0xbe9ea832	-0.30987698
57	0xbeed2fab	-0.4632543
58	0x3e772c21	0.24137928
59	0xbdf30779	-0.1186666
60	0x3efc3838	0.49261642
61	0x3ef45699	0.4772232
62	0x3f1b4baa	0.6066233
63	0x3f406e4f	0.7516832
64	0x3ed3ebaa	0.41390735
65	0x3efcaec8	0.49352098
66	0x3ef2277f	0.47295758
67	0x3ed4e22a	0.415788
68	0x3f28ce25	0.6593955
69	0x3f0151c3	0.50515383
70	0x3f038585	0.5137561
71	0x3eef765b	0.46769986
72	0x3ecccfcc	0.40002286
73	0x3f2a49fb	0.66519135
74	0x3eeb99a1	0.46015647
75	0x3edd2105	0.43189254
76	0x3ef7761a	0.48332292
77	0x3ee1700f	0.44030806
78	0x3ef46bbf	0.47738454
79	0x3f08a302	0.5337373
80	0x3ee71829	0.4513562
81	0x3eb9f1d1	0.36317304
82	0x3ee36a65	0.4441711
83	0x3eed4ac0	0.46346092
84	0x3ef907dc	0.4863881
85	0x3f1a1f28	0.6020379
86	0x3ec7cf26	0.3902523
87	0x3f02ea70	0.51138973
88	0x3edc2f3a	0.4300478
89	0x3f0301d4	0.51174664
90	0x3f42d19a	0.76101077
91	0x3ec459ca	0.38349754
92	0x3ef8a5ac	0.48563898
93	0x3e7b1e50	0.24523282
94	0x3f15a6a6	0.5845741
95	0x3f0621e2	0.5239545
96	0x3f0f5a9f	0.5599765
97	0x3f0f923a	0.560825
98	0x3f020e16	0.50802743
99	0x3ed15fc5	0.4089338
100	0x3f0a5a69	0.54044205
101	0x3ef0fdc3	0.47068605
102	0x3ea9613b	0.33081993
103	0x3ed0ce83	0.40782556
104	0x3f2d412e	0.6767758
105	0x3eea5131	0.4576507
106	0x3efc9200	0.4933014
107	0x3eb948ed	0.3618845
108	0x3eed2a94	0.46321547
109	0x3f0bd090	0.54615116
110	0xbe7ff046	-0.24994001
111	0x3edfbd7b	0.4369925
112	0x3f0a2f60	0.5397854
113	0x3efce75d	0.49395266
114	0x3f1b8add	0.60758764
115	0x3e685e21	0.22692157
116	0x3f01b02d	0.5065945
117	0x3f01ec2b	0.5075099
118	0x3ee7f9af	0.4530768
119	0x3f0fc3d3	0.5615818
120	0xbe2dd06b	-0.16974036
121	0xbd690929	-0.0568935
122	0x3e43a30b	0.19105165
123	0xbc95f861	-0.018306913
124	0xbcb0eb2e	-0.021596517
125	0xbdabc5fb	-0.08387371
126	0xbe1168a8	-0.1420008
127	0xbe14ce3d	-0.14531799
128	0xbd967601	-0.07346726
129	0xbe2a15a0	-0.16609812
130	0xbdae9ec1	-0.08526374
131	0x3e4a4cb7	0.19755827
132	0xbdc9e521	-0.09858156
133	0xbc9b8dbb	-0.01898848
134	0x3dd97524	0.10618046
135	0xbe436bc2	-0.19084075
136	0x3e2613ef	0.16218542
137	0xbdfa3696	-0.12217443
138	0xbe154931	-0.14578702
139	0xbe57ee36	-0.21086964
140	0xbe3034ee	-0.17207691
141	0x3dacb6fe	0.084333405
142	0x3da20e53	0.079128884
143	0x3e075a1c	0.13217968
144	0x3e25d455	0.1619428
145	0x3e412267	0.1886078
146	0x3e213217	0.15741764
147	0x3e19eb15	0.15031083
148	0xbe25574a	-0.1614658
149	0x3e0665bb	0.13124745
150	0xbdc77582	-0.0973921
151	0x3da0e0cf	0.07855379
152	0xbe016632	-0.1263664
153	0x3e2bfdb5	0.16796
154	0x3e12afe6	0.14324912
155	0xbe3280bf	-0.17431925
156	0x3e33b7fa	0.1755065
157	0xbdf47e30	-0.11938131
158	0xbe3a4dcc	-0.1819374
159	0x3e237567	0.15962754
160	0x3e30ea14	0.17276794
161	0x3e135001	0.14385988
162	0xbe349326	-0.17634258
163	0xbdee3053	-0.11630311
164	0x3d97ec81	0.074181564
165	0x3e52d8b7	0.20590483
166	0x3e3cde76	0.18444237
167	0x3e06b8db	0.13156454
168	0xbde45524	-0.11149052
169	0x3e077102	0.13226703
170	0x3e7ccd43	0.24687676
171	0x3e37ba07	0.17942058
172	0x3e379860	0.1792922
173	0xbe040234	-0.12891465
174	0xbe42d7d8	-0.1902765
175	0x3c62328e	0.0138059985
176	0xbcc3884f	-0.023868708
177	0xbd274107	-0.0408335
178	0xbe0b2145	-0.1358691
179	0xbe01f645	-0.126916
180	0x3e640921	0.22269107
181	0xbe598242	-0.21241096
182	0x3f2d33a3	0.67656916
183	0xbe1b253d	-0.15150924
184	0xbefc9929	-0.49335602
185	0xbd92fff5	-0.07177726
186	0x3c52ca87	0.012865669
187	0x3e023c5b	0.12718336
188	0xbe0d0a7f	-0.13773535
189	0x3e886048	0.26635957
190	0xbe9ea0d4	-0.30982077
191	0x3f09e3dc	0.5386331
192	0xbe26e304	-0.16297537
193	0xbe659b3d	-0.224225
194	0x3daa118e	0.083041295
195	0x3eb29195	0.34876695
196	0x3e7ecab2	0.2488201
197	0xbdccf647	-0.10007911
198	0xbc0b9e32	-0.008521603
199	0x3f8d8739	1.1056892
200	0x3e9e5629	0.3092511
201	0xbe9ba882	-0.30402
202	0xbeb4ad54	-0.3528849
203	0x3cd5d191	0.026100906
204	0x3e84774d	0.2587227
205	0x3ea4f84a	0.3222068
206	0x3e9c1c58	0.30490375
207	0xbcc5ef2e	-0.024161901
208	0x3e669ddd	0.22521158
209	0x3eabb6bd	0.33537856
210	0xbe119da1	-0.14220287
211	0xbe9827b2	-0.29717785
212	0x3c3911ce	0.011295749
213	0x3f34101d	0.70337087
214	0x3d970d01	0.07375527
215	0x3ea653ce	0.32485813
216	0x3e957a4e	0.29194874
217	0xbc845d98	-0.01615791
218	0x3f0bb947	0.54579586
219	0x3eeaa8bf	0.45831868
220	0x3eb5bc1f	0.35495088
221	0x3e5772b9	0.21039857
222	0x3e63c66f	0.22243665
223	0x3d1b43d0	0.037906468
224	0xbe71261a	-0.23549691
225	0x3f1904cb	0.5977294
226	0x3f4b4850	0.79407215
227	0x3e811dff	0.25218198
228	0xbdf908ea	-0.12159903
229	0xbe0aafce	-0.13543627
230	0x3e96ba54	0.29439032
231	0x3e933419	0.28750685
232	0x3e206415	0.15663178
233	0xbe03ad64	-0.12859112
234	0x3f1b8d2c	0.60762286
235	0x3d8f30e5	0.06991748
236	0xbea2f0af	-0.31824252
237	0xbeee0e24	-0.46495163
238	0x3e80c5c5	0.25150886
239	0xbde6d0ba	-0.1127028

std.constant13 i1 [240, 60] scale=0.017587328 zero_point=0
0	0x20	0.5627945
1	0x0b	0.19346061
2	0xb5	-1.3190496
3	0x03	0.052761987
4	0x03	0.052761987
5	0xdc	-0.63314384
6	0x09	0.15828596
7	0x1b	0.47485787
8	0xea	-0.38692123
9	0x2d	0.79142976
10	0x05	0.08793664
11	0xd7	-0.7210805
12	0x04	0.07034931
13	0x05	0.08793664
14	0xe0	-0.5627945
15	0x20	0.5627945
16	0xcf	-0.8617791
17	0x15	0.3693339
18	0x16	0.38692123
19	0x0d	0.22863527
20	0x27	0.6859058
21	0xee	-0.31657192
22	0xf6	-0.17587328
23	0xeb	-0.3693339
24	0xd3	-0.79142976
25	0xdc	-0.63314384
26	0xed	-0.33415923
27	0xf9	-0.1231113
28	0x27	0.6859058
29	0xc7	-1.0024778
30	0x09	0.15828596
31	0xf7	-0.15828596
32	0xfe	-0.035174657
33	0xbd	-1.178351
34	0xea	-0.38692123
35	0x35	0.9321284
36	0xd7	-0.7210805
37	0x1d	0.51003253
38	0x3d	1.072827
39	0xea	-0.38692123
40	0xe1	-0.5452072
41	0xd6	-0.7386678
42	0x08	0.14069863
43	0x13	0.33415923
44	0x00	0.0
45	0xe4	-0.4924452
46	0xd9	-0.6859058
47	0xf3	-0.22863527
48	0x07	0.1231113
49	0xf4	-0.21104795
50	0x17	0.40450856
51	0xdd	-0.6155565
52	0xf0	-0.28139725
53	0x1d	0.51003253
54	0x48	1.2662877
55	0xe3	-0.51003253
56	0x09	0.15828596
57	0x0f	0.26380992
58	0x31	0.8617791
59	0xe8	-0.4220959
60	0x16	0.38692123
61	0xea	-0.38692123
62	0xe1	-0.5452072
63	0xf0	-0.28139725
64	0xeb	-0.3693339
65	0x03	0.052761987
66	0xf9	-0.1231113
67	0x07	0.1231113
68	0x1d	0.51003253
69	0x09	0.15828596
70	0x00	0.0
71	0xf4	-0.21104795
72	0xf4	-0.21104795
73	0xf0	-0.28139725
74	0x1c	0.4924452
75	0xfd	-0.052761987
76	0x04	0.07034931
77	0xf9	-0.1231113
78	0x00	0.0
79	0x0c	0.21104795
80	0x07	0.1231113
81	0x04	0.07034931
82	0x0e	0.2462226
83	0x11	0.2989846
84	0xff	-0.017587328
85	0xe7	-0.4396832
86	0xfd	-0.052761987
87	0x0e	0.2462226
88	0xfc	-0.07034931
89	0xf7	-0.15828596
90	0xff	-0.017587328
91	0x00	0.0
92	0xf4	-0.21104795
93	0xfa	-0.10552397
94	0xfa	-0.10552397
95	0x08	0.14069863
96	0xf0	-0.28139725
97	0xeb	-0.3693339
98	0x27	0.6859058
99	0x04	0.07034931
100	0xed	-0.33415923
101	0x03	0.052761987
102	0x08	0.14069863
103	0xf5	-0.19346061
104	0x04	0.07034931
105	0x08	0.14069863
106	0x00	0.0
107	0x06	0.10552397
108	0xfb	-0.08793664
109	0x00	0.0
110	0xf0	-0.28139725
111	0x0f	0.26380992
112	0x0e	0.2462226
113	0xfa	-0.10552397
114	0x19	0.4396832
115	0x19	0.4396832
116	0xf0	-0.28139725
117	0xf4	-0.21104795
118	0xf8	-0.14069863
119	0x11	0.2989846
120	0x57	1.5300976
121	0x20	0.5627945
122	0xa5	-1.6004468
123	0x39	1.0024778
124	0x26	0.66831845
125	0xa6	-1.5828595
126	0x33	0.89695376
127	0x28	0.7034931
128	0xc8	-0.9848904
129	0x55	1.4949229
130	0x2e	0.8090171
131	0xc8	-0.9848904
132	0x24	0.63314384
133	0x2b	0.7562551
134	0xb4	-1.3366369
135	0x41	1.1431763
136	0xba	-1.231113
137	0x34	0.91454107
138	0x3c	1.0552397
139	0x16	0.38692123
140	0x47	1.2487003
141	0xca	-0.94971573
142	0xcc	-0.91454107
143	0xdc	-0.63314384
144	0xa1	-1.6707962
145	0xd0	-0.8441918
146	0xe3	-0.51003253
147	0xda	-0.66831845
148	0x5a	1.5828595
149	0x9b	-1.7763202
150	0x46	1.231113
151	0xc8	-0.9848904
152	0x1a	0.45727053
153	0xab	-1.4949229
154	0xad	-1.4597483
155	0x4c	1.3366369
156	0xa9	-1.5300976
157	0x31	0.8617791
158	0x55	1.4949229
159	0xfc	-0.07034931
160	0xcd	-0.89695376
161	0xbc	-1.1959383
162	0x1f	0.5452072
163	0x18	0.4220959
164	0xd3	-0.79142976
165	0xe3	-0.51003253
166	0xc2	-1.0904144
167	0xf1	-0.26380992
168	0x30	0.8441918
169	0xcb	-0.9321284
170	0x15	0.3693339
171	0xd6	-0.7386678
172	0xd5	-0.7562551
173	0x4b	1.3190496
174	0x67	1.8114948
175	0xbd	-1.178351
176	0x36	0.94971573
177	0x34	0.91454107
178	0x5a	1.5828595
179	0xb0	-1.4069862
180	0x0c	0.21104795
181	0x09	0.15828596
182	0x10	0.28139725
183	0x05	0.08793664
184	0xf6	-0.17587328
185	0xe1	-0.5452072
186	0x0f	0.26380992
187	0xfb	-0.08793664
188	0x01	0.017587328
189	0xfc	-0.07034931
190	0x12	0.31657192
191	0xfd	-0.052761987
192	0x13	0.33415923
193	0x16	0.38692123
194	0x05	0.08793664
195	0xf7	-0.15828596
196	0x14	0.35174656
197	0xfe	-0.035174657
198	0xfb	-0.08793664
199	0x0c	0.21104795
200	0x03	0.052761987
201	0x00	0.0
202	0x02	0.035174657
203	0x0d	0.22863527
204	0x0d	0.22863527
205	0x0a	0.17587328
206	0xfb	-0.08793664
207	0x05	0.08793664
208	0xf5	-0.19346061
209	0x1d	0.51003253
210	0x0c	0.21104795
211	0xf9	-0.1231113
212	0x00	0.0
213	0x1c	0.4924452
214	0xfc	-0.07034931
215	0x08	0.14069863
216	0x0b	0.19346061
217	0xf4	-0.21104795
218	0xe6	-0.45727053
219	0xf9	-0.1231113
220	0x11	0.2989846
221	0x13	0.33415923
222	0xf2	-0.2462226
223	0xe1	-0.5452072
224	0xe8	-0.4220959
225	0x1b	0.47485787
226	0x0c	0.21104795
227	0xfb	-0.08793664
228	0x04	0.07034931
229	0xf3	-0.22863527
230	0x00	0.0
231	0x0f	0.26380992
232	0x02	0.035174657
233	0x03	0.052761987
234	0xea	-0.38692123
235	0x0f	0.26380992
236	0x07	0.1231113
237	0x0c	0.21104795
238	0xeb	-0.3693339
239	0xf2	-0.2462226
240	0xfd	-0.052761987
241	0xf6	-0.17587328
242	0xf5	-0.19346061
243	0xf7	-0.15828596
244	0xf2	-0.2462226
245	0x08	0.14069863
246	0xfe	-0.035174657
247	0x0a	0.17587328
248	0x10	0.28139725
249	0x0a	0.17587328
250	0x00	0.0
251	0xf4	-0.21104795
252	0xf6	-0.17587328
253	0xf5	-0.19346061
254	0x0e	0.2462226
255	0xfb	-0.08793664

std.constant14 f4 [240, 1]
0	0x3e640d58	0.22270715
1	0xbdc70a68	-0.09718782
2	0x3d7d763c	0.061880335
3	0xbdd7fd29	-0.10546333
4	0xbf328ee3	-0.6974928
5	0xbeea69f6	-0.45783967
6	0x3d40f2e1	0.047106627
7	0xbeb5f618	-0.35539317
8	0xbe8774bc	-0.2645625
9	0x3dc6b201	0.0970192
10	0xbe1d0a9a	-0.15336075
11	0x3c66f749	0.014097043
12	0xbe61bfca	-0.22045818
13	0xbea1dce3	-0.31613836
14	0xbde87ca5	-0.11351899
15	0x3eca48fa	0.39508802
16	0xbbb1f303	-0.0054305806
17	0xbe14b065	-0.14520414
18	0xbec27ebc	-0.37987316
19	0x3f2eef81	0.68334204
20	0x3e274363	0.163343
21	0xbdb3c0f5	-0.08777038
22	0xbebe2ccf	-0.3714356
23	0xbd6a9ad6	-0.05727657
24	0x3e6e5a72	0.2327669
25	0x3ec0bb72	0.3764301
26	0xbe443240	-0.19159794
27	0x3c861d53	0.016371405
28	0x3dd2f1d8	0.10300034
29	0x3d7655f7	0.060140576
30	0xbec1806a	-0.37793285
31	0xbf07049a	-0.52741396
32	0xbd5801bf	-0.05273604
33	0x3ec13b24	0.37740433
34	0xbe82151b	-0.25406727
35	0x3e5749a3	0.21024184
36	0x3c706f0e	0.014674915
37	0x3cdabaa8	0.026700333
38	0x3ea30d08	0.3184588
39	0xbe53e94a	-0.20694461
40	0x3e7c3709	0.24630369
41	0x3dded52c	0.10880503
42	0x3e445ddb	0.19176428
43	0x3e740437	0.23829733
44	0xbd000997	-0.031259146
45	0x3f154947	0.5831494
46	0x3e2a9d48	0.1666156
47	0x3d3e8b24	0.046519414
48	0xbeb36b8a	-0.35042983
49	0xbe873fe8	-0.26415944
50	0x3d369a7f	0.044580933
51	0x3e4e0fae	0.20123169
52	0xbd0ff5a3	-0.035146367
53	0xbc7b4d10	-0.015338197
54	0x3ea4d71f	0.32195374
55	0xbe0bcfc7	-0.1365348
56	0xbeca548e	-0.39517635
57	0xbee0aa85	-0.43880096
58	0x3d4a54ba	0.049397208
59	0xbdaecdbc	-0.085353345
60	0xbe23ae18	-0.1598438
61	0xbee6c0d8	-0.45069003
62	0xbd2681c8	-0.040651113
63	0xbecb2a95	-0.39680925
64	0xbed44c9e	-0.41464704
65	0xbea89dc9	-0.3293288
66	0xbed98afa	-0.42488843
67	0xbee1ba68	-0.4408753
68	0xbebf6880	-0.37384415
69	0xbdf9a0b5	-0.121888556
70	0xbe9ffcec	-0.31247652
71	0xbe92edcb	-0.28697047
72	0xbef45e9a	-0.47728425
73	0xbeadd7c8	-0.3395369
74	0xbe6f395c	-0.23361725
75	0xbe24c5b6	-0.16091046
76	0xbd94a909	-0.072588034
77	0xbeeb1bec	-0.4591974
78	0xbeb73aaa	-0.35786945
79	0xbe9b4170	-0.30323362
80	0xbe379583	-0.17928128
81	0xbedd31ec	-0.4320215
82	0xbf1b780a	-0.6073004
83	0xbe9bc903	-0.30426797
84	0xbdc3cedd	-0.095609404
85	0xbe9210ca	-0.28528434
86	0xbe9758d4	-0.29559958
87	0xbed12b00	-0.4085312
88	0xbe7f7a4e	-0.24949
89	0xbd71fa39	-0.05907652
90	0xbefb0566	-0.49027556
91	0xbf288871	-0.65833193
92	0xbed96f9f	-0.42467973
93	0xbe93b93a	-0.28852254
94	0xbe2fe2fe	-0.17176434
95	0xbdc199de	-0.09453176
96	0xbddbe3b5	-0.10736791
97	0xbe3dc462	-0.18531945
98	0xbe104781	-0.14089777
99	0xbf071bd0	-0.52776814
100	0xbf075b46	-0.5287365
101	0xbe82e920	-0.25568485
102	0xbf26c68d	-0.65146714
103	0xbcbad86e	-0.02280828
104	0xbefd6e04	-0.49497998
105	0xbe225eec	-0.15856522
106	0xbd880b72	-0.06642808
107	0xbf148c5e	-0.58026683
108	0xbf1b1dfe	-0.6059264
109	0xbebcb8ce	-0.36859745
110	0xbfabca3c	-1.3421092
111	0xbe99828d	-0.29982415
112	0xbec28447	-0.37991545
113	0xbee5a442	-0.4485188
114	0x3ce1cc3b	0.027563205
115	0xbed8c9e9	-0.42341545
116	0xbec4642a	-0.3835767
117	0xbef23267	-0.4730408
118	0xbea43d1f	-0.32077882
119	0xbeeae9b8	-0.45881438
120	0x3e8b218a	0.27174026
121	0x3e04d87f	0.12973212
122	0xbe93db85	-0.28878418
123	0x3cbc0ea9	0.02295621
124	0x3dd49d8d	0.10381613
125	0x3d5981ed	0.053102423
126	0x3e5b603d	0.2142343
127	0x3e827f35	0.25487676
128	0x3d7668a1	0.060158376
129	0x3e94af9a	0.29040223
130	0x3e0c0c07	0.13676463
131	0xbe9616a2	-0.29314142
132	0x3e110208	0.14160931
133	0x3cdccc97	0.026953025
134	0xbe8056ee	-0.25066322
135	0x3e95de26	0.29271048
136	0xbe949bac	-0.29025018
137	0x3e6d29ec	0.23160523
138	0x3e85a982	0.26105887
139	0x3e9dbb08	0.30806756
140	0x3e89b0b6	0.26892632
141	0xbe3c1663	-0.18367915
142	0xbe089a37	-0.13340078
143	0xbe5a5605	-0.21321876
144	0xbe9572ec	-0.2918924
145	0xbe7e0b85	-0.24809082
146	0xbe84823a	-0.25880605
147	0xbe71e8ec	-0.23624009
148	0x3ea04cb1	0.3130851
149	0xbe95e3d6	-0.29275388
150	0x3e2b8642	0.16750434
151	0xbe7f7487	-0.24946795
152	0x3e3fd442	0.18733314
153	0xbeb253d4	-0.3482958
154	0xbe85062f	-0.2598128
155	0x3e8b42e3	0.27199468
156	0xbe988d1a	-0.29795152
157	0x3e6c5f72	0.23083284
158	0x3e8efe4b	0.27928385
159	0xbe75cbd3	-0.24003534
160	0xbe8f3973	-0.27973518
161	0xbe913d90	-0.2836728
162	0x3e7a42e9	0.24439587
163	0x3e57e04e	0.21081659
164	0xbdb74f99	-0.08950729
165	0xbea58c75	-0.32333723
166	0xbe95dbd1	-0.2926927
167	0xbe2891a3	-0.16461806
168	0x3e538e19	0.20659675
169	0xbe278e97	-0.16362987
170	0xbe59d55b	-0.21272795
171	0xbe8f9d82	-0.28049856
172	0xbe8375ad	-0.25675717
173	0x3e471463	0.1944137
174	0x3e921e2d	0.28538647
175	0xbddd30e3	-0.1080034
176	0x3dd16898	0.10225028
177	0x3d490b79	0.049083207
178	0x3e8d722c	0.2762617
179	0x3df27a12	0.11839689
180	0x3f1f188d	0.62146837
181	0xbe41881e	-0.18899581
182	0x3ef273e2	0.47354037
183	0xbec7b840	-0.3900776
184	0xbeeeeb43	-0.46663865
185	0x3b11846d	0.0022204176
186	0x3dcb818f	0.09936821
187	0xbe157a4c	-0.14597434
188	0xbec7bc97	-0.3901107
189	0x3ede60cf	0.43433234
190	0xbe83fb7e	-0.2577781
191	0xbd1ddec1	-0.038542513
192	0xbe92532b	-0.28579077
193	0xbe8c77e4	-0.2743522
194	0x3e5c9bda	0.21543828
195	0x3f10bbcb	0.5653655
196	0x3e8a10ed	0.26966038
197	0x3d8ea245	0.06964544
198	0x3df867a3	0.12129142
199	0x3f508d2d	0.8146542
200	0x3e99d65f	0.30046365
201	0xbdf9b9a5	-0.12193612
202	0xbebdc362	-0.37063128
203	0x3e9d62ae	0.3073935
204	0x3f0ac806	0.5421146
205	0x3eae064c	0.3398918
206	0x3b93a55b	0.004505796
207	0xbe5a803a	-0.21337977
208	0x3f2833cf	0.65704054
209	0x3f1c3a99	0.6102691
210	0xbe9b1c02	-0.30294806
211	0xbf2caca8	-0.6745095
212	0x3df3aeb5	0.11898557
213	0x3f61e656	0.8824209
214	0x3ded8603	0.11597826
215	0x3e5c776d	0.21529932
216	0x3f2f4ee2	0.6847974
217	0xbc55402f	-0.013015791
218	0x3f121050	0.5705614
219	0xbe5c7704	-0.21529776
220	0x3eb9121d	0.36146632
221	0x3ebfbdf3	0.37449607
222	0x3e6c237c	0.23060411
223	0x3f11d310	0.5696268
224	0xbe29ddcf	-0.1658852
225	0x3f79c0fb	0.9756009
226	0x3f1be43e	0.60895145
227	0xbdd33de9	-0.10314543
228	0xbc859e1a	-0.01631074
229	0xbd0d65da	-0.03452096
230	0xbd9017a2	-0.070357576
231	0x3d91e165	0.07123069
232	0x3eae1d6e	0.34006828
233	0xbabf693b	-0.0014603505
234	0x3f67fb51	0.90617853
235	0x3c301ad4	0.010748584
236	0xbed0d005	-0.40783706
237	0xbed5f4d1	-0.41788343
238	0x3ea07434	0.31338656
239	0xbd0595dc	-0.03261362

lstm_1/lstm_cell_1/bias1 f4 [240]
0	0xbe6526fd	-0.22378154
1	0xbe8d2cde	-0.27573293
2	0xbed28cc3	-0.41123018
3	0xbed1d9f2	-0.40986592
4	0xbed9224a	-0.42408973
5	0xbec4dac7	-0.38448164
6	0xbc3e5910	-0.011617914
7	0xbedd8979	-0.43268946
8	0xbdb67398	-0.089087665
9	0x3d171e00	0.036893845
10	0xbecaffe2	-0.39648348
11	0xbec34231	-0.38136438
12	0xbe0496de	-0.12948176
13	0xbee6d688	-0.4508555
14	0xbe9ae5a6	-0.30253333
15	0xbec9a133	-0.39380798
16	0xbedac734	-0.42730105
17	0xbef0c8cc	-0.47028196
18	0xbf020024	-0.50781465
19	0xbeb28a30	-0.34871054
20	0xbdc7ac10	-0.09749615
21	0xbe1813c6	-0.14851293
22	0xbeae0a7a	-0.33992368
23	0xbecd19cb	-0.4005874
24	0xbea8afc2	-0.32946593
25	0xbecf1929	-0.40448883
26	0xbe947ca6	-0.2900135
27	0xbede45fb	-0.43412766
28	0xbee3dbe8	-0.44503713
29	0xbec8cb54	-0.39217627
30	0xbe236540	-0.15956593
31	0xbebb9620	-0.36637974
32	0xbed5b1f0	-0.41737318
33	0xbec0c947	-0.37653562
34	0xbea024c1	-0.3127804
35	0xbea7e4e2	-0.3279181
36	0xbed252c3	-0.41078767
37	0xbd1ff639	-0.039053176
38	0xbee65e1d	-0.44993678
39	0x3d319591	0.04335553
40	0xbe21a61f	-0.15786026
41	0xbec3cac7	-0.38240644
42	0xbee9d6ed	-0.45671788
43	0xbec493a5	-0.38393894
44	0xbf042011	-0.5161143
45	0x3d2ce418	0.042209715
46	0xbe9a0c4c	-0.30087507
47	0xbecbad48	-0.3978064
48	0xbed4d8ce	-0.4157166
49	0xbed4ddbf	-0.4157543
50	0xbea31fd6	-0.31860226
51	0xbebc46a4	-0.36772645
52	0xbee2e02f	-0.44311664
53	0xbebe33d8	-0.3714893
54	0xbec3edc3	-0.38267335
55	0xbe98a108	-0.29810357
56	0xbeb5ce09	-0.35508755
57	0xbedfd67d	-0.4371833
58	0xbec8c24c	-0.39210737
59	0xbeab134b	-0.33413157
60	0x3f485794	0.78258634
61	0x3f32ac71	0.69794375
62	0x3f2da9fe	0.6783751
63	0x3f4d5156	0.80202234
64	0x3f420bea	0.7579943
65	0x3f1985c3	0.5996973
66	0x3f310d24	0.69160676
67	0x3f5005dc	0.8125894
68	0x3f2634f9	0.6492458
69	0x3f274597	0.6534056
70	0x3f3ba744	0.733021
71	0x3f58e59c	0.84725356
72	0x3f662d4e	0.8991288
73	0x3f0eac11	0.557313
74	0x3f6378ac	0.88856006
75	0x3f412c33	0.7545807
76	0x3f50f642	0.8162576
77	0x3f3fbc47	0.74896663
78	0x3f178703	0.59190387
79	0x3f4553e3	0.77081126
80	0x3f13807e	0.5761794
81	0x3f695962	0.9115201
82	0x3f5b2d91	0.85616404
83	0x3f0ace39	0.5422092
84	0x3f33249f	0.69977754
85	0x3f4af230	0.792758
86	0x3f3cf2b3	0.7380783
87	0x3f40740a	0.7517706
88	0x3f48e445	0.7847331
89	0x3f5ad1e0	0.85476494
90	0x3f0f1514	0.5589154
91	0x3f57b61c	0.8426225
92	0x3f3da65f	0.7408199
93	0x3f4c72e9	0.7986284
94	0x3f42b00a	0.76049864
95	0x3f4d1cf3	0.801223
96	0x3f3537b3	0.70788115
97	0x3f202d17	0.625688
98	0x3f2e39c9	0.68056923
99	0x3f55dbc9	0.8353849
100	0x3f014438	0.5049472
101	0x3f282732	0.6568481
102	0x3f4aeda7	0.7926888
103	0x3f512a29	0.81704956
104	0x3f366fb8	0.7126422
105	0x3f10b89c	0.5653169
106	0x3f32a3a7	0.69780964
107	0x3f36a4da	0.71345294
108	0x3f33fd88	0.70308733
109	0x3f234caa	0.63788855
110	0x3f4350b3	0.7629501
111	0x3f342906	0.70375097
112	0x3f39f072	0.72632515
113	0x3f2f6fab	0.68529767
114	0x3f61c4b9	0.881908
115	0x3f3869f0	0.7203665
116	0x3f31c79b	0.694452
117	0x3f3dfd52	0.7421466
118	0x3f38a46a	0.72125876
119	0x3f5f0e93	0.87131613
120	0xbc1d515b	-0.009601916
121	0xbad28539	-0.0016061432
122	0xbb6bc480	-0.0035975277
123	0xbc42ac05	-0.011881833
124	0x3bfbcd8e	0.007684416
125	0x3d5f53e6	0.05452337
126	0xbbaa8a18	-0.0052044503
127	0xbc57730c	-0.013149988
128	0xbd34bf32	-0.04412765
129	0xbb54b763	-0.003245794
130	0x3cc9d1f3	0.024636244
131	0x3b0d3e97	0.00215522
132	0x3cb3ae8b	0.021933815
133	0x3cd94862	0.026523773
134	0xbb4a79c7	-0.003089534
135	0x3d8152c2	0.06314613
136	0xbca6a038	-0.02034007
137	0xbc9fba6c	-0.019498073
138	0x3cdb0ee2	0.026740495
139	0x3ca29b38	0.019849405
140	0xbca75dc8	-0.02043046
141	0xbbed097a	-0.0072337957
142	0xbb27b583	-0.0025590367
143	0x3d083932	0.03325767
144	0xbd2d4a93	-0.042307448
145	0x3c00670e	0.00783707
146	0xbcd814ab	-0.026377043
147	0xbc0cff55	-0.008605798
148	0x3bafd3b8	0.005365815
149	0x3c1da506	0.009621864
150	0xbd05c151	-0.032655064
151	0x3c3aabdb	0.011393513
152	0xbc9ab40b	-0.01888468
153	0xbc60100b	-0.0136757
154	0xbbd515ec	-0.0065028574
155	0x3c533165	0.012890195
156	0x3ccd265f	0.02504271
157	0x3bbe2e9a	0.005803895
158	0x3d4a8442	0.049442537
159	0xbd9294be	-0.071572766
160	0x3c1df1b8	0.00964015
161	0xbd01cd58	-0.03168997
162	0xbcc8b041	-0.024498107
163	0x3d191230	0.03737086
164	0x3d5ccf34	0.05390854
165	0x3c294830	0.010332152
166	0xbbc61d7e	-0.006045996
167	0x3d9afc92	0.07567705
168	0xbc29d476	-0.010365596
169	0x3d2e5255	0.042558987
170	0xba9f5b18	-0.0012157885
171	0x3cd0dedc	0.025496893
172	0x3c432e91	0.011912958
173	0xbc70f383	-0.014706495
174	0x3c05e999	0.00817337
175	0xbc8d0b3c	-0.017217271
176	0x3d421d72	0.047391362
177	0xbd125b87	-0.03573182
178	0xbb2a777a	-0.0026011155
179	0xbce2f182	-0.02770305
180	0xbe98be52	-0.29832703
181	0xbe96aecc	-0.29430234
182	0xbed856ad	-0.42253628
183	0xbed259cb	-0.41084132
184	0xbedc189a	-0.4298752
185	0xbec9002f	-0.39257953
186	0xbe1cf6d9	-0.1532854
187	0xbee34e1d	-0.44395533
188	0xbe5211de	-0.20514628
189	0xbd904923	-0.070452
190	0xbeccf6e0	-0.400321
191	0xbecba02d	-0.39770642
192	0xbe33c568	-0.17555773
193	0xbee35d95	-0.44407335
194	0xbe9d499a	-0.30720216
195	0xbecfe8a4	-0.40607178
196	0xbed8436e	-0.42238945
197	0xbef50b79	-0.47860315
198	0xbf04cee0	-0.51878166
199	0xbeba1ad1	-0.36348584
200	0xbe5d3bc6	-0.21604833
201	0xbe39ff00	-0.18163681
202	0xbeb22f2e	-0.3480162
203	0xbedd49a9	-0.4322026
204	0xbeaec526	-0.34134787
205	0xbecf58b2	-0.40497357
206	0xbec2570e	-0.37957042
207	0xbee3be07	-0.44480917
208	0xbedeb9c7	-0.43501112
209	0xbed11465	-0.40835872
210	0xbe4e1ae7	-0.2012745
211	0xbebc0d1c	-0.36728752
212	0xbeda8fcb	-0.4268783
213	0xbec710b8	-0.38879943
214	0xbeac4be3	-0.33651647
215	0xbeaf6a5b	-0.3426083
216	0xbedf68fb	-0.4363478
217	0xbe240edc	-0.16021293
218	0xbeeb047e	-0.45901865
219	0xbde0a668	-0.109692395
220	0xbe644382	-0.22291377
221	0xbecab527	-0.39591333
222	0xbee9308f	-0.4554486
223	0xbed18af0	-0.40926313
224	0xbf047bad	-0.51751214
225	0xbdf92dd3	-0.121669434
226	0xbea1a4ad	-0.3157095
227	0xbed0f006	-0.40808123
228	0xbed895a3	-0.42301664
229	0xbee1f264	-0.44130242
230	0xbeafd287	-0.34340307
231	0xbec39366	-0.38198394
232	0xbee29723	-0.44255933
233	0xbed3492c	-0.41266763
234	0xbec77975	-0.38959852
235	0xbea7e8f8	-0.3279493
236	0xbec08a00	-0.37605286
237	0xbee3fbd8	-0.4452808
238	0xbecefbc2	-0.4042645
239	0xbeb1f348	-0.3475592

std.constant23 i1 [240, 60] scale=0.009552992 zero_point=0
0	0xea	-0.21016583
1	0x01	0.009552992
2	0x10	0.15284787
3	0xef	-0.16240086
4	0xf3	-0.12418889
5	0x36	0.5158616
6	0xdf	-0.31524873
7	0x03	0.028658975
8	0xc9	-0.5254146
9	0xde	-0.3248017
10	0x01	0.009552992
11	0xf2	-0.13374189
12	0xb6	-0.7069214
13	0xed	-0.18150684
14	0xea	-0.21016583
15	0x1d	0.27703676
16	0x02	0.019105984
17	0xff	-0.009552992
18	0xef	-0.16240086
19	0x1c	0.26748377
20	0xef	-0.16240086
21	0x3c	0.57317954
22	0x03	0.028658975
23	0x0b	0.105082914
24	0xc8	-0.53496754
25	0x0a	0.09552992
26	0xe5	-0.2579308
27	0x10	0.15284787
28	0x15	0.20061283
29	0xfd	-0.028658975
30	0xe0	-0.30569574
31	0x0c	0.1146359
32	0xe6	-0.24837779
33	0xfa	-0.05731795
34	0xfa	-0.05731795
35	0xdb	-0.3534607
36	0xf1	-0.14329489
37	0x17	0.21971881
38	0x1c	0.26748377
39	0x6e	1.0508292
40	0x02	0.019105984
41	0x1a	0.24837779
42	0xfb	-0.04776496
43	0x14	0.19105984
44	0x15	0.20061283
45	0x0a	0.09552992
46	0xcc	-0.49675557
47	0x1d	0.27703676
48	0xf4	-0.1146359
49	0x13	0.18150684
50	0xd2	-0.43943763
51	0x10	0.15284787
52	0x01	0.009552992
53	0xf4	-0.1146359
54	0x02	0.019105984
55	0x19	0.2388248
56	0x2c	0.42033166
57	0x1c	0.26748377
58	0x1a	0.24837779
59	0x12	0.17195386
60	0xfb	-0.04776496
61	0xf2	-0.13374189
62	0xfe	-0.019105984
63	0x03	0.028658975
64	0x0a	0.09552992
65	0x13	0.18150684
66	0xce	-0.4776496
67	0x10	0.15284787
68	0xde	-0.3248017
69	0xd1	-0.4489906
70	0xf8	-0.076423936
71	0x0c	0.1146359
72	0xda	-0.36301368
73	0xf9	-0.06687094
74	0xe5	-0.2579308
75	0xf1	-0.14329489
76	0xfd	-0.028658975
77	0x00	0.0
78	0x00	0.0
79	0xed	-0.18150684
80	0xcb	-0.50630856
81	0x2a	0.40122566
82	0x00	0.0
83	0x0f	0.14329489
84	0xdf	-0.31524873
85	0xfc	-0.038211968
86	0xef	-0.16240086
87	0x03	0.028658975
88	0xff	-0.009552992
89	0xef	-0.16240086
90	0xe5	-0.2579308
91	0x07	0.06687094
92	0x0b	0.105082914
93	0x07	0.06687094
94	0xeb	-0.20061283
95	0xea	-0.21016583
96	0xe4	-0.26748377
97	0x2f	0.4489906
98	0xf5	-0.105082914
99	0x38	0.53496754
100	0x1f	0.29614276
101	0xf5	-0.105082914
102	0xf5	-0.105082914
103	0xf2	-0.13374189
104	0xfc	-0.038211968
105	0x17	0.21971881
106	0xfd	-0.028658975
107	0x11	0.16240086
108	0x0e	0.13374189
109	0x05	0.04776496
110	0xe7	-0.2388248
111	0xff	-0.009552992
112	0x09	0.08597693
113	0xee	-0.17195386
114	0xdc	-0.3439077
115	0xf7	-0.08597693
116	0x06	0.05731795
117	0x09	0.08597693
118	0xeb	-0.20061283
119	0xed	-0.18150684
120	0xed	-0.18150684
121	0x00	0.0
122	0xd1	-0.4489906
123	0x10	0.15284787
124	0x03	0.028658975
125	0x0b	0.105082914
126	0xe6	-0.24837779
127	0x1b	0.2579308
128	0xe5	-0.2579308
129	0xd7	-0.39167267
130	0xf0	-0.15284787
131	0x16	0.21016583
132	0xcc	-0.49675557
133	0xf7	-0.08597693
134	0xd4	-0.42033166
135	0xeb	-0.20061283
136	0x1d	0.27703676
137	0x11	0.16240086
138	0xf9	-0.06687094
139	0xe3	-0.27703676
140	0xdc	-0.3439077
141	0x25	0.3534607
142	0x08	0.076423936
143	0x07	0.06687094
144	0xee	-0.17195386
145	0xf1	-0.14329489
146	0xe7	-0.2388248
147	0x02	0.019105984
148	0xf4	-0.1146359
149	0xea	-0.21016583
150	0xdc	-0.3439077
151	0xe5	-0.2579308
152	0x0b	0.105082914
153	0x0b	0.105082914
154	0xfb	-0.04776496
155	0xfa	-0.05731795
156	0xee	-0.17195386
157	0x2a	0.40122566
158	0xf4	-0.1146359
159	0x4a	0.7069214
160	0x19	0.2388248
161	0x05	0.04776496
162	0x01	0.009552992
163	0xe5	-0.2579308
164	0xf5	-0.105082914
165	0x1b	0.2579308
166	0x11	0.16240086
167	0xff	-0.009552992
168	0xff	-0.009552992
169	0x04	0.038211968
170	0xfc	-0.038211968
171	0xfc	-0.038211968
172	0x03	0.028658975
173	0xf4	-0.1146359
174	0xee	-0.17195386
175	0xfc	-0.038211968
176	0x03	0.028658975
177	0x0c	0.1146359
178	0xf1	-0.14329489
179	0xdd	-0.33435473
180	0x03	0.028658975
181	0xfa	-0.05731795
182	0xea	-0.21016583
183	0x18	0.2292718
184	0x0c	0.1146359
185	0x0c	0.1146359
186	0xe1	-0.29614276
187	0x1f	0.29614276
188	0xea	-0.21016583
189	0xed	-0.18150684
190	0xef	-0.16240086
191	0x18	0.2292718
192	0xcc	-0.49675557
193	0xf9	-0.06687094
194	0xf2	-0.13374189
195	0xf2	-0.13374189
196	0x14	0.19105984
197	0x0f	0.14329489
198	0xf6	-0.09552992
199	0xed	-0.18150684
200	0xd8	-0.3821197
201	0x2f	0.4489906
202	0x16	0.21016583
203	0xf8	-0.076423936
204	0xf7	-0.08597693
205	0xec	-0.19105984
206	0xe3	-0.27703676
207	0x0e	0.13374189
208	0xf5	-0.105082914
209	0xeb	-0.20061283
210	0xe1	-0.29614276
211	0xf0	-0.15284787
212	0x0c	0.1146359
213	0x0b	0.105082914
214	0xe5	-0.2579308
215	0xfa	-0.05731795
216	0xeb	-0.20061283
217	0x1d	0.27703676
218	0xee	-0.17195386
219	0x4b	0.7164744
220	0x11	0.16240086
221	0xff	-0.009552992
222	0x05	0.04776496
223	0xeb	-0.20061283
224	0xe4	-0.26748377
225	0x13	0.18150684
226	0x12	0.17195386
227	0xf9	-0.06687094
228	0x14	0.19105984
229	0xfe	-0.019105984
230	0xfc	-0.038211968
231	0xf4	-0.1146359
232	0xfa	-0.05731795
233	0xfa	-0.05731795
234	0xee	-0.17195386
235	0xee	-0.17195386
236	0xf3	-0.12418889
237	0x1d	0.27703676
238	0xe2	-0.28658977
239	0xdc	-0.3439077
240	0xf9	-0.06687094
241	0xf5	-0.105082914
242	0xfa	-0.05731795
243	0x0b	0.105082914
244	0x12	0.17195386
245	0x11	0.16240086
246	0xe1	-0.29614276
247	0x10	0.15284787
248	0xe8	-0.2292718
249	0xdf	-0.31524873
250	0xf8	-0.076423936
251	0x12	0.17195386
252	0xd7	-0.39167267
253	0xf9	-0.06687094
254	0xe4	-0.26748377
255	0xec	-0.19105984

std.constant24 i1 [240, 60] scale=0.015122516 zero_point=0
0	0xed	-0.2873278
1	0x00	0.0
2	0x0b	0.16634768
3	0x11	0.25708276
4	0xf7	-0.13610265
5	0xb3	-1.1644337
6	0x05	0.07561258
7	0xf9	-0.10585761
8	0xf5	-0.16634768
9	0xeb	-0.31757283
10	0x07	0.10585761
11	0xf9	-0.10585761
12	0xfc	-0.060490064
13	0x0c	0.18147019
14	0x0f	0.22683774
15	0xd6	-0.63514566
16	0x13	0.2873278
17	0xe8	-0.36294037
18	0xee	-0.2722053
19	0xbc	-1.028331
20	0xf4	-0.18147019
21	0x10	0.24196026
22	0x17	0.34781787
23	0x30	0.72588074
24	0x1e	0.45367548
25	0x1e	0.45367548
26	0x09	0.13610265
27	0x23	0.52928805
28	0xe4	-0.42343044
29	0x0b	0.16634768
30	0x16	0.33269536
31	0xfe	-0.030245032
32	0xe5	-0.40830794
33	0x3e	0.937596
34	0xf4	-0.18147019
35	0x02	0.030245032
36	0x19	0.3780629
37	0xdc	-0.5444106
38	0xdf	-0.49904302
39	0x00	0.0
40	0x2e	0.69563574
41	0x27	0.5897781
42	0xd6	-0.63514566
43	0xce	-0.7561258
44	0xf8	-0.12098013
45	0x52	1.2400463
46	0x35	0.80149335
47	0x1a	0.3931854
48	0x05	0.07561258
49	0xf9	-0.10585761
50	0x18	0.36294037
51	0x1c	0.42343044
52	0x22	0.5141655
53	0xf8	-0.12098013
54	0xd0	-0.72588074
55	0x08	0.12098013
56	0x0f	0.22683774
57	0x15	0.31757283
58	0xee	-0.2722053
59	0xd2	-0.69563574
60	0xde	-0.5141655
61	0xf2	-0.21171522
62	0x13	0.2873278
63	0xfb	-0.07561258
64	0xff	-0.015122516
65	0xbc	-1.028331
66	0xef	-0.25708276
67	0xed	-0.2873278
68	0xff	-0.015122516
69	0xe0	-0.4839205
70	0x02	0.030245032
71	0x10	0.24196026
72	0xf4	-0.18147019
73	0xfe	-0.030245032
74	0x20	0.4839205
75	0xd6	-0.63514566
76	0x27	0.5897781
77	0xe5	-0.40830794
78	0xda	-0.5746556
79	0xb6	-1.1190662
80	0xe4	-0.42343044
81	0x1a	0.3931854
82	0x18	0.36294037
83	0x21	0.49904302
84	0x29	0.62002313
85	0x27	0.5897781
86	0x27	0.5897781
87	0x1e	0.45367548
88	0xe0	-0.4839205
89	0x38	0.8468609
90	0xea	-0.33269536
91	0x08	0.12098013
92	0xeb	-0.31757283
93	0x46	1.0585761
94	0x13	0.2873278
95	0xe8	-0.36294037
96	0x20	0.4839205
97	0xdd	-0.52928805
98	0xd9	-0.5897781
99	0xf7	-0.13610265
100	0x24	0.5444106
101	0x2e	0.69563574
102	0xcb	-0.80149335
103	0xc9	-0.8317384
104	0x11	0.25708276
105	0x44	1.028331
106	0x28	0.60490066
107	0x07	0.10585761
108	0xe3	-0.43855298
109	0x0e	0.21171522
110	0x12	0.2722053
111	0x1b	0.40830794
112	0x1e	0.45367548
113	0xe4	-0.42343044
114	0xdd	-0.52928805
115	0x10	0.24196026
116	0xfd	-0.045367546
117	0xf2	-0.21171522
118	0xdf	-0.49904302
119	0xe1	-0.468798
120	0xea	-0.33269536
121	0xf7	-0.13610265
122	0xe7	-0.3780629
123	0xf9	-0.10585761
124	0xfa	-0.09073509
125	0xc9	-0.8317384
126	0xf8	-0.12098013
127	0x02	0.030245032
128	0x0f	0.22683774
129	0xfe	-0.030245032
130	0xff	-0.015122516
131	0xf4	-0.18147019
132	0xfc	-0.060490064
133	0xfd	-0.045367546
134	0x19	0.3780629
135	0xfd	-0.045367546
136	0x13	0.2873278
137	0xf3	-0.1965927
138	0xf9	-0.10585761
139	0xd5	-0.6502682
140	0xf3	-0.1965927
141	0x13	0.2873278
142	0x13	0.2873278
143	0x01	0.015122516
144	0x0d	0.1965927
145	0x0d	0.1965927
146	0xf8	-0.12098013
147	0x13	0.2873278
148	0xe5	-0.40830794
149	0x0d	0.1965927
150	0xec	-0.30245033
151	0x13	0.2873278
152	0xf0	-0.24196026
153	0x23	0.52928805
154	0x04	0.060490064
155	0x0a	0.15122516
156	0x0c	0.18147019
157	0xf6	-0.15122516
158	0xf7	-0.13610265
159	0xe2	-0.45367548
160	0x15	0.31757283
161	0x25	0.5595331
162	0xe0	-0.4839205
163	0xde	-0.5141655
164	0x0e	0.21171522
165	0x14	0.30245033
166	0x13	0.2873278
167	0xe3	-0.43855298
168	0xeb	-0.31757283
169	0x10	0.24196026
170	0x0b	0.16634768
171	0xed	-0.2873278
172	0x08	0.12098013
173	0xf2	-0.21171522
174	0x04	0.060490064
175	0x0f	0.22683774
176	0xfd	-0.045367546
177	0xea	-0.33269536
178	0xdd	-0.52928805
179	0xf8	-0.12098013
180	0xf5	-0.16634768
181	0xfe	-0.030245032
182	0xdc	-0.5444106
183	0xf9	-0.10585761
184	0x07	0.10585761
185	0xe8	-0.36294037
186	0xf9	-0.10585761
187	0xfd	-0.045367546
188	0xfc	-0.060490064
189	0x07	0.10585761
190	0xfc	-0.060490064
191	0xed	-0.2873278
192	0x07	0.10585761
193	0xf6	-0.15122516
194	0x11	0.25708276
195	0x06	0.09073509
196	0x0c	0.18147019
197	0xf9	-0.10585761
198	0x01	0.015122516
199	0xe4	-0.42343044
200	0x06	0.09073509
201	0x01	0.015122516
202	0x07	0.10585761
203	0x06	0.09073509
204	0x01	0.015122516
205	0xf5	-0.16634768
206	0xfe	-0.030245032
207	0x08	0.12098013
208	0xfc	-0.060490064
209	0x12	0.2722053
210	0xea	-0.33269536
211	0x11	0.25708276
212	0xf4	-0.18147019
213	0x1a	0.3931854
214	0x01	0.015122516
215	0x01	0.015122516
216	0x03	0.045367546
217	0xfc	-0.060490064
218	0x09	0.13610265
219	0xe7	-0.3780629
220	0x1c	0.42343044
221	0x08	0.12098013
222	0xf2	-0.21171522
223	0xee	-0.2722053
224	0x02	0.030245032
225	0x0d	0.1965927
226	0x09	0.13610265
227	0xef	-0.25708276
228	0xee	-0.2722053
229	0xf5	-0.16634768
230	0x06	0.09073509
231	0xf8	-0.12098013
232	0xfe	-0.030245032
233	0x04	0.060490064
234	0x0f	0.22683774
235	0x16	0.33269536
236	0xf8	-0.12098013
237	0xfa	-0.09073509
238	0xee	-0.2722053
239	0xf2	-0.21171522
240	0x02	0.030245032
241	0x03	0.045367546
242	0xe7	-0.3780629
243	0xfe	-0.030245032
244	0x01	0.015122516
245	0xcf	-0.7410033
246	0xfd	-0.045367546
247	0x0c	0.18147019
248	0xfb	-0.07561258
249	0x0f	0.22683774
250	0xfe	-0.030245032
251	0xe8	-0.36294037
252	0xfa	-0.09073509
253	0x05	0.07561258
254	0x0c	0.18147019
255	0x03	0.045367546
