DATN_LSTM_SMGW-main/rx_service/src/LSTM_model/LSTM_model_4_salt.tflite (tflite, 106416 bytes, 13 tensors)

lstm_4/lstm_cell_2/bias f4 [240]
-0.21336761 -0.29157948 -0.2658779 -0.27175164 -0.3011559 -0.38628018 -0.32260638 -0.24722058
-0.19129294 -0.3365458 -0.27711973 -0.36339104 -0.26863173 -0.28146064 -0.24684778 -0.35623607
-0.27221134 -0.287808 -0.2638085 -0.25823995 -0.30281034 -0.33859375 -0.33886343 -0.30676726
-0.3459676 -0.22826146 -0.32989156 -0.3343499 -0.2789242 -0.33405054 -0.29905966 -0.30814788
-0.29521137 -0.22870746 -0.304759 -0.28834498 -0.26138544 -0.3421986 -0.27112564 -0.29063025
-0.32887796 -0.3520106 -0.31807 -0.33507013 -0.26460978 -0.3228795 -0.30362123 -0.32344565
-0.26812783 -0.29982397 -0.3422415 -0.3649605 -0.31796497 -0.31199616 -0.267916 -0.3163341
-0.292681 -0.29187223 -0.27748826 -0.28450984 0.5507782 0.8279437 0.8793329 0.83699304
0.82269377 0.76213664 0.81569993 0.8713403 0.91986907 0.7994601 0.82615376 0.7170246
0.6588774 0.87728596 0.89707357 0.81976676 0.8692411 0.84617704 0.6857938 0.8492389
0.87651026 0.79773325 0.83439124 0.8694204 0.8497084 0.8577813 0.81463295 0.79991096
0.82210815 0.862088 0.7908161 0.84268284 0.83536 0.81086504 0.8284106 0.8947907
0.88569415 0.84990925 0.90390635 0.862703 0.7116979 0.8157104 0.82285136 0.7503201
0.9294648 0.8536033 0.8306071 0.7949995 0.821468 0.89377856 0.830421 0.8137191
0.826075 0.9186181 0.8518887 0.8456735 0.7299064 0.87668383 0.8665169 0.83831376
-0.061016742 0.084950924 -0.07716386 0.05467319 -0.04364575 -0.05184612 0.08834877 -0.06567491
0.06831134 0.077126816 -0.10931028 0.04514289 0.09929099 -0.052058037 0.09544033 0.071279116
-0.08747785 -0.06716229 -0.06948985 -0.077235125 -0.07315149 -0.058171064 -0.094378375 0.08673248
-0.053270496 0.07374671 -0.056079052 0.051130284 0.05864079 -0.042340927 -0.060513955 -0.059071768
0.07952646 0.051087078 0.026246406 -0.07407562 -0.09316677 0.05126316 0.09190902 -0.048574317
0.07986754 0.0783773 -0.072710976 -0.06358122 -0.086995184 0.0812851 0.066367805 -0.07780605
-0.09665777 -0.09595449 -0.07620341 0.04833795 0.07639308 0.061381992 -0.05988229 0.07977833
0.055990487 -0.06194159 0.08125721 -0.091466844 -0.21454157 -0.29847068 -0.2802424 -0.28648508
-0.2988178 -0.36453697 -0.32330197 -0.2555329 -0.237082 -0.3404122 -0.28174227 -0.3817915
-0.29996702 -0.30181798 -0.27126396 -0.35429874 -0.270436 -0.30700824 -0.30885637 -0.26095003
-0.3252405 -0.33456844 -0.3275962 -0.3189931 -0.35089716 -0.2822153 -0.33642522 -0.32444677
-0.2835313 -0.3266275 -0.28331372 -0.3089653 -0.30311984 -0.2863445 -0.30545056 -0.31422007
-0.2784051 -0.34938034 -0.3133532 -0.28841534 -0.36380303 -0.36821732 -0.31260374 -0.35693166
-0.2716138 -0.3143944 -0.29883718 -0.32233658 -0.32596663 -0.304667 -0.34404424 -0.36878777
-0.34532613 -0.31682923 -0.2698521 -0.31761163 -0.29823536 -0.2835662 -0.29976058 -0.28805873
00000000: 0a7d 5abe e849 95be 2621 88be 0823 8bbe
00000010: 1b31 9abe 84c6 c5be aa2c a5be 6427 7dbe
00000020: 4ce2 43be bb4f acbe a3e2 8dbe 640e babe
00000030: 198a 89be 9c1b 90be aac5 7cbe 9364 b6be
00000040: 495f 8bbe 925b 93be e811 87be 0738 84be
00000050: f509 9bbe 295c adbe 827f adbe 9910 9dbe
00000060: aa22 b1be 5fbd 69be 8ce7 a8be e92f abbe
00000070: 27cf 8ebe ac08 abbe 591e 99be 8fc5 9dbe
00000080: f225 97be 4a32 6abe 5f09 9cbe f4a1 93be
00000090: 50d4 85be a834 afbe fbd0 8abe 7dcd 94be
000000a0: b162 a8be bc3a b4be 12da a2be 508e abbe
000000b0: ef7a 87be 7650 a5be 3e74 9bbe ab9a a5be
000000c0: 0d48 89be 8782 99be 473a afbe 1adc babe
000000d0: 4ecc a2be f6bd 9fbe 492c 89be 8bf6 a1be
000000e0: 49da 95be 4770 95be f112 8ebe 46ab 91be
000000f0: cdff 0c3f 1ef4 533f f61b 613f 2d45 563f
00000100: 0f9c 523f 631b 433f b6d1 503f 2810 5f3f
00000110: 8a7c 6b3f 6ba9 4c3f d07e 533f ed8e 373f
00000120: 30ac 283f d095 603f 9da6 653f 3cdc 513f
00000130: 9686 5e3f 0f9f 583f 2f90 2f3f b867 593f
00000140: fa62 603f 3f38 4c3f aa9a 553f 5692 5e3f
00000150: 7d86 593f 8e97 5b3f c98b 503f f7c6 4c3f
00000160: ae75 523f cdb1 5c3f ed72 4a3f 10ba 573f
00000170: 27da 553f da94 4f3f b812 543f 0111 653f
00000180: dabc 623f a793 593f 6866 673f 1bda 5c3f
00000190: d531 363f 66d2 503f 63a6 523f fa14 403f
000001a0: 68f1 6d3f bf85 5a3f aba2 543f 1685 4b3f
000001b0: ba4b 523f acce 643f 7896 543f e54f 503f
000001c0: a779 533f 8e2a 6b3f 6115 5a3f 0f7e 583f
000001d0: 25db 3a3f 5a6e 603f 0dd4 5d3f bb9b 563f
000001e0: b1ec 79bd c0fa ad3d 1608 9ebd fff0 5f3d
000001f0: e3c5 32bd 995c 54bd 33f0 b43d 9180 86bd
00000200: d1e6 8b3d aaf4 9d3d 11de dfbd c0e7 383d
00000210: 1359 cb3d cf3a 55bd 3876 c33d c9fa 913d
00000220: 9627 b3bd 628c 89bd b250 8ebd 732d 9ebd
00000230: 73d0 95bd c844 6ebd 7349 c1bd cca0 b13d
00000240: 2a32 5abd 8408 973d 26b3 65bd fd6d 513d
00000250: 5331 703d ae6d 2dbd 7bdd 77bd 3df5 71bd
00000260: c5de a23d af40 513d b402 d73c f5b4 97bd
00000270: 38ce bebd 52f9 513d cc3a bc3d ddf5 46bd
00000280: 9891 a33d 4784 a03d 7ee9 94bd df36 82bd
00000290: 882a b2bd cd78 a63d d8eb 873d c758 9fbd
000002a0: 82f4 c5bd ca83 c4bd 8910 9cbd 04fe 453d
000002b0: fa73 9c3d af6b 7b3d 2247 75bd d262 a33d
000002c0: 4856 653d 77b6 7dbd 2e6a a63d f852 bbbd
000002d0: c9b0 5bbe 26d1 98be ef7b 8fbe 2cae 92be
000002e0: a6fe 98be 97a4 babe d687 a5be 35d5 82be
000002f0: a0c5 72be 824a aebe 8640 90be 2d7a c3be
00000300: 4795 99be e387 9abe 1ce3 8abe a566 b5be
00000310: 9676 8abe 2f30 9dbe 6c22 9ebe 3e9b 85be
00000320: ec85 a6be 8e4c abbe b0ba a7be 1053 a3be
00000330: cba8 b3be 867e 90be ed3f acbe e31d a6be
00000340: 042b 91be b83b a7be 7f0e 91be b330 9ebe
00000350: 8632 9bbe bf9b 92be 0464 9cbe 74e1 a0be
00000360: 1d8b 8ebe fbe1 b2be d56f a0be 2dab 93be
00000370: 6444 babe fb86 bcbe 990d a0be bfbf b6be
00000380: f710 8bbe 4ef8 a0be 3001 99be 4d09 a5be
00000390: 19e5 a6be 50fd 9bbe 9126 b0be c0d1 bcbe
000003a0: 96ce b0be 7137 a2be 0e2a 8abe fe9d a2be
000003b0: 4eb2 98be 972f 91be 387a 99be 6f7c 93be

lstm_3/lstm_cell_1/bias f4 [240]
-0.35672456 -0.16718799 -0.3224706 -0.22199297 -0.4488259 0.19492655 -0.17186826 -0.25188074
0.6532129 -0.0021151695 0.0036151102 -0.0467513 -0.07635462 0.00047435384 -0.18519449 0.009292158
-0.15836069 -0.061261315 -0.18996806 -0.056171063 0.41207752 -0.80527526 -0.12455687 0.051327847
0.6065589 -0.12603894 -0.20313141 0.12622565 0.0032041164 -0.04261245 0.31913146 -0.05260125
-0.004802506 -0.10713573 0.12256842 0.16252328 -0.02142772 -0.3818791 -0.10149658 -0.13041252
-0.19861248 -0.30976725 -0.15413576 -0.21739557 -0.18400328 0.5096659 -0.08256828 -0.20071602
0.036356784 0.075076945 0.024059273 -0.09513276 -0.39557606 -0.27818078 0.0016757846 0.093970686
-0.044484563 0.027755301 -0.107942745 -0.26215217 0.43854612 0.86136913 0.69136816 0.7000141
0.5693767 0.46562037 0.8014278 0.82902825 0.5577817 0.5497557 0.7168059 0.77267927
0.58673203 0.63710445 0.94075143 0.7405808 0.8336416 0.6192342 0.46377015 0.6220412
0.4167015 0.56961477 0.67881167 0.58592796 0.5207998 0.7060332 0.6753662 0.67423046
0.5788441 0.55935913 0.5023092 0.8976166 0.67211133 0.7754019 0.7852374 0.6068083
0.61604935 0.6487808 0.5899542 0.634376 0.70604134 0.64249223 0.76897633 0.80300367
0.99212575 0.4184472 0.67179936 0.7436276 0.7053045 0.6647211 0.818015 0.58495945
0.8108065 0.6674554 0.55760074 0.6778629 0.61352265 0.42216054 0.5954681 0.5492895
-0.012729494 -0.016256629 0.004834154 -0.013156169 0.0141967675 0.02411935 0.016221 0.0011816886
-0.043382455 0.048030876 0.047471963 -0.03580184 0.028385924 0.0439115 0.012474243 0.047107626
0.011474885 -0.039510988 -0.06859238 -0.005983383 0.015203964 0.06808005 -0.03592385 0.0068237022
0.007514402 0.009598207 -0.006151386 0.016304454 0.05601755 -0.028077967 -0.07393256 0.031465616
0.050391693 0.025220424 -0.03163348 -0.05750052 0.032465048 -0.015582108 -0.057451926 0.048693497
-0.00798124 0.043567672 -0.014675779 0.044410307 0.0469498 -0.045023605 0.034287173 -0.011990652
0.058089316 -0.008872997 -0.009202763 -0.04080612 -0.000108515706 0.006023722 -0.0020569353 -0.038088366
0.017435439 -0.06325381 0.03584803 -0.0025845198 -0.34714875 -0.24478836 -0.3307009 -0.17507672
-0.42765468 0.24832381 -0.17865783 -0.27263877 0.5727062 0.094915375 -0.084673814 -0.052905604
-0.074366 -0.122709 -0.2155328 -0.11683397 -0.21650673 -0.18471771 -0.22731107 -0.042149488
0.45240456 -0.4383471 -0.1798703 0.10256826 0.59773403 -0.15905076 -0.21129185 -0.028536988
0.08603828 -0.0084585 0.77991927 -0.027686903 0.13508853 -0.21284975 -0.043748923 0.27124184
-0.09160846 -0.38766 -0.083007485 -0.21692999 -0.073943816 -0.30354846 -0.20224214 -0.16693372
-0.070928484 0.5472956 0.034852125 -0.21869697 -0.093022265 0.07680208 -0.048228767 -0.2684593
-0.09344554 -0.26835647 -0.104756676 0.020862069 -0.16176821 0.01652 -0.22186433 -0.23885211
00000000: 9aa4 b6be 5433 2bbe de1a a5be 2052 63be
00000010: 82cc e5be d39a 473e 3cfe 2fbe 83f6 80be
00000020: f638 273f a89e 0abb 7ceb 6c3b 4b7e 3fbd
00000030: d05f 9cbd b2b2 f839 a0a3 3dbe 233e 183c
00000040: 4e29 22be 25ed 7abd fd86 42be a113 66bd
00000050: d3fb d23e 8526 4ebf ac17 ffbd 263d 523d
00000060: 7247 1b3f 5a10 01be ae01 50be 4c41 013e
00000070: 27fc 513b 648a 2ebd 3365 a33e 6974 57bd
00000080: 575e 9dbb fa69 dbbd 2705 fb3d 816c 263e
00000090: 3089 afbc a885 c3be 70dd cfbd dc8a 05be
000000a0: 1261 4bbe d099 9ebe c4d5 1dbe f29c 5ebe
000000b0: 5b6b 3cbe 7779 023f 8f19 a9bd 8088 4dbe
000000c0: daea 143d f1c1 993d f417 c53c f7d4 c2bd
000000d0: f288 cabe b66d 8ebe 00a6 db3a b473 c03d
000000e0: 7235 36bd 165f e33c 1611 ddbd cf38 86be
000000f0: 1e89 e03e b082 5c3f 81fd 303f 2034 333f
00000100: acc2 113f cb65 ee3e 5f2a 4d3f 323b 543f
00000110: c8ca 0e3f cabc 0c3f 9780 373f 4fce 453f
00000120: 1234 163f 4719 233f 16d5 703f b496 3d3f
00000130: 8969 553f 2286 1e3f 4873 ed3e 183e 1f3f
00000140: e659 d53e 46d2 113f 9ac6 2d3f 60ff 153f
00000150: 2353 053f 97be 343f cde4 2c3f 5e9a 2c3f
00000160: 202f 143f 2932 0f3f 5697 003f 34ca 653f
00000170: 7d0f 2c3f bd80 463f 5105 493f ca57 1b3f
00000180: 69b5 1d3f 8016 263f 3d07 173f 7766 223f
00000190: 20bf 343f 5f7a 243f a2db 443f a691 4d3f
000001a0: f4fb 7d3f b63e d63e 0bfb 2b3f 615e 3e3f
000001b0: d68e 343f 292b 2a3f 6e69 513f e7bf 153f
000001c0: 0491 4f3f 5bde 2a3f ecbe 0e3f 6c88 2d3f
000001d0: d20f 1d3f 6d25 d83e 9970 183f 3d9e 0c3f
000001e0: 5e8f 50bc 9f2c 85bc d367 9e3b f98c 57bc
000001f0: 8f99 683c f195 c53c e7e1 843c e4e2 9a3a
00000200: cdb1 31bd 06bc 443d f671 423d f3a4 12bd
00000210: 9989 e83c 8cdc 333d c460 4c3c edf3 403d
00000220: 2801 3c3c 46d6 21bd 297a 8cbd 4110 c4bb
00000230: 0c1a 793c 8e6d 8b3d e324 13bd 5d99 df3b
00000240: 5f3b f63b cc41 1d3c 9191 c9bb eb90 853c
00000250: a972 653d c403 e6bc f469 97bd 17e2 003d
00000260: 8567 4e3d 109b ce3c 1c92 01bd aa85 6bbd
00000270: 12fa 043d 194c 7fbc b652 6bbd d572 473d
00000280: bfc3 02bc 0474 323d ae72 70bc 95e7 353d
00000290: 6f4e 403d ac6a 38bd b570 0c3d 7174 44bc
000002a0: 10ef 6d3d 0c60 11bc 30c7 16bc 5124 27bd
000002b0: ed92 e3b8 a462 c53b a6cd 06bb 8c02 1cbd
000002c0: c4d4 8e3c 378b 81bd 62d5 123d 0c61 29bb
000002d0: 7bbd b1be cda9 7abe a151 a9be 5047 33be
000002e0: 8ef5 dabe 9948 7e3e 14f2 36be 4f97 8bbe
000002f0: e09c 123f fe62 c23d 7769 adbd 8cb3 58bd
00000300: 344d 98bd db4e fbbd a1b4 5cbe a646 efbd
00000310: f1b3 5dbe a426 3dbe 3cc4 68be f1a4 2cbd
00000320: 92a1 e73e 086f e0be ec2f 38be 4f0f d23d
00000330: 1905 193f 34de 22be e45c 58be 67c6 e9bc
00000340: d634 b03d 8595 0abc caa8 473f a5cf e2bc
00000350: a654 0a3e 49f5 59be 1232 33bd 36e0 8a3e
00000360: 379d bbbd 5f7b c6be d4ff a9bd e522 5ebe
00000370: db6f 97bd b46a 9bbe 9018 4fbe acf0 2abe
00000380: f442 91bd 901b 0c3f 1ac1 0e3d 19f2 5fbe
00000390: 7582 bebd 694a 9d3d 878b 45bd 7f73 89be
000003a0: 6060 bfbd 0566 89be ab8a d6bd eee6 aa3c
000003b0: 91a6 25be f354 873c 6730 63be a695 74be

lstm_2/lstm_cell/bias f4 [240]
-0.16238083 1.1156213 -0.34369174 -0.23522438 0.46091413 -0.07346628 -0.2176103 1.3576412
-0.081215054 -0.14401092 -0.045161117 -0.13643292 -0.18624966 -0.17863326 1.1325291 -0.023711655
0.8124393 -0.34539065 -0.19303171 0.3854265 -0.1360233 -0.2861825 0.024297947 -0.15278727
0.36073637 0.0032002036 0.46656865 -0.028084295 1.2871206 1.1863829 0.7027959 0.5407986
0.083110586 -0.15427029 0.21254157 0.1434806 -0.30676606 0.13871661 -0.31468442 0.13333721
-0.39838144 0.4478321 0.91100234 0.437311 -0.059229292 0.39551598 -0.12625207 -0.3772381
-0.050372988 0.92367744 0.1839955 0.22325407 0.034332193 0.33523926 0.3719254 0.9702225
0.028936602 -0.15304822 -0.2793709 1.0400156 0.86864686 0.48832318 0.34766063 0.61704314
0.38935846 0.94886774 0.57604367 0.3425532 0.55388874 0.9040208 0.5182441 0.5410238
0.41453817 0.54243547 0.5516076 0.6486793 0.5206693 0.73668104 0.4755715 0.4359366
0.5284326 0.46796513 0.39929926 0.49958923 0.46097833 0.4857483 0.4718782 0.43611047
0.5310297 0.54081076 0.43121794 0.5204202 0.379806 0.4483004 0.44791302 0.3605495
0.69613 0.54741406 0.7905333 0.37556458 0.32862046 0.6057732 0.36267543 0.30842692
0.95575726 0.38554052 0.43637803 0.6085736 0.995021 0.4846112 0.34886792 0.44486296
1.0285983 0.40617844 0.4400241 0.5381026 0.38242868 0.8807675 0.5323734 0.5978942
0.070685394 -0.20125552 0.0743943 -0.01491309 0.15799214 0.15146217 0.124022976 -0.19425155
0.057612788 -0.11916886 -0.13961883 0.05713303 -0.12463116 0.006970266 -0.20246825 -0.035388563
-0.18366876 0.018853039 -0.011058755 0.16585304 0.05779822 0.021268029 0.15020555 0.07714194
-0.15197645 0.024074404 -0.17947228 -0.01927015 -0.20340233 0.18821874 -0.16786015 0.17228799
-0.1656992 -0.03170998 -0.15106429 0.13909696 -0.06815454 -0.17581087 0.008916138 -0.13862547
0.051310327 0.16850309 -0.2005952 -0.16469163 -0.14258344 0.17177884 0.07332847 -0.05756267
-0.19473019 0.1965655 0.15272674 -0.011940028 0.2010357 -0.14664407 -0.17830758 0.21242669
0.0066592437 -0.0800891 0.0270435 0.17845026 -0.17720066 1.064636 -0.35176453 -0.24820755
0.3655506 -0.07142267 -0.23238167 1.3637193 -0.057859473 -0.17917192 -0.057493616 -0.14978294
-0.19702083 -0.2054407 1.0187547 -0.08430512 0.80219936 -0.35430834 -0.21114746 0.329947
-0.15385304 -0.29440734 0.0076828385 -0.13958399 0.38489008 -0.028237356 0.4751217 -0.033365738
1.2602192 1.1496958 0.63338166 0.5292955 0.099147104 -0.14774776 0.20404144 0.11947768
-0.34095007 0.095242076 -0.33002743 0.053684108 -0.3887973 0.43858823 0.81307435 0.346479
-0.08898745 0.35550776 -0.13076289 -0.37192377 -0.06638283 0.892352 0.15584393 0.15922964
-0.029215064 0.26560265 0.38447303 1.0088104 0.027411163 -0.18743663 -0.2846937 1.0846955
00000000: 2947 26be aecc 8e3f 5df8 afbe a9de 70be
00000010: f0fc eb3e 7d75 96bd 3cd5 5ebe 30c7 ad3f
00000020: 1454 a6bd 9977 13be ddfa 38bd 12b5 0bbe
00000030: 3bb8 3ebe a3eb 36be b7f6 903f f23e c2bc
00000040: 06fc 4f3f 0bd7 b0be 1baa 45be 9f56 c53e
00000050: b149 0bbe 8386 92be 7d0c c73c 4474 1cbe
00000060: 70b2 b83e 82ba 513b 16e2 ee3e 0911 e6bc
00000070: 5ec0 a43f 65db 973f 6fea 333f c771 0a3f
00000080: e235 aa3d 08f9 1dbe 7fa4 593e 94ec 123e
00000090: 7110 9dbe ba0b 0e3e 511e a1be 8d89 083e
000000a0: a7f8 cbbe 404a e53e 7337 693f 3ae7 df3e
000000b0: 6a9a 72bd 1281 ca3e 3948 01be 5a25 c1be
000000c0: e853 4ebd 2076 6c3f 5169 3c3e b79c 643e
000000d0: ea9f 0c3d 7ba4 ab3e 026d be3e 8060 783f
000000e0: 740c ed3c acb8 1cbe b409 8fbe 3b1f 853f
000000f0: a45f 5e3f 7f05 fa3e 9300 b23e 8af6 1d3f
00000100: fe59 c73e ffe8 723f 9977 133f 2263 af3e
00000110: a7cb 0d3f e86d 673f a5ab 043f 8980 0a3f
00000120: 593e d43e 0ddd 0a3f 2836 0d3f d90f 263f
00000130: 954a 053f 2197 3c3f 1c7e f33e 1533 df3e
00000140: 5c47 073f 2099 ef3e f470 cc3e 29ca ff3e
00000150: 5a05 ec3e 00b4 f83e 059a f13e df49 df3e
00000160: 90f1 073f 9372 0a3f 99c8 dc3e 423a 053f
00000170: ef75 c23e a187 e53e db54 e53e f299 b83e
00000180: 9335 323f 5423 0c3f 6460 4a3f 004a c03e
00000190: f140 a83e f413 1b3f 98b0 b93e 22ea 9d3e
000001a0: 82ac 743f 9165 c53e f16c df3e 7bcb 1b3f
000001b0: b2b9 7e3f f61e f83e d19e b23e 14c5 e33e
000001c0: 1ca9 833f 9ff6 cf3e d74a e13e 18c1 093f
000001d0: b1cd c33e fb79 613f a049 083f 980f 193f
000001e0: 81c3 903d ed15 4ebe 0a5c 983d 0856 74bc
000001f0: b1c8 213e e618 1b3e c2ff fd3d e1e9 46be
00000200: 63fb 6b3d ce0e f4bd 3df8 0ebe 5304 6a3d
00000210: 9f3e ffbd d466 e43b d653 4fbe 99f3 10bd
00000220: aa13 3cbe b071 9a3c c82f 35bc 61d5 293e
00000230: d4bd 6c3d 4a3a ae3c 7ccf 193e 98fc 9d3d
00000240: b79f 1bbe af37 c53c 95c7 37be 6fdc 9dbc
00000250: b348 50be 6abc 403e 88e3 2bbe 436c 303e
00000260: 0dad 29be 53e2 01bd 99b0 1abe 6f6f 0e3e
00000270: 9c94 8bbd c407 34be fe14 123c d6f3 0dbe
00000280: c72a 523d 138c 2c3e d468 4dbe eca4 28be
00000290: 6501 12be cbe6 2f3e 3d2d 963d d6c6 6bbd
000002a0: 5a67 47be 7748 493e 6664 1c3e 1ba0 43bc
000002b0: 4ddc 4d3e dd29 16be 4396 36be 6286 593e
000002c0: c935 da3b c105 a4bd 558a dd3c aabb 363e
000002d0: 1774 35be fe45 883f 7b1a b4be 1f2a 7ebe
000002e0: 7329 bb3e 0c46 92bd 76f5 6dbe 5b8e ae3f
000002f0: 0efe 6cbd d878 37be 6d7e 6bbd b360 19be
00000300: d4bf 49be 0c5f 52be 8e66 823f 2aa8 acbd
00000310: f05c 4d3f e767 b5be 0a37 58be d0ee a83e
00000320: a78b 1dbe 8fbc 96be 52c0 fb3b 1bef 0ebe
00000330: 5010 c53e 0752 e7bc 2743 f33e 83aa 08bd
00000340: dd4e a13f 3b29 933f 4d25 223f e97f 073f
00000350: a30d cb3d 304b 17be 3df0 503e b7b0 f43d
00000360: 0291 aebe 470e c33d 5bf9 a8be dee3 5b3d
00000370: 7110 c7be a38e e03e a425 503f b265 b13e
00000380: 0d3f b6bd 1d05 b63e b5e6 05be cb6c bebe
00000390: b9f3 87bd 2e71 643f 8d95 1f3e 180d 233e
000003a0: 6e54 efbc 12fd 873e a6d9 c43e b320 813f
000003b0: 608d e03c 63ef 3fbe 5fc3 91be 4dd7 8a3f

std.constant5 f4 [1, 60]
-0.07520547 0.078622 -0.05203389 0.04976988 -0.08428068 -0.057919044 0.06890533 -0.06717503
0.029057752 0.071238324 -0.052608334 0.04797474 0.0821861 -0.034296326 0.035654176 0.05554803
-0.06001523 -0.055049878 -0.054000214 -0.04095114 -0.027703295 -0.09620906 -0.047313888 0.037367646
-0.06455515 0.023636833 -0.045712106 0.06772614 0.074207485 -0.07156228 -0.09063223 -0.08078917
0.0606163 0.09043227 0.065103956 -0.03673128 -0.05259958 0.042058397 0.02538761 -0.045913465
0.07405389 0.04242143 -0.092900366 -0.07930472 -0.0480961 0.04815104 0.06336402 -0.06038405
-0.04794691 -0.04108647 -0.08223587 0.048601232 0.04488928 0.04248974 -0.07480445 0.050489306
0.119514175 -0.059438262 0.054175444 -0.069288865
00000000: 5305 9abd 9204 a13d 7d21 55bd 80db 4b3d
00000010: 599b acbd 853c 6dbd 3d1e 8d3d 1093 89bd
00000020: 860a ee3c 66e5 913d d67b 57bd 2981 443d
00000030: 3051 a83d 4e7a 0cbd 1d0a 123d 5586 633d
00000040: 88d2 75bd fb7b 61bd 542f 5dbd 62bc 27bd
00000050: 05f2 e2bc 4109 c5bd 35cc 41bd d10e 193d
00000060: 7e35 84bd 08a2 c13c 9e3c 3bbd 01b4 8a3d
00000070: 18fa 973d 3f8f 92bd 649d b9bd cb74 a5bd
00000080: cc48 783d 8e34 b93d 3955 853d 8a73 16bd
00000090: a872 57bd 6d45 2c3d adf9 cf3c c20f 3cbd
000000a0: 91a9 973d 18c2 2d3d 8c42 bebd 836a a2bd
000000b0: 6b00 45bd 063a 453d ffc4 813d 4455 77bd
000000c0: fb63 44bd 494a 28bd 486b a8bd 1612 473d
000000d0: d2dd 373d b909 2e3d 1333 99bd e0cd 4e3d
000000e0: d9c3 f43d 8975 73bd 12e7 5d3d 52e7 8dbd

lstm_2/lstm_cell/bias1 f4 [240]
-0.16238083 1.1156213 -0.34369174 -0.23522438 0.46091413 -0.07346628 -0.2176103 1.3576412
-0.081215054 -0.14401092 -0.045161117 -0.13643292 -0.18624966 -0.17863326 1.1325291 -0.023711655
0.8124393 -0.34539065 -0.19303171 0.3854265 -0.1360233 -0.2861825 0.024297947 -0.15278727
0.36073637 0.0032002036 0.46656865 -0.028084295 1.2871206 1.1863829 0.7027959 0.5407986
0.083110586 -0.15427029 0.21254157 0.1434806 -0.30676606 0.13871661 -0.31468442 0.13333721
-0.39838144 0.4478321 0.91100234 0.437311 -0.059229292 0.39551598 -0.12625207 -0.3772381
-0.050372988 0.92367744 0.1839955 0.22325407 0.034332193 0.33523926 0.3719254 0.9702225
0.028936602 -0.15304822 -0.2793709 1.0400156 0.86864686 0.48832318 0.34766063 0.61704314
0.38935846 0.94886774 0.57604367 0.3425532 0.55388874 0.9040208 0.5182441 0.5410238
0.41453817 0.54243547 0.5516076 0.6486793 0.5206693 0.73668104 0.4755715 0.4359366
0.5284326 0.46796513 0.39929926 0.49958923 0.46097833 0.4857483 0.4718782 0.43611047
0.5310297 0.54081076 0.43121794 0.5204202 0.379806 0.4483004 0.44791302 0.3605495
0.69613 0.54741406 0.7905333 0.37556458 0.32862046 0.6057732 0.36267543 0.30842692
0.95575726 0.38554052 0.43637803 0.6085736 0.995021 0.4846112 0.34886792 0.44486296
1.0285983 0.40617844 0.4400241 0.5381026 0.38242868 0.8807675 0.5323734 0.5978942
0.070685394 -0.20125552 0.0743943 -0.01491309 0.15799214 0.15146217 0.124022976 -0.19425155
0.057612788 -0.11916886 -0.13961883 0.05713303 -0.12463116 0.006970266 -0.20246825 -0.035388563
-0.18366876 0.018853039 -0.011058755 0.16585304 0.05779822 0.021268029 0.15020555 0.07714194
-0.15197645 0.024074404 -0.17947228 -0.01927015 -0.20340233 0.18821874 -0.16786015 0.17228799
-0.1656992 -0.03170998 -0.15106429 0.13909696 -0.06815454 -0.17581087 0.008916138 -0.13862547
0.051310327 0.16850309 -0.2005952 -0.16469163 -0.14258344 0.17177884 0.07332847 -0.05756267
-0.19473019 0.1965655 0.15272674 -0.011940028 0.2010357 -0.14664407 -0.17830758 0.21242669
0.0066592437 -0.0800891 0.0270435 0.17845026 -0.17720066 1.064636 -0.35176453 -0.24820755
0.3655506 -0.07142267 -0.23238167 1.3637193 -0.057859473 -0.17917192 -0.057493616 -0.14978294
-0.19702083 -0.2054407 1.0187547 -0.08430512 0.80219936 -0.35430834 -0.21114746 0.329947
-0.15385304 -0.29440734 0.0076828385 -0.13958399 0.38489008 -0.028237356 0.4751217 -0.033365738
1.2602192 1.1496958 0.63338166 0.5292955 0.099147104 -0.14774776 0.20404144 0.11947768
-0.34095007 0.095242076 -0.33002743 0.053684108 -0.3887973 0.43858823 0.81307435 0.346479
-0.08898745 0.35550776 -0.13076289 -0.37192377 -0.06638283 0.892352 0.15584393 0.15922964
-0.029215064 0.26560265 0.38447303 1.0088104 0.027411163 -0.18743663 -0.2846937 1.0846955
00000000: 2947 26be aecc 8e3f 5df8 afbe a9de 70be
00000010: f0fc eb3e 7d75 96bd 3cd5 5ebe 30c7 ad3f
00000020: 1454 a6bd 9977 13be ddfa 38bd 12b5 0bbe
00000030: 3bb8 3ebe a3eb 36be b7f6 903f f23e c2bc
00000040: 06fc 4f3f 0bd7 b0be 1baa 45be 9f56 c53e
00000050: b149 0bbe 8386 92be 7d0c c73c 4474 1cbe
00000060: 70b2 b83e 82ba 513b 16e2 ee3e 0911 e6bc
00000070: 5ec0 a43f 65db 973f 6fea 333f c771 0a3f
00000080: e235 aa3d 08f9 1dbe 7fa4 593e 94ec 123e
00000090: 7110 9dbe ba0b 0e3e 511e a1be 8d89 083e
000000a0: a7f8 cbbe 404a e53e 7337 693f 3ae7 df3e
000000b0: 6a9a 72bd 1281 ca3e 3948 01be 5a25 c1be
000000c0: e853 4ebd 2076 6c3f 5169 3c3e b79c 643e
000000d0: ea9f 0c3d 7ba4 ab3e 026d be3e 8060 783f
000000e0: 740c ed3c acb8 1cbe b409 8fbe 3b1f 853f
000000f0: a45f 5e3f 7f05 fa3e 9300 b23e 8af6 1d3f
00000100: fe59 c73e ffe8 723f 9977 133f 2263 af3e
00000110: a7cb 0d3f e86d 673f a5ab 043f 8980 0a3f
00000120: 593e d43e 0ddd 0a3f 2836 0d3f d90f 263f
00000130: 954a 053f 2197 3c3f 1c7e f33e 1533 df3e
00000140: 5c47 073f 2099 ef3e f470 cc3e 29ca ff3e
00000150: 5a05 ec3e 00b4 f83e 059a f13e df49 df3e
00000160: 90f1 073f 9372 0a3f 99c8 dc3e 423a 053f
00000170: ef75 c23e a187 e53e db54 e53e f299 b83e
00000180: 9335 323f 5423 0c3f 6460 4a3f 004a c03e
00000190: f140 a83e f413 1b3f 98b0 b93e 22ea 9d3e
000001a0: 82ac 743f 9165 c53e f16c df3e 7bcb 1b3f
000001b0: b2b9 7e3f f61e f83e d19e b23e 14c5 e33e
000001c0: 1ca9 833f 9ff6 cf3e d74a e13e 18c1 093f
000001d0: b1cd c33e fb79 613f a049 083f 980f 193f
000001e0: 81c3 903d ed15 4ebe 0a5c 983d 0856 74bc
000001f0: b1c8 213e e618 1b3e c2ff fd3d e1e9 46be
00000200: 63fb 6b3d ce0e f4bd 3df8 0ebe 5304 6a3d
00000210: 9f3e ffbd d466 e43b d653 4fbe 99f3 10bd
00000220: aa13 3cbe b071 9a3c c82f 35bc 61d5 293e
00000230: d4bd 6c3d 4a3a ae3c 7ccf 193e 98fc 9d3d
00000240: b79f 1bbe af37 c53c 95c7 37be 6fdc 9dbc
00000250: b348 50be 6abc 403e 88e3 2bbe 436c 303e
00000260: 0dad 29be 53e2 01bd 99b0 1abe 6f6f 0e3e
00000270: 9c94 8bbd c407 34be fe14 123c d6f3 0dbe
00000280: c72a 523d 138c 2c3e d468 4dbe eca4 28be
00000290: 6501 12be cbe6 2f3e 3d2d 963d d6c6 6bbd
000002a0: 5a67 47be 7748 493e 6664 1c3e 1ba0 43bc
000002b0: 4ddc 4d3e dd29 16be 4396 36be 6286 593e
000002c0: c935 da3b c105 a4bd 558a dd3c aabb 363e
000002d0: 1774 35be fe45 883f 7b1a b4be 1f2a 7ebe
000002e0: 7329 bb3e 0c46 92bd 76f5 6dbe 5b8e ae3f
000002f0: 0efe 6cbd d878 37be 6d7e 6bbd b360 19be
00000300: d4bf 49be 0c5f 52be 8e66 823f 2aa8 acbd
00000310: f05c 4d3f e767 b5be 0a37 58be d0ee a83e
00000320: a78b 1dbe 8fbc 96be 52c0 fb3b 1bef 0ebe
00000330: 5010 c53e 0752 e7bc 2743 f33e 83aa 08bd
00000340: dd4e a13f 3b29 933f 4d25 223f e97f 073f
00000350: a30d cb3d 304b 17be 3df0 503e b7b0 f43d
00000360: 0291 aebe 470e c33d 5bf9 a8be dee3 5b3d
00000370: 7110 c7be a38e e03e a425 503f b265 b13e
00000380: 0d3f b6bd 1d05 b63e b5e6 05be cb6c bebe
00000390: b9f3 87bd 2e71 643f 8d95 1f3e 180d 233e
000003a0: 6e54 efbc 12fd 873e a6d9 c43e b320 813f
000003b0: 608d e03c 63ef 3fbe 5fc3 91be 4dd7 8a3f

std.constant13 i1 [240, 60] scale=0.013406208 zero_point=0
-0.25471795 -0.08043724 -0.1742807 0.30834278 0.13406208 -0.36196762 0.25471795 0.05362483
0.24131174 0.32174897 -0.22790553 0.10724966 -0.10724966 0.28153035 -0.06703104 0.26812416
-0.10724966 -0.25471795 0.16087449 0.04021862 -0.20109312 0.13406208 -0.28153035 0.1876869
-0.16087449 -0.13406208 -0.1876869 -0.1876869 -0.08043724 -0.12065587 0.05362483 0.12065587
-0.13406208 -0.14746828 -0.05362483 0.06703104 -0.1876869 0.12065587 0.20109312 -0.09384345
0.013406208 -0.04021862 0.0 -0.05362483 0.36196762 0.13406208 0.1876869 0.05362483
0.1876869 0.20109312 -0.24131174 0.013406208 -0.21449932 -0.14746828 -0.06703104 0.05362483
0.1876869 0.26812416 0.20109312 0.0 1.0590904 0.58987314 0.45581105 -0.81777865
-0.24131174 1.1797463 -0.41559243 0.64349794 -0.7373414 -0.89821595 0.29493657 -0.6837166
0.64349794 -0.6971228 0.88480973 -1.0993091 0.5094359 0.89821595 -0.46921727 -0.30834278
0.89821595 -0.7373414 0.1742807 -0.7507476 0.14746828 0.81777865 0.46921727 0.65690416
0.8043725 -0.8043725 0.25471795 -0.3485614 0.04021862 0.54965454 0.026812416 -0.1876869
0.6971228 -0.16087449 -0.8043725 0.14746828 -0.4826235 -0.04021862 0.4826235 0.41559243
-1.2065587 -0.58987314 -0.54965454 0.1876869 -0.965247 -0.42899865 0.77756006 -0.95184076
1.3674332 0.04021862 0.05362483 -0.25471795 -0.7373414 -0.89821595 -0.5764669 -0.7909663
-0.13406208 -0.29493657 0.026812416 0.08043724 0.05362483 -0.3485614 0.026812416 -0.28153035
0.06703104 0.1876869 -0.13406208 0.13406208 -0.06703104 -0.013406208 -0.3485614 0.1876869
-0.28153035 -0.1742807 0.09384345 0.16087449 0.013406208 0.013406208 -0.013406208 0.14746828
-0.013406208 -0.12065587 -0.1742807 -0.06703104 -0.32174897 0.3753738 -0.14746828 0.14746828
-0.08043724 -0.013406208 -0.04021862 0.16087449 -0.026812416 -0.13406208 0.026812416 -0.013406208
0.05362483 0.13406208 -0.16087449 -0.32174897 0.20109312 0.12065587 0.12065587 -0.026812416
0.3351552 0.16087449 -0.13406208 0.09384345 -0.29493657 0.013406208 -0.06703104 0.06703104
0.08043724 0.21449932 -0.04021862 0.41559243 -0.14746828 -0.14746828 -0.16087449 0.29493657
0.10724966 -0.13406208 -0.013406208 -0.12065587 0.1742807 0.10724966 0.0 0.1876869
-0.06703104 0.3485614 -0.36196762 0.3351552 -0.06703104 -0.28153035 0.3351552 -0.026812416
-0.44240487 0.12065587 -0.1742807 0.1742807 0.026812416 -0.25471795 0.0 -0.24131174
0.10724966 0.3485614 -0.10724966 0.06703104 -0.013406208 -0.24131174 0.04021862 0.026812416
-0.09384345 0.28153035 0.12065587 0.08043724 0.10724966 -0.12065587 -0.22790553 -0.21449932
0.25471795 -0.09384345 0.04021862 0.08043724 0.10724966 0.08043724 -0.38878003 0.13406208
-0.30834278 -0.04021862 0.10724966 -0.026812416 0.20109312 0.16087449 0.09384345 0.29493657
0.3753738 0.28153035 0.10724966 -0.38878003 0.46921727 0.40218624 0.14746828 0.36196762
-0.24131174 -0.14746828 -0.22790553 0.0 -0.20109312 -0.3485614 0.3485614 -0.54965454
00000000: edfa f317 0ae5 1304 1218 ef08 f815 fb14
00000010: f8ed 0c03 f10a eb0e f4f6 f2f2 faf7 0409
00000020: f6f5 fc05 f209 0ff9 01fd 00fc 1b0a 0e04
00000030: 0e0f ee01 f0f5 fb04 0e14 0f00 4f2c 22c3
00000040: ee58 e130 c9bd 16cd 30cc 42ae 2643 dde9
00000050: 43c9 0dc8 0b3d 2331 3cc4 13e6 0329 02f2
00000060: 34f4 c40b dcfd 241f a6d4 d70e b8e0 3ab9
00000070: 6603 04ed c9bd d5c5 f6ea 0206 04e6 02eb
00000080: 050e f60a fbff e60e ebf3 070c 0101 ff0b
00000090: fff7 f3fb e81c f50b faff fd0c fef6 02ff
000000a0: 040a f4e8 0f09 09fe 190c f607 ea01 fb05
000000b0: 0610 fd1f f5f5 f416 08f6 fff7 0d08 000e
000000c0: fb1a e519 fbeb 19fe df09 f30d 02ed 00ee
000000d0: 081a f805 ffee 0302 f915 0906 08f7 eff0
000000e0: 13f9 0306 0806 e30a e9fd 08fe 0f0c 0716
000000f0: 1c15 08e3 231e 0b1b eef5 ef00 f1e6 1ad7

std.constant14 f4 [240, 1]
-0.31712192 0.91442555 -0.54937327 -0.4489779 0.41591096 -0.35745582 -0.43674 1.0217437
-0.30779803 -0.24526969 0.036081478 -0.25853884 -0.32622898 -0.25552672 1.1319387 -0.26800677
0.8354711 -0.42308608 -0.43430752 0.25488946 -0.47555715 -0.358215 -0.17062892 -0.30029607
0.16555713 -0.12304685 0.3581589 -0.29655653 1.1907853 0.87528485 0.7384564 0.6762144
-0.058694713 -0.45127425 0.2415721 0.061937626 -0.49356976 -0.18863614 -0.51798934 0.04184599
-0.37975138 0.39369026 0.8174288 0.43635452 -0.24827737 0.39039117 -0.34275156 -0.46059486
-0.38382655 1.0310297 -0.116987444 0.07067512 -0.0029621148 0.32016218 0.38473997 0.8404292
-0.019231549 -0.11925883 -0.32777762 0.97337776 -0.29226276 -0.3294789 -0.5920351 -0.45967615
-0.48238385 -0.20765424 -0.13502769 -0.63280874 -0.2671101 -0.22241125 -0.4932821 -0.3944759
-0.3409102 -0.47588205 -0.10351437 -0.48930374 -0.36869493 -0.35039777 -0.5072041 -0.6276662
-0.46396005 -0.52605355 -0.749526 -0.51424545 -0.3947874 -0.3708611 -0.6118934 -0.5190557
-0.45287648 -0.16856197 -0.5228934 -0.44806924 -0.75853 -0.38508904 -0.71098405 -0.5523434
-0.10132369 -0.9208353 -0.35438943 -0.5485044 -0.43071714 -0.49303615 -0.32674915 -0.41264293
-0.21648803 -0.34566352 -0.27385426 -0.33217606 -0.37267753 -0.50421256 -0.73364544 -0.44581857
-0.1944289 -0.56008005 -0.5651814 -0.6137948 -0.50900614 -0.19806015 -0.47199997 -0.32754737
0.057275005 0.29126805 -0.09562386 -0.02558879 -0.25818253 -0.033025764 -0.16449513 0.32520023
-0.17855276 0.09351685 0.20902415 -0.11850994 0.1785863 -0.031648144 0.29232225 0.076818414
0.27264133 0.06643245 -0.019901574 -0.24055229 -0.10856988 -0.07934987 -0.25758216 -0.14551252
0.23258832 -0.047115117 0.24175838 0.04652869 0.3052133 -0.30043694 0.29757956 -0.26902512
0.21043552 0.12237354 0.22155328 -0.22354887 0.116519466 0.26842052 -0.03851802 0.2196439
-0.060636997 -0.24195689 0.30255127 0.25044754 -0.13885163 -0.25792918 -0.13008386 0.13186926
-0.09441566 -0.2828071 -0.25407305 0.0074239415 0.09053806 0.25221413 0.26018578 -0.29441762
0.0028228688 0.0043587303 -0.100337245 -0.29906568 -0.32401294 0.95341444 -0.47515067 -0.4196032
0.7268549 -0.21697266 -0.0020210345 1.015876 -0.07152155 -0.42776242 0.13847773 -0.1506761
0.10295897 -0.50335836 1.1246687 -0.15491605 0.97225636 -0.22986259 -0.5453196 0.5578289
-0.3669767 -0.38082185 -0.356742 -0.043564923 0.52752703 -0.035468705 0.5255665 -0.27829888
1.1386034 1.3601726 0.8244796 0.7685753 0.09607972 -0.39282978 0.1132338 0.0839651
-0.28969374 -0.4916936 -0.20228195 0.38465965 -0.2322291 0.24314657 0.9959666 0.57972366
-0.3862585 0.37431824 -0.079121225 -0.27444723 -0.33721876 1.0013208 -0.117873065 0.030885536
-0.370345 0.4533664 0.17392449 0.84226334 -0.20606963 -0.3954551 -0.4440556 1.2162588
00000000: ce5d a2be cb17 6a3f baa3 0cbf 6ee0 e5be
00000010: 48f2 d43e 7304 b7be 639c dfbe 7fc8 823f
00000020: b497 9dbe fa27 7bbe 2cca 133d 345f 84be
00000030: 7c07 a7be 66d4 82be 5ee3 903f 2f38 89be
00000040: 6fe1 553f bd9e d8be 8e5d debe df80 823e
00000050: 3a7c f3be f567 b7be 59b9 2ebe 68c0 99be
00000060: cf87 293e fdff fbbd 9a60 b73e 42d6 97be
00000070: a76b 983f ab12 603f 7b0b 3d3f 631c 2d3f
00000080: de69 70bd 6b0d e7be ad5e 773e 4fb2 7d3d
00000090: 2db5 fcbe d529 41be f39a 04bf b366 2b3d
000000a0: c66e c2be c591 c93e 0443 513f dc69 df3e
000000b0: 6c3c 7ebe 5ae1 c73e 227d afbe 17d3 ebbe
000000c0: ea84 c4be c8f8 833f 1d97 efbd 1ebe 903d
000000d0: 0a20 42bb 4cec a33e a3fc c43e 5e26 573f
000000e0: 7b8b 9dbc f93d f4bd 78d2 a7be 492f 793f
000000f0: 77a3 95be 75b1 a8be 9d8f 17bf ac5a ebbe
00000100: 04fb f6be 50a3 54be b344 0abe c1ff 21bf
00000110: a8c2 88be c6bf 63be 798f fcbe bff8 c9be
00000120: c88b aebe d0a6 f3be 58ff d3bd 0586 fabe
00000130: 95c5 bcbe 5667 b3be 21d8 01bf bbae 20bf
00000140: 2c8c edbe 72ab 06bf f0e0 3fbf 97a5 03bf
00000150: 9321 cabe 82e1 bdbe 0ca5 1cbf d6e0 04bf
00000160: 6ddf e7be 829b 2cbe 58dc 05bf 5569 e5be
00000170: 062f 42bf 642a c5be 0d03 36bf 6166 0dbf
00000180: cb82 cfbd ddbb 6bbf 8872 b5be c96a 0cbf
00000190: f586 dcbe 3c6f fcbe aa4b a7be ef45 d3be
000001a0: 0aaf 5dbe cffa b0be a036 8cbe fb12 aabe
000001b0: 97cf bebe 1314 01bf 30d0 3bbf 5542 e4be
000001c0: 5f18 47be 6861 0fbf baaf 10bf a821 1dbf
000001d0: 3a4e 02bf 48d0 4abe fba9 f1be 4ab4 a7be
000001e0: 3299 6a3d 1621 953e 71d6 c3bd 959f d1bc
000001f0: 8030 84be 0646 07bd 6971 28be a580 a63e
00000200: 89d6 36be c385 bf3d 6d0a 563e 57b5 f2bd
00000210: 54df 363e 7ca1 01bd 43ab 953e f952 9d3d
00000220: a597 8b3e bd0d 883d a008 a3bc 5753 76be
00000230: e359 debd 2f82 a2bd cfe1 83be 3c01 15be
00000240: a22b 6e3e c8fb 40bd 828f 773e de94 3e3d
00000250: eb44 9c3e dfd2 99be 595c 983e a9bd 89be
00000260: 697c 573e fb9e fa3d ddde 623e ffe9 64be
00000270: c2a1 ee3d 6a6e 893e 12c5 1dbd 55ea 603e
00000280: 805e 78bd 8cc3 77be 00e8 9a3e a93a 803e
00000290: 1f2f 0ebe 4b0f 84be b434 05be bc08 073e
000002a0: ff5c c1bd 18cc 90be dd15 82be 8944 f33b
000002b0: 056c b93d 3622 813e 1237 853e e8bd 96be
000002c0: e1ff 383b aed3 8e3b 9d7d cdbd 231f 99be
000002d0: 06e5 a5be f812 743f f346 f3be 3bd6 d6be
000002e0: 2a13 3a3f 152e 5ebe 5573 04bb 3a08 823f
000002f0: e479 92bd ad03 dbbe 1bcd 0d3e d64a 1abe
00000300: 27dc d23d 18dc 00bf 25f5 8f3f 50a2 1ebe
00000310: cbe5 783f 1961 6bbe 119a 0bbf e0cd 0e3f
00000320: 5fe4 bbbe 15fb c2be e3a6 b6be 2271 32bd
00000330: 030c 073f a247 11bd 878b 063f 317d 8ebe
00000340: c2bd 913f 231a ae3f 1811 533f 5ac1 443f
00000350: 72c5 c43d fc20 c9be 1fe7 e73d e5f5 ab3d
00000360: bd52 94be 43bf fbbe 0023 4fbe 1cf2 c43e
00000370: 77cd 6dbe 6afb 783e abf7 7e3f c568 143f
00000380: adc3 c5be a4a6 bf3e 4f0a a2bd 5984 8cbe
00000390: f0a7 acbe 482b 803f 6f67 f1bd aa03 fd3c
000003a0: dc9d bdbe a41f e83e 4319 323e 929e 573f
000003b0: eb03 53be 1779 cabe 415b e3be 5eae 9b3f

lstm_3/lstm_cell_1/bias1 f4 [240]
-0.35672456 -0.16718799 -0.3224706 -0.22199297 -0.4488259 0.19492655 -0.17186826 -0.25188074
0.6532129 -0.0021151695 0.0036151102 -0.0467513 -0.07635462 0.00047435384 -0.18519449 0.009292158
-0.15836069 -0.061261315 -0.18996806 -0.056171063 0.41207752 -0.80527526 -0.12455687 0.051327847
0.6065589 -0.12603894 -0.20313141 0.12622565 0.0032041164 -0.04261245 0.31913146 -0.05260125
-0.004802506 -0.10713573 0.12256842 0.16252328 -0.02142772 -0.3818791 -0.10149658 -0.13041252
-0.19861248 -0.30976725 -0.15413576 -0.21739557 -0.18400328 0.5096659 -0.08256828 -0.20071602
0.036356784 0.075076945 0.024059273 -0.09513276 -0.39557606 -0.27818078 0.0016757846 0.093970686
-0.044484563 0.027755301 -0.107942745 -0.26215217 0.43854612 0.86136913 0.69136816 0.7000141
0.5693767 0.46562037 0.8014278 0.82902825 0.5577817 0.5497557 0.7168059 0.77267927
0.58673203 0.63710445 0.94075143 0.7405808 0.8336416 0.6192342 0.46377015 0.6220412
0.4167015 0.56961477 0.67881167 0.58592796 0.5207998 0.7060332 0.6753662 0.67423046
0.5788441 0.55935913 0.5023092 0.8976166 0.67211133 0.7754019 0.7852374 0.6068083
0.61604935 0.6487808 0.5899542 0.634376 0.70604134 0.64249223 0.76897633 0.80300367
0.99212575 0.4184472 0.67179936 0.7436276 0.7053045 0.6647211 0.818015 0.58495945
0.8108065 0.6674554 0.55760074 0.6778629 0.61352265 0.42216054 0.5954681 0.5492895
-0.012729494 -0.016256629 0.004834154 -0.013156169 0.0141967675 0.02411935 0.016221 0.0011816886
-0.043382455 0.048030876 0.047471963 -0.03580184 0.028385924 0.0439115 0.012474243 0.047107626
0.011474885 -0.039510988 -0.06859238 -0.005983383 0.015203964 0.06808005 -0.03592385 0.0068237022
0.007514402 0.009598207 -0.006151386 0.016304454 0.05601755 -0.028077967 -0.07393256 0.031465616
0.050391693 0.025220424 -0.03163348 -0.05750052 0.032465048 -0.015582108 -0.057451926 0.048693497
-0.00798124 0.043567672 -0.014675779 0.044410307 0.0469498 -0.045023605 0.034287173 -0.011990652
0.058089316 -0.008872997 -0.009202763 -0.04080612 -0.000108515706 0.006023722 -0.0020569353 -0.038088366
0.017435439 -0.06325381 0.03584803 -0.0025845198 -0.34714875 -0.24478836 -0.3307009 -0.17507672
-0.42765468 0.24832381 -0.17865783 -0.27263877 0.5727062 0.094915375 -0.084673814 -0.052905604
-0.074366 -0.122709 -0.2155328 -0.11683397 -0.21650673 -0.18471771 -0.22731107 -0.042149488
0.45240456 -0.4383471 -0.1798703 0.10256826 0.59773403 -0.15905076 -0.21129185 -0.028536988
0.08603828 -0.0084585 0.77991927 -0.027686903 0.13508853 -0.21284975 -0.043748923 0.27124184
-0.09160846 -0.38766 -0.083007485 -0.21692999 -0.073943816 -0.30354846 -0.20224214 -0.16693372
-0.070928484 0.5472956 0.034852125 -0.21869697 -0.093022265 0.07680208 -0.048228767 -0.2684593
-0.09344554 -0.26835647 -0.104756676 0.020862069 -0.16176821 0.01652 -0.22186433 -0.23885211
00000000: 9aa4 b6be 5433 2bbe de1a a5be 2052 63be
00000010: 82cc e5be d39a 473e 3cfe 2fbe 83f6 80be
00000020: f638 273f a89e 0abb 7ceb 6c3b 4b7e 3fbd
00000030: d05f 9cbd b2b2 f839 a0a3 3dbe 233e 183c
00000040: 4e29 22be 25ed 7abd fd86 42be a113 66bd
00000050: d3fb d23e 8526 4ebf ac17 ffbd 263d 523d
00000060: 7247 1b3f 5a10 01be ae01 50be 4c41 013e
00000070: 27fc 513b 648a 2ebd 3365 a33e 6974 57bd
00000080: 575e 9dbb fa69 dbbd 2705 fb3d 816c 263e
00000090: 3089 afbc a885 c3be 70dd cfbd dc8a 05be
000000a0: 1261 4bbe d099 9ebe c4d5 1dbe f29c 5ebe
000000b0: 5b6b 3cbe 7779 023f 8f19 a9bd 8088 4dbe
000000c0: daea 143d f1c1 993d f417 c53c f7d4 c2bd
000000d0: f288 cabe b66d 8ebe 00a6 db3a b473 c03d
000000e0: 7235 36bd 165f e33c 1611 ddbd cf38 86be
000000f0: 1e89 e03e b082 5c3f 81fd 303f 2034 333f
00000100: acc2 113f cb65 ee3e 5f2a 4d3f 323b 543f
00000110: c8ca 0e3f cabc 0c3f 9780 373f 4fce 453f
00000120: 1234 163f 4719 233f 16d5 703f b496 3d3f
00000130: 8969 553f 2286 1e3f 4873 ed3e 183e 1f3f
00000140: e659 d53e 46d2 113f 9ac6 2d3f 60ff 153f
00000150: 2353 053f 97be 343f cde4 2c3f 5e9a 2c3f
00000160: 202f 143f 2932 0f3f 5697 003f 34ca 653f
00000170: 7d0f 2c3f bd80 463f 5105 493f ca57 1b3f
00000180: 69b5 1d3f 8016 263f 3d07 173f 7766 223f
00000190: 20bf 343f 5f7a 243f a2db 443f a691 4d3f
000001a0: f4fb 7d3f b63e d63e 0bfb 2b3f 615e 3e3f
000001b0: d68e 343f 292b 2a3f 6e69 513f e7bf 153f
000001c0: 0491 4f3f 5bde 2a3f ecbe 0e3f 6c88 2d3f
000001d0: d20f 1d3f 6d25 d83e 9970 183f 3d9e 0c3f
000001e0: 5e8f 50bc 9f2c 85bc d367 9e3b f98c 57bc
000001f0: 8f99 683c f195 c53c e7e1 843c e4e2 9a3a
00000200: cdb1 31bd 06bc 443d f671 423d f3a4 12bd
00000210: 9989 e83c 8cdc 333d c460 4c3c edf3 403d
00000220: 2801 3c3c 46d6 21bd 297a 8cbd 4110 c4bb
00000230: 0c1a 793c 8e6d 8b3d e324 13bd 5d99 df3b
00000240: 5f3b f63b cc41 1d3c 9191 c9bb eb90 853c
00000250: a972 653d c403 e6bc f469 97bd 17e2 003d
00000260: 8567 4e3d 109b ce3c 1c92 01bd aa85 6bbd
00000270: 12fa 043d 194c 7fbc b652 6bbd d572 473d
00000280: bfc3 02bc 0474 323d ae72 70bc 95e7 353d
00000290: 6f4e 403d ac6a 38bd b570 0c3d 7174 44bc
000002a0: 10ef 6d3d 0c60 11bc 30c7 16bc 5124 27bd
000002b0: ed92 e3b8 a462 c53b a6cd 06bb 8c02 1cbd
000002c0: c4d4 8e3c 378b 81bd 62d5 123d 0c61 29bb
000002d0: 7bbd b1be cda9 7abe a151 a9be 5047 33be
000002e0: 8ef5 dabe 9948 7e3e 14f2 36be 4f97 8bbe
000002f0: e09c 123f fe62 c23d 7769 adbd 8cb3 58bd
00000300: 344d 98bd db4e fbbd a1b4 5cbe a646 efbd
00000310: f1b3 5dbe a426 3dbe 3cc4 68be f1a4 2cbd
00000320: 92a1 e73e 086f e0be ec2f 38be 4f0f d23d
00000330: 1905 193f 34de 22be e45c 58be 67c6 e9bc
00000340: d634 b03d 8595 0abc caa8 473f a5cf e2bc
00000350: a654 0a3e 49f5 59be 1232 33bd 36e0 8a3e
00000360: 379d bbbd 5f7b c6be d4ff a9bd e522 5ebe
00000370: db6f 97bd b46a 9bbe 9018 4fbe acf0 2abe
00000380: f442 91bd 901b 0c3f 1ac1 0e3d 19f2 5fbe
00000390: 7582 bebd 694a 9d3d 878b 45bd 7f73 89be
000003a0: 6060 bfbd 0566 89be ab8a d6bd eee6 aa3c
000003b0: 91a6 25be f354 873c 6730 63be a695 74be

std.constant23 i1 [240, 60] scale=0.014378129 zero_point=0
-0.014378129 -0.15815942 0.1006469 -0.057512514 0.17253754 0.6470158 -0.48885638 0.66139394
0.14378129 0.12940316 -0.41696572 0.51761264 -0.48885638 0.028756257 -0.11502503 -0.33069697
-0.12940316 -0.83393145 -0.27318445 0.47447824 0.6470158 0.071890645 0.057512514 -0.69015014
0.5895033 -0.08626877 0.43134385 -0.15815942 -0.33069697 0.51761264 -0.25880632 0.11502503
0.5895033 0.028756257 0.057512514 -0.53199077 -0.27318445 0.3019407 -0.028756257 -0.057512514
-0.38820946 -0.34507507 0.74766266 0.043134384 0.28756258 -0.79079705 0.24442819 -0.6470158
-0.28756258 -0.43134385 -1.0927378 0.38820946 0.057512514 0.47447824 -0.33069697 0.43134385
-0.071890645 -0.31631884 -0.33069697 0.23005006 -0.2012938 0.15815942 0.11502503 0.15815942
0.15815942 0.24442819 -0.51761264 0.43134385 0.61825955 0.21567193 -0.37383133 0.08626877
-0.2012938 0.0 -0.057512514 -0.3594532 -0.34507507 -0.5032345 -0.21567193 0.27318445
0.8051752 -0.14378129 0.14378129 -0.21567193 0.9920909 0.2012938 0.11502503 -0.2012938
-0.043134384 0.08626877 -0.79079705 -0.014378129 0.31631884 -0.12940316 0.57512516 -0.4025876
-0.08626877 -0.12940316 -0.31631884 -0.27318445 -0.1006469 -0.2012938 0.17253754 -0.1006469
0.47447824 -0.8483096 0.17253754 -0.2012938 0.08626877 -0.3594532 -0.43134385 -0.28756258
-0.014378129 0.14378129 0.057512514 0.14378129 0.51761264 -0.2012938 -0.44572198 0.21567193
-0.014378129 -0.057512514 0.0 0.057512514 0.12940316 0.15815942 0.08626877 0.23005006
0.17253754 -0.028756257 -0.11502503 0.15815942 -0.028756257 -0.14378129 -0.043134384 -0.1006469
-0.18691567 -0.38820946 -0.028756257 0.14378129 0.14378129 -0.12940316 0.057512514 -0.08626877
0.11502503 -0.057512514 0.15815942 -0.014378129 -0.14378129 0.1006469 0.028756257 0.057512514
0.043134384 -0.057512514 0.17253754 -0.11502503 0.028756257 0.14378129 0.08626877 0.014378129
0.071890645 -0.18691567 0.25880632 -0.15815942 0.12940316 -0.12940316 -0.043134384 -0.14378129
0.014378129 -0.25880632 -0.41696572 0.043134384 -0.11502503 0.11502503 0.057512514 0.043134384
0.15815942 0.057512514 -0.17253754 0.014378129 -0.15815942 0.41696572 0.12940316 0.18691567
0.11502503 0.21567193 -0.7045283 0.4601001 0.8483096 0.33069697 -0.57512516 0.47447824
-0.41696572 -0.21567193 -0.41696572 -0.7189064 -0.47447824 0.34507507 -0.25880632 0.3594532
0.5895033 -0.1006469 0.69015014 -0.6038814 0.8051752 0.27318445 0.34507507 -0.51761264
-0.25880632 0.12940316 -0.6470158 -0.1006469 0.25880632 -0.3594532 1.1502503 -0.4025876
-0.43134385 -0.014378129 0.17253754 -0.61825955 0.071890645 -0.51761264 0.43134385 0.0
0.74766266 -0.74766266 0.08626877 -0.25880632 -0.4025876 -0.41696572 -0.48885638 -0.31631884
-0.08626877 0.0 -0.08626877 0.51761264 0.66139394 -0.14378129 -0.69015014 0.38820946
-0.028756257 0.17253754 -0.043134384 0.18691567 -0.014378129 0.12940316 -0.24442819 0.3594532
0.31631884 0.028756257 -0.071890645 -0.1006469 -0.08626877 -0.043134384 -0.15815942 -0.38820946
00000000: fff5 07fc 0c2d de2e 0a09 e324 de02 f8e9
00000010: f7c6 ed21 2d05 04d0 29fa 1ef5 e924 ee08
00000020: 2902 04db ed15 fefc e5e8 3403 14c9 11d3
00000030: ece2 b41b 0421 e91e fbea e910 f20b 080b
00000040: 0b11 dc1e 2b0f e606 f200 fce7 e8dd f113
00000050: 38f6 0af1 450e 08f2 fd06 c9ff 16f7 28e4
00000060: faf7 eaed f9f2 0cf9 21c5 0cf2 06e7 e2ec
00000070: ff0a 040a 24f2 e10f fffc 0004 090b 0610
00000080: 0cfe f80b fef6 fdf9 f3e5 fe0a 0af7 04fa
00000090: 08fc 0bff f607 0204 03fc 0cf8 020a 0601
000000a0: 05f3 12f5 09f7 fdf6 01ee e303 f808 0403
000000b0: 0b04 f401 f51d 090d 080f cf20 3b17 d821
000000c0: e3f1 e3ce df18 ee19 29f9 30d6 3813 18dc
000000d0: ee09 d3f9 12e7 50e4 e2ff 0cd5 05dc 1e00
000000e0: 34cc 06ee e4e3 deea fa00 fa24 2ef6 d01b
000000f0: fe0c fd0d ff09 ef19 1602 fbf9 fafd f5e5

std.constant24 i1 [240, 60] scale=0.018748734 zero_point=0
-0.46871835 0.18748733 -0.1687386 -0.056246202 0.2624823 -0.3374772 0.28123102 0.29997975
0.18748733 0.5062158 -0.2624823 0.18748733 -0.2624823 -0.056246202 0.28123102 0.0
0.112492405 -0.37497467 -0.09374367 0.28123102 0.056246202 0.112492405 0.1687386 -0.018748734
-0.09374367 -0.20623608 -0.03749747 -0.09374367 0.5437133 -0.29997975 0.112492405 -0.03749747
-0.14998987 -0.03749747 -0.41247216 0.37497467 -0.5062158 -0.1687386 0.37497467 -0.2624823
0.28123102 0.18748733 -0.112492405 -0.18748733 0.28123102 0.056246202 0.09374367 -0.37497467
0.35622594 -0.2624823 0.03749747 0.18748733 -0.44996962 -0.13124114 -0.31872848 -0.112492405
-0.056246202 0.31872848 0.29997975 -0.3374772 -0.112492405 0.31872848 0.018748734 0.112492405
0.14998987 -0.112492405 -0.112492405 0.31872848 0.112492405 0.112492405 -0.07499494 0.056246202
0.056246202 0.07499494 0.1687386 0.13124114 -0.03749747 -0.056246202 0.1687386 0.09374367
0.056246202 -0.13124114 -0.112492405 0.018748734 -0.09374367 0.0 -0.056246202 0.018748734
0.112492405 -0.13124114 -0.018748734 -0.07499494 0.03749747 -0.20623608 -0.056246202 0.112492405
0.07499494 -0.056246202 0.09374367 -0.1687386 0.03749747 0.09374367 -0.056246202 -0.20623608
0.09374367 -0.056246202 -0.056246202 -0.018748734 0.14998987 -0.22498481 -0.07499494 -0.18748733
-0.18748733 -0.07499494 -0.09374367 -0.018748734 0.018748734 0.22498481 -0.07499494 -0.46871835
-0.22498481 0.0 0.0 -0.018748734 -0.07499494 -0.28123102 0.018748734 -0.22498481
0.1687386 0.14998987 -0.1687386 -0.056246202 0.0 -0.07499494 0.0 -0.13124114
-0.03749747 -0.14998987 0.0 0.09374367 0.056246202 0.13124114 0.13124114 0.03749747
-0.18748733 0.018748734 -0.018748734 0.0 -0.18748733 0.22498481 -0.1687386 0.112492405
-0.018748734 0.09374367 -0.18748733 -0.112492405 0.09374367 0.018748734 0.13124114 0.0
-0.09374367 0.07499494 -0.056246202 -0.03749747 0.41247216 -0.03749747 -0.07499494 -0.09374367
0.112492405 0.0 0.056246202 -0.18748733 -0.2624823 0.09374367 -0.14998987 0.2624823
0.056246202 0.112492405 0.09374367 0.1687386 -0.13124114 -0.6562057 0.07499494 0.14998987
0.29997975 -0.2624823 0.3374772 -0.5437133 0.35622594 0.056246202 -0.29997975 0.13124114
-0.22498481 0.07499494 -0.80619556 0.056246202 -0.48746708 -0.4312209 -0.07499494 0.37497467
0.018748734 0.018748734 0.31872848 0.14998987 -0.48746708 -0.07499494 -0.5062158 -0.1687386
-0.73120064 0.61870825 -0.31872848 0.5062158 -0.4312209 -0.2624823 -0.39372343 0.22498481
-0.35622594 -0.20623608 0.28123102 -0.29997975 0.018748734 0.28123102 -0.5249646 -0.5437133
0.13124114 0.35622594 0.03749747 -0.056246202 0.112492405 0.58121073 0.056246202 0.20623608
-0.2624823 -0.2624823 -0.2624823 0.41247216 0.14998987 0.1687386 0.112492405 0.61870825
-0.13124114 -0.112492405 -0.056246202 -0.018748734 0.0 -0.31872848 0.09374367 -0.22498481
0.018748734 0.09374367 -0.09374367 0.056246202 -0.112492405 0.20623608 -0.13124114 0.056246202
00000000: e70a f7fd 0eee 0f10 0a1b f20a f2fd 0f00
00000010: 06ec fb0f 0306 09ff fbf5 fefb 1df0 06fe
00000020: f8fe ea14 e5f7 14f2 0f0a faf6 0f03 05ec
00000030: 13f2 020a e8f9 effa fd11 10ee fa11 0106
00000040: 08fa fa11 0606 fc03 0304 0907 fefd 0905
00000050: 03f9 fa01 fb00 fd01 06f9 fffc 02f5 fd06
00000060: 04fd 05f7 0205 fdf5 05fd fdff 08f4 fcf6
00000070: f6fc fbff 010c fce7 f400 00ff fcf1 01f4
00000080: 0908 f7fd 00fc 00f9 fef8 0005 0307 0702
00000090: f601 ff00 f60c f706 ff05 f6fa 0501 0700
000000a0: fb04 fdfe 16fe fcfb 0600 03f6 f205 f80e
000000b0: 0306 0509 f9dd 0408 10f2 12e3 1303 f007
000000c0: f404 d503 e6e9 fc14 0101 1108 e6fc e5f7
000000d0: d921 ef1b e9f2 eb0c edf5 0ff0 010f e4e3
000000e0: 0713 02fd 061f 030b f2f2 f216 0809 0621
000000f0: f9fa fdff 00ef 05f4 0105 fb03 fa0b f903
