DATN_LSTM_SMGW-main/rx_service/src/LSTM_model/LSTM_model_2_COD.tflite (tflite, 67312 bytes, 9 tensors)

lstm_1/lstm_cell_1/bias f4 [240]
-0.25892162 -0.30168968 -0.46756235 -0.44924316 -0.429189 -0.40090775 -0.4814309 -0.4113111
-0.32978198 -0.4160603 -0.06170244 -0.4032243 -0.36429715 -0.08655579 -0.37328398 -0.32214198
-0.24163596 -0.5085679 -0.10531919 -0.51934284 -0.42808717 -0.22857022 -0.40239972 -0.59134567
-0.29275033 -0.45577562 -0.43177035 -0.1715524 -0.43530014 -0.5305369 0.10704317 -0.4815354
-0.3064002 -0.17298503 -0.45955887 -0.4313328 -0.19395186 -0.48923963 -0.41718835 -0.26081058
-0.38135287 -0.37621328 -0.40127325 -0.44216192 -0.43269888 -0.5598533 -0.3574895 -0.34225425
-0.14728865 -0.40715954 -0.20444039 -0.42742974 -0.4328606 -0.19890973 -0.2371248 -0.3866733
-0.18412635 -0.41560185 -0.24920021 -0.48215422 0.77292424 0.74787134 0.7170275 0.64494395
0.34551197 0.5435083 0.7581003 0.6792792 0.34819618 0.65423703 0.50346845 0.7117314
0.75966895 0.4625659 0.70930976 0.45929134 0.6784028 0.6535511 0.617302 0.6623855
0.6660281 0.7419953 0.84666866 0.62245387 0.74376005 0.7530637 0.78548086 0.5319688
0.76608187 0.61121166 0.45897928 0.6871423 0.45490393 0.6418442 0.42822108 0.8084817
0.65780705 0.76345897 0.7725845 0.74161994 0.8079731 0.26634884 0.6844329 0.7125247
0.7964108 0.5181348 0.7926219 0.6961513 0.06308597 0.7622624 0.78568816 0.6256113
0.71291256 0.679064 0.4477156 0.7706357 0.6654733 0.82690537 0.8362539 0.645292
-0.019692132 0.025877709 -0.040778853 -0.01854513 0.03823769 -0.03089761 0.016816875 -0.0034086702
-0.05121588 -0.011066462 0.024176206 0.03108558 0.0036365679 -0.029114299 0.00789688 0.0065635676
-0.0019971784 0.006564162 0.0033975437 0.014764659 -0.04236061 -0.0032479013 -0.0016764434 -0.041270934
0.016985275 0.0036727837 -0.0022914873 0.0412401 0.0065176124 0.022478493 0.012439829 -0.00015232307
0.043696154 -0.019839108 -0.0060027116 0.027082546 -0.020102642 0.004695366 -0.04164648 0.002316633
-0.018124746 -0.036599614 0.015577948 -0.013172516 0.025090586 0.046863284 0.021145353 -0.018190173
0.07010207 -0.033975184 -0.007176549 -0.018870141 -0.0031473082 -0.017915333 -0.032587055 -0.013136138
0.026891636 0.015936779 0.02912356 0.016671168 -0.23482832 -0.33431718 -0.4928278 -0.38406187
-0.41488633 -0.40191182 -0.46466646 -0.40502676 -0.3950742 -0.36207858 -0.14866996 -0.38959935
-0.3110989 -0.06536021 -0.3777193 -0.29711783 -0.26472324 -0.48200417 -0.17906123 -0.5296606
-0.55095994 -0.13833244 -0.36365643 -0.63750136 -0.3006717 -0.42390838 -0.4146297 -0.16378634
-0.39348516 -0.5086448 0.045623504 -0.45500046 -0.29758254 -0.12248711 -0.4073699 -0.4670942
-0.19474512 -0.4658381 -0.3882222 -0.26716226 -0.38146853 -0.4765448 -0.33828858 -0.41636437
-0.40474477 -0.5430142 -0.36777347 -0.33705348 -0.18195175 -0.40591678 -0.25888512 -0.38353845
-0.4103581 -0.20351774 -0.2893509 -0.31685168 -0.58151335 -0.380431 -0.2345344 -0.48203745
00000000: 6091 84be 1277 9abe 5564 efbe 3303 e6be
00000010: a9be dbbe c843 cdbe 1c7e f6be 5e97 d2be
00000020: 2fd9 a8be db05 d5be b3bb 7cbd 6a73 cebe
00000030: 2885 babe 2944 b1bd 141f bfbe cbef a4be
00000040: 6b6f 77be 8231 02bf 96b1 d7bd a7f3 04bf
00000050: 3e2e dbbe 500e 6abe 5607 cebe 6e62 17bf
00000060: 5fe3 95be 6c5b e9be 0111 ddbe 6fab 2fbe
00000070: a9df debe 44d1 07bf 7339 db3d cf8b f6be
00000080: 7de0 9cbe fd22 31be 4d4b ebbe a7d7 dcbe
00000090: 519b 46be 9e7d fabe b699 d5be f788 85be
000000a0: af40 c3be 079f c0be b073 cdbe 0c63 e2be
000000b0: b58a ddbe 8c52 0fbf dd08 b7be f33b afbe
000000c0: d6d2 16be 3777 d0be d258 51be 12d8 dabe
000000d0: e89f ddbe feae 4bbe d8d0 72be 0bfa c5be
000000e0: 9e8b 3cbe c4c9 d4be 572e 7fbe ebdc f6be
000000f0: 5dde 453f 7f74 3f3f 1d8f 373f 0c1b 253f
00000100: f2e6 b03e 5c23 0b3f dc12 423f 3ee5 2d3f
00000110: c546 b23e 147c 273f 4fe3 003f 0734 363f
00000120: aa79 423f 70d5 ec3e 5395 353f 3c28 eb3e
00000130: ceab 2d3f 204f 273f 8107 1e3f 1992 293f
00000140: d180 2a3f 67f3 3d3f 47bf 583f 2359 1f3f
00000150: 0f67 3e3f c8c8 403f 4615 493f 1b2f 083f
00000160: f11d 443f 5e78 1c3f 55ff ea3e 8fe8 2f3f
00000170: 2be9 e83e e74f 243f cb3f db3e a8f8 4e3f
00000180: 0b66 283f 0c72 433f 19c8 453f ceda 3d3f
00000190: 53d7 4e3f e05e 883e ff36 2f3f 0568 363f
000001a0: 94e1 4b3f 7ba4 043f 45e9 4a3f f936 323f
000001b0: 3833 813d a123 433f dc22 493f 1028 203f
000001c0: 7081 363f 23d7 2d3f fb3a e53e 6248 453f
000001d0: 755c 2a3f 12b0 533f bc14 563f db31 253f
000001e0: 6551 a1bc 7dfd d33c ba07 27bd f5eb 97bc
000001f0: 209f 1c3d fc1c fdbc 8bc3 893c ff63 5fbb
00000200: bec7 51bd 1b50 35bc 2e0d c63c 30a7 fe3c
00000210: 7c53 6e3b 1c81 eebc ea61 013c 3213 d73b
00000220: 18e3 02bb 2f18 d73b 53a9 5e3b 78e7 713c
00000230: 5282 2dbd beda 54bb 1bbc dbba b60b 29bd
00000240: b424 8b3c 16b3 703b c72c 16bb 61eb 283d
00000250: b291 d53b d124 b83c 6dd0 4b3c eab8 1fb9
00000260: bdfa 323d a085 a2bc 65b2 c4bb 37dc dd3c
00000270: 4cae a4bc 96db 993b 8095 2abd a7d2 173b
00000280: 597a 94bc 7ae9 15bd a63a 7f3c 89d1 57bc
00000290: c68a cd3c b7f3 3f3d 0539 ad3c 8f03 95bc
000002a0: ad91 8f3d 9029 0bbd 4229 ebbb 8e95 9abc
000002b0: 1243 4ebb 2dc3 92bc 017a 05bd f538 57bc
000002c0: d94b dc3c d98d 823c 8894 ee3c f991 883c
000002d0: d676 70be 9f2b abbe ed53 fcbe c2a3 c4be
000002e0: fb6b d4be 63c7 cdbe c3e8 edbe ab5f cfbe
000002f0: 2a47 cabe 5d62 b9be f03c 18be 9179 c7be
00000300: 5b48 9fbe 93db 85bd 6d64 c1be d41f 98be
00000310: ce89 87be 40c9 f6be d45b 37be d697 07bf
00000320: b60b 0dbf 05a7 0dbe 2d31 babe 4a33 23bf
00000330: a4f1 99be 850a d9be 584a d4be 9bb7 27be
00000340: e376 c9be 8c36 02bf b6df 3a3d d2f5 e8be
00000350: bd5c 98be 86da fabd ca92 d0be f926 efbe
00000360: 446b 47be 5582 eebe 0fc5 c6be 7ec9 88be
00000370: d84f c3be aefd f3be 2934 adbe b62d d5be
00000380: b53a cfbe fb02 0bbf ce4c bcbe 4692 acbe
00000390: 8f51 3abe 53d4 cfbe 978c 84be 275f c4be
000003a0: 751a d2be f466 50be cd25 94be 623a a2be
000003b0: 0fde 14bf dac7 c2be c929 70be 9dcd f6be

lstm/lstm_cell/bias f4 [240]
0.19744293 0.25131482 0.26162964 0.32924134 0.6664685 0.13353153 0.1511395 0.10027599
-0.006781761 -0.13209762 -0.1756247 -0.122639276 -0.068546094 0.28109404 -0.20890117 0.11542289
0.070057884 0.34630674 0.10357982 0.069918156 -0.089051984 0.557797 -0.17235684 0.37387186
-0.056775685 0.1992653 0.27547073 0.38631365 0.2935874 0.5987398 0.20924579 0.5906314
0.3018444 -0.02753311 0.028122727 0.3922457 -0.025454342 0.31663507 0.275973 0.32879397
-0.26243126 0.38269725 0.33797377 0.37897924 -0.13669355 -0.03409244 0.05260352 0.07268734
-0.06892805 0.06488825 0.5815829 -0.33171007 0.19488692 0.024756566 0.42319006 -0.024875402
-0.25417733 -0.0150320325 0.32445747 -0.041781604 0.31537092 0.4056289 0.51813895 0.4610384
0.5601424 0.27381173 0.5959057 0.63340914 0.46428835 0.5915126 0.63693386 0.5401308
0.7211073 0.43259194 0.38234928 0.61650485 0.48040655 0.53790987 0.46939582 0.5551111
0.67787063 0.6460249 0.594025 0.5495122 0.63506263 0.54353327 0.5901423 0.33783588
0.62730706 0.559575 0.62727565 0.25072572 0.6071815 0.43688416 0.632318 0.6211716
0.422928 0.4783408 0.39953396 0.562808 0.6184639 0.4987562 0.4341252 0.5270426
0.50108355 0.6460851 0.5232596 0.5619375 0.5570458 0.57509774 0.5319759 0.83633024
0.505772 0.5149451 0.6239696 0.45485395 0.5637999 0.5010229 0.021435661 0.58061594
-0.05545543 -0.13983285 -0.15204835 -0.17040345 0.14963278 0.065114535 -0.06904491 0.07086348
-0.086525545 -0.07737357 0.02625653 0.08103294 -0.054976072 0.14370407 0.087544434 0.062222917
0.09558805 0.13534334 -0.15446873 -0.11341819 -0.0409696 0.14504035 0.0013101822 0.12810202
-0.031634815 -0.148262 0.17085448 0.15214042 0.14881513 -0.15407173 0.14253294 -0.18105783
0.15818362 0.10651837 0.11517637 0.16683653 -0.09508506 -0.16210744 -0.04295057 -0.17461087
-0.0027491706 0.15849422 0.20507723 -0.161165 0.005198033 0.08072219 -0.11445994 0.14913371
0.07299918 0.08601505 0.14835724 0.01134233 -0.16756774 -0.1198362 0.1462273 0.082518384
0.05805421 -0.13274845 -0.024439257 -0.09412102 0.17972769 0.21555914 0.29913577 0.4483271
0.72060144 0.24710567 0.18802914 0.15466577 0.00686969 -0.11584007 -0.18581498 -0.14266765
-0.14811383 0.48706144 -0.20871755 0.061784383 0.08874411 0.48869035 0.18892162 0.025452426
-0.25065303 0.88173443 -0.23119316 0.39690435 -0.027315946 0.23832941 0.52908903 0.45902732
0.30958134 0.74959564 0.21420583 0.5760521 0.46433312 -0.061617304 0.0027432875 0.83094686
0.007596314 0.47037622 0.30468938 0.5260391 -0.29114482 0.44716066 0.5055832 0.48337463
-0.17219386 -0.09623617 0.018516423 0.065867625 0.0031197614 0.055679057 0.5392287 -0.29492587
0.20291549 -0.021604853 0.49724045 0.07551878 -0.22052728 -0.03336062 0.3416468 -0.05452122
00000000: 7b2e 4a3e 56ac 803e 52f4 853e 5292 a83e
00000010: ae9d 2a3f 7dbc 083e 50c4 1a3e 805d cd3d
00000020: 8939 debb 9944 07be f6d6 33be 4d2a fbbd
00000030: e561 8cbd 8feb 8f3e 30ea 55be d662 ec3d
00000040: 827a 8f3d 1e4f b13e a821 d43d 4031 8f3d
00000050: e360 b6bd c9cb 0e3f 507e 30be 226c bf3e
00000060: 9f8d 68bd 340c 4c3e 800a 8d3e e7ca c53e
00000070: 1651 963e 0347 193f 8744 563e 9f33 173f
00000080: 598b 9a3e 1e8d e1bc a261 e63c 6ed4 c83e
00000090: a085 d0bc fe1d a23e 554c 8d3e af57 a83e
000000a0: 645d 86be e5f0 c33e e60a ad3e 9109 c23e
000000b0: 65f9 0bbe 84a4 0bbd ca76 573d 1add 943d
000000c0: 262a 8dbd 21e4 843d 9ee2 143f e7d5 a9be
000000d0: 7090 473e 48ce ca3c 5eac d83e 80c7 cbbc
000000e0: 8823 82be ea48 76bc 4a1f a63e 3023 2bbd
000000f0: 4c78 a13e 97ae cf3e c1a4 043f 3a0d ec3e
00000100: 7e65 0f3f 0d31 8c3e 478d 183f 1a27 223f
00000110: 34b7 ed3e 5f6d 173f 190e 233f 0346 0a3f
00000120: 7d9a 383f b17c dd3e 49c3 c33e 43d3 1d3f
00000130: d9f7 f53e 76b4 093f a654 f03e c31b 0e3f
00000140: ee88 2d3f e361 253f 0612 183f d5ac 0c3f
00000150: 7793 223f ff24 0b3f 9113 173f d3f8 ac3e
00000160: 3297 203f 4f40 0f3f 2395 203f 1f5f 803e
00000170: 3f70 1b3f 48af df3e 98df 213f 1a05 1f3f
00000180: 058a d83e 16e9 f43e b78f cc3e 2f14 103f
00000190: a653 1e3f f95c ff3e a945 de3e 44ec 063f
000001a0: 0347 003f d565 253f 57f4 053f 23db 0f3f
000001b0: 8e9a 0e3f 9b39 133f 932f 083f bd19 563f
000001c0: 467a 013f 71d3 033f 79bc 1f3f 9ee2 e83e
000001d0: 3155 103f 0943 003f d799 af3c 3fa3 143f
000001e0: 3c25 63bd 5830 0fbe 90b2 1bbe 3e7e 2ebe
000001f0: 5639 193e c55a 853d 6b67 8dbd df20 913d
00000200: 4e34 b1bd 0976 9ebd ef17 d73c 99f4 a53d
00000210: 972e 61bd 2927 133e 7f4a b33d 75dd 7e3d
00000220: abc3 c33d 7297 0a3e 0d2d 1ebe cc47 e8bd
00000230: bdcf 27bd 7585 143e 6bba ab3a 2d2d 033e
00000240: 8293 01bd fed1 17be 7af4 2e3e b3ca 1b3e
00000250: fe62 183e fbc4 1dbe 28f4 113e 3967 39be
00000260: e3fa 213e 4e26 da3d 97e1 eb3d 32d7 2a3e
00000270: f5bb c2bd 7eff 25be f0ec 2fbd 31cd 32be
00000280: 6e2b 34bb 4f4c 223e c4ff 513e 7008 25be
00000290: 4354 aa3b ad51 a53d f969 eabd 82b6 183e
000002a0: 9880 953d a928 b03d f6ea 173e 2ed5 393c
000002b0: e196 2bbe ae6c f5bd 9cbc 153e 66ff a83d
000002c0: 40ca 6d3d 36ef 07be d634 c8bc 85c2 c0bd
000002d0: 890a 383e 89bb 5c3e 5328 993e 218b e53e
000002e0: 5679 383f 4509 7d3e b68a 403e b460 1e3e
000002f0: 231b e13b 8f3d edbd 4846 3ebe 7817 12be
00000300: 27ab 17be 1e60 f93e 0eba 55be 9f11 7d3d
00000310: 79bf b53d 9f35 fa3e ab74 413e 9b81 d03c
00000320: 9855 80be 59b9 613f e6bd 6cbe 0c37 cb3e
00000330: b1c5 dfbc a00c 743e 6172 073f a105 eb3e
00000340: 7281 9e3e 80e5 3f3f c658 5b3e 2778 133f
00000350: 12bd ed3e 6d62 7cbd bac8 333b efb8 543f
00000360: 80ea f83b 27d5 f03e 3f00 9c3e 80aa 063f
00000370: ef10 95be 3ef2 e43e e76d 013f e17c f73e
00000380: 9653 30be 7817 c5bd c1af 973c 9be5 863d
00000390: e974 4c3b b90f 643d e40a 0a3f 8600 97be
000003a0: 14c9 4f3e a9fc b0bc 4d96 fe3e 97a9 9a3d
000003b0: e7d1 61be 25a5 08bd 54ec ae3e a551 5fbd

std.constant5 f4 [1, 60]
-0.06712438 -0.06839837 0.030439574 -0.06758275 0.023586828 0.07590583 -0.058040407 0.08034266
0.06329015 -0.06370237 -0.058248907 -0.06634418 -0.09164637 -0.03776603 -0.097700916 -0.02060136
0.09388854 -0.02467704 -0.0928686 -0.06569827 0.04626997 0.13065058 0.06402011 0.049342472
-0.07199737 -0.081257336 0.070819415 -0.013800156 0.045473535 -0.063482165 -0.08916663 0.073392205
0.02431539 0.025067538 -0.00790224 -0.0737074 -0.058144383 -0.0355696 -0.07738224 -0.034051746
-0.059759855 0.08679093 -0.070245706 0.07521806 -0.086783975 -0.04592865 -0.030536763 -0.06637248
0.0010556986 0.07198077 -0.07103235 0.061124377 0.10062976 0.07675205 -0.057649013 0.07179788
0.030315775 -0.06978846 -0.073336184 -0.01693676
00000000: 8278 89bd 7214 8cbd 6a5c f93c d368 8abd
00000010: 2a39 c13c 8474 9b3d c7bb 6dbd b18a a43d
00000020: 449e 813d 6376 82bd 6896 6ebd 75df 87bd
00000030: 18b1 bbbd 8db0 1abd 6b17 c8bd 2fc4 a8bc
00000040: a348 c03d 8127 cabc e431 bebd d18c 86bd
00000050: 9485 3d3d 44c9 053e fa1c 833d 551b 4a3d
00000060: 5b73 93bd 3f6a a6bd c509 913d 0d1a 62bc
00000070: 7542 3a3d f002 82bd fe9c b6bd a74e 963d
00000080: 1231 c73c 705a cd3c 6678 01bc e8f3 96bd
00000090: ce28 6ebd 6eb1 11bd 947a 9ebd d879 0bbd
000000a0: c0c6 74bd 71bf b13d fbdc 8fbd ed0b 9a3d
000000b0: ccbb b1bd ae1f 3cbd 3c28 fabc 4bee 87bd
000000c0: 5e5f 8a3a a76a 933d 6979 91bd 8e5d 7a3d
000000d0: fa16 ce3d 2e30 9d3d 5f21 6cbd c40a 933d
000000e0: ca58 f83c 41ed 8ebd 4831 96bd f6be 8abc

lstm/lstm_cell/bias1 f4 [240]
0.19744293 0.25131482 0.26162964 0.32924134 0.6664685 0.13353153 0.1511395 0.10027599
-0.006781761 -0.13209762 -0.1756247 -0.122639276 -0.068546094 0.28109404 -0.20890117 0.11542289
0.070057884 0.34630674 0.10357982 0.069918156 -0.089051984 0.557797 -0.17235684 0.37387186
-0.056775685 0.1992653 0.27547073 0.38631365 0.2935874 0.5987398 0.20924579 0.5906314
0.3018444 -0.02753311 0.028122727 0.3922457 -0.025454342 0.31663507 0.275973 0.32879397
-0.26243126 0.38269725 0.33797377 0.37897924 -0.13669355 -0.03409244 0.05260352 0.07268734
-0.06892805 0.06488825 0.5815829 -0.33171007 0.19488692 0.024756566 0.42319006 -0.024875402
-0.25417733 -0.0150320325 0.32445747 -0.041781604 0.31537092 0.4056289 0.51813895 0.4610384
0.5601424 0.27381173 0.5959057 0.63340914 0.46428835 0.5915126 0.63693386 0.5401308
0.7211073 0.43259194 0.38234928 0.61650485 0.48040655 0.53790987 0.46939582 0.5551111
0.67787063 0.6460249 0.594025 0.5495122 0.63506263 0.54353327 0.5901423 0.33783588
0.62730706 0.559575 0.62727565 0.25072572 0.6071815 0.43688416 0.632318 0.6211716
0.422928 0.4783408 0.39953396 0.562808 0.6184639 0.4987562 0.4341252 0.5270426
0.50108355 0.6460851 0.5232596 0.5619375 0.5570458 0.57509774 0.5319759 0.83633024
0.505772 0.5149451 0.6239696 0.45485395 0.5637999 0.5010229 0.021435661 0.58061594
-0.05545543 -0.13983285 -0.15204835 -0.17040345 0.14963278 0.065114535 -0.06904491 0.07086348
-0.086525545 -0.07737357 0.02625653 0.08103294 -0.054976072 0.14370407 0.087544434 0.062222917
0.09558805 0.13534334 -0.15446873 -0.11341819 -0.0409696 0.14504035 0.0013101822 0.12810202
-0.031634815 -0.148262 0.17085448 0.15214042 0.14881513 -0.15407173 0.14253294 -0.18105783
0.15818362 0.10651837 0.11517637 0.16683653 -0.09508506 -0.16210744 -0.04295057 -0.17461087
-0.0027491706 0.15849422 0.20507723 -0.161165 0.005198033 0.08072219 -0.11445994 0.14913371
0.07299918 0.08601505 0.14835724 0.01134233 -0.16756774 -0.1198362 0.1462273 0.082518384
0.05805421 -0.13274845 -0.024439257 -0.09412102 0.17972769 0.21555914 0.29913577 0.4483271
0.72060144 0.24710567 0.18802914 0.15466577 0.00686969 -0.11584007 -0.18581498 -0.14266765
-0.14811383 0.48706144 -0.20871755 0.061784383 0.08874411 0.48869035 0.18892162 0.025452426
-0.25065303 0.88173443 -0.23119316 0.39690435 -0.027315946 0.23832941 0.52908903 0.45902732
0.30958134 0.74959564 0.21420583 0.5760521 0.46433312 -0.061617304 0.0027432875 0.83094686
0.007596314 0.47037622 0.30468938 0.5260391 -0.29114482 0.44716066 0.5055832 0.48337463
-0.17219386 -0.09623617 0.018516423 0.065867625 0.0031197614 0.055679057 0.5392287 -0.29492587
0.20291549 -0.021604853 0.49724045 0.07551878 -0.22052728 -0.03336062 0.3416468 -0.05452122
00000000: 7b2e 4a3e 56ac 803e 52f4 853e 5292 a83e
00000010: ae9d 2a3f 7dbc 083e 50c4 1a3e 805d cd3d
00000020: 8939 debb 9944 07be f6d6 33be 4d2a fbbd
00000030: e561 8cbd 8feb 8f3e 30ea 55be d662 ec3d
00000040: 827a 8f3d 1e4f b13e a821 d43d 4031 8f3d
00000050: e360 b6bd c9cb 0e3f 507e 30be 226c bf3e
00000060: 9f8d 68bd 340c 4c3e 800a 8d3e e7ca c53e
00000070: 1651 963e 0347 193f 8744 563e 9f33 173f
00000080: 598b 9a3e 1e8d e1bc a261 e63c 6ed4 c83e
00000090: a085 d0bc fe1d a23e 554c 8d3e af57 a83e
000000a0: 645d 86be e5f0 c33e e60a ad3e 9109 c23e
000000b0: 65f9 0bbe 84a4 0bbd ca76 573d 1add 943d
000000c0: 262a 8dbd 21e4 843d 9ee2 143f e7d5 a9be
000000d0: 7090 473e 48ce ca3c 5eac d83e 80c7 cbbc
000000e0: 8823 82be ea48 76bc 4a1f a63e 3023 2bbd
000000f0: 4c78 a13e 97ae cf3e c1a4 043f 3a0d ec3e
00000100: 7e65 0f3f 0d31 8c3e 478d 183f 1a27 223f
00000110: 34b7 ed3e 5f6d 173f 190e 233f 0346 0a3f
00000120: 7d9a 383f b17c dd3e 49c3 c33e 43d3 1d3f
00000130: d9f7 f53e 76b4 093f a654 f03e c31b 0e3f
00000140: ee88 2d3f e361 253f 0612 183f d5ac 0c3f
00000150: 7793 223f ff24 0b3f 9113 173f d3f8 ac3e
00000160: 3297 203f 4f40 0f3f 2395 203f 1f5f 803e
00000170: 3f70 1b3f 48af df3e 98df 213f 1a05 1f3f
00000180: 058a d83e 16e9 f43e b78f cc3e 2f14 103f
00000190: a653 1e3f f95c ff3e a945 de3e 44ec 063f
000001a0: 0347 003f d565 253f 57f4 053f 23db 0f3f
000001b0: 8e9a 0e3f 9b39 133f 932f 083f bd19 563f
000001c0: 467a 013f 71d3 033f 79bc 1f3f 9ee2 e83e
000001d0: 3155 103f 0943 003f d799 af3c 3fa3 143f
000001e0: 3c25 63bd 5830 0fbe 90b2 1bbe 3e7e 2ebe
000001f0: 5639 193e c55a 853d 6b67 8dbd df20 913d
00000200: 4e34 b1bd 0976 9ebd ef17 d73c 99f4 a53d
00000210: 972e 61bd 2927 133e 7f4a b33d 75dd 7e3d
00000220: abc3 c33d 7297 0a3e 0d2d 1ebe cc47 e8bd
00000230: bdcf 27bd 7585 143e 6bba ab3a 2d2d 033e
00000240: 8293 01bd fed1 17be 7af4 2e3e b3ca 1b3e
00000250: fe62 183e fbc4 1dbe 28f4 113e 3967 39be
00000260: e3fa 213e 4e26 da3d 97e1 eb3d 32d7 2a3e
00000270: f5bb c2bd 7eff 25be f0ec 2fbd 31cd 32be
00000280: 6e2b 34bb 4f4c 223e c4ff 513e 7008 25be
00000290: 4354 aa3b ad51 a53d f969 eabd 82b6 183e
000002a0: 9880 953d a928 b03d f6ea 173e 2ed5 393c
000002b0: e196 2bbe ae6c f5bd 9cbc 153e 66ff a83d
000002c0: 40ca 6d3d 36ef 07be d634 c8bc 85c2 c0bd
000002d0: 890a 383e 89bb 5c3e 5328 993e 218b e53e
000002e0: 5679 383f 4509 7d3e b68a 403e b460 1e3e
000002f0: 231b e13b 8f3d edbd 4846 3ebe 7817 12be
00000300: 27ab 17be 1e60 f93e 0eba 55be 9f11 7d3d
00000310: 79bf b53d 9f35 fa3e ab74 413e 9b81 d03c
00000320: 9855 80be 59b9 613f e6bd 6cbe 0c37 cb3e
00000330: b1c5 dfbc a00c 743e 6172 073f a105 eb3e
00000340: 7281 9e3e 80e5 3f3f c658 5b3e 2778 133f
00000350: 12bd ed3e 6d62 7cbd bac8 333b efb8 543f
00000360: 80ea f83b 27d5 f03e 3f00 9c3e 80aa 063f
00000370: ef10 95be 3ef2 e43e e76d 013f e17c f73e
00000380: 9653 30be 7817 c5bd c1af 973c 9be5 863d
00000390: e974 4c3b b90f 643d e40a 0a3f 8600 97be
000003a0: 14c9 4f3e a9fc b0bc 4d96 fe3e 97a9 9a3d
000003b0: e7d1 61be 25a5 08bd 54ec ae3e a551 5fbd

std.constant13 i1 [240, 60] scale=0.019455548 zero_point=0
-0.23346658 0.42802206 0.4474776 0.38911098 -0.603122 -0.46693316 0.07782219 -0.17509994
0.21401103 0.15564439 -0.19455549 -0.4863887 0.0 -0.33074433 -0.038911097 -0.4474776
-0.27237767 -0.4863887 0.038911097 0.11673329 0.15564439 -0.50584424 -0.15564439 -0.35019988
0.25292212 0.4085665 -0.23346658 -0.6420331 -0.21401103 0.46693316 -0.27237767 0.058366645
-0.17509994 0.019455548 -0.11673329 -0.4474776 0.35019988 0.38911098 0.27237767 0.36965543
-0.15564439 -0.35019988 -0.25292212 0.4085665 0.0 0.038911097 0.19455549 -0.21401103
-0.38911098 -0.27237767 -0.42802206 0.07782219 0.33074433 -0.038911097 -0.50584424 -0.36965543
-0.019455548 0.27237767 -0.23346658 0.0 0.07782219 0.23346658 0.50584424 0.603122
-0.54475534 0.70039976 -0.11673329 0.4085665 -0.21401103 -0.038911097 0.25292212 0.25292212
-0.62257755 -0.038911097 0.54475534 -0.54475534 -0.33074433 -0.603122 0.0 -0.019455548
-0.46693316 -0.83658856 0.46693316 -0.5642109 0.0 0.54475534 -0.35019988 -0.46693316
-0.35019988 1.1867884 -0.36965543 0.87549967 -0.019455548 0.15564439 0.038911097 -0.27237767
0.58366644 0.33074433 1.1089662 0.5252998 -0.603122 -0.27237767 -0.66148865 0.35019988
-0.50584424 0.4863887 0.33074433 -0.54475534 0.11673329 0.038911097 -0.87549967 0.23346658
0.23346658 0.46693316 -0.70039976 -0.13618883 -0.27237767 0.038911097 -0.11673329 0.0
0.07782219 0.19455549 0.50584424 0.4085665 -0.4474776 0.73931086 -0.19455549 0.46693316
0.4863887 0.4085665 -0.5252998 0.4474776 -0.23346658 -0.27237767 0.11673329 -0.25292212
-0.42802206 -0.35019988 -0.07782219 0.33074433 -0.25292212 -0.8949552 -0.46693316 -0.33074433
-0.11673329 0.058366645 0.11673329 -0.603122 -0.42802206 0.83658856 -0.35019988 -0.29183322
0.21401103 -0.13618883 -0.35019988 0.15564439 0.4474776 0.35019988 0.58366644 0.15564439
0.54475534 -0.038911097 -0.27237767 0.29183322 0.54475534 0.019455548 0.0 0.058366645
-0.097277746 -0.11673329 -0.6809442 -0.29183322 0.11673329 0.25292212 -0.62257755 0.097277746
-0.13618883 -0.058366645 -0.4085665 -0.23346658 -0.38911098 -0.058366645 -0.13618883 -0.6420331
0.21401103 0.9338663 -0.19455549 0.31128877 -0.31128877 -0.27237767 0.097277746 0.7587664
-0.83658856 1.1284218 0.50584424 -0.33074433 0.17509994 0.07782219 -1.1867884 -0.50584424
-0.9533219 0.50584424 -0.097277746 0.54475534 -0.13618883 -0.42802206 1.2840662 0.35019988
0.17509994 -0.36965543 0.4474776 -0.33074433 1.7315438 0.17509994 0.62257755 1.5369884
-0.17509994 -0.9727774 1.031144 -1.1867884 -0.038911097 1.4786217 0.73931086 -1.1478773
-0.038911097 1.0116885 -0.5642109 0.6420331 0.50584424 0.5642109 0.019455548 0.21401103
-0.6809442 -0.58366644 0.13618883 0.25292212 -0.5252998 -0.31128877 -0.4863887 -0.27237767
-0.42802206 0.25292212 0.4863887 0.17509994 0.0 1.1089662 -0.11673329 0.46693316
0.38911098 0.15564439 -0.019455548 0.603122 -0.91441077 0.21401103 0.058366645 -0.35019988
00000000: f416 1714 e1e8 04f7 0b08 f6e7 00ef fee9
00000010: f2e7 0206 08e6 f8ee 0d15 f4df f518 f203
00000020: f701 fae9 1214 0e13 f8ee f315 0002 0af5
00000030: ecf2 ea04 11fe e6ed ff0e f400 040c 1a1f
00000040: e424 fa15 f5fe 0d0d e0fe 1ce4 efe1 00ff
00000050: e8d5 18e3 001c eee8 ee3d ed2d ff08 02f2
00000060: 1e11 391b e1f2 de12 e619 11e4 0602 d30c
00000070: 0c18 dcf9 f202 fa00 040a 1a15 e926 f618
00000080: 1915 e517 f4f2 06f3 eaee fc11 f3d2 e8ef
00000090: fa03 06e1 ea2b eef1 0bf9 ee08 1712 1e08
000000a0: 1cfe f20f 1c01 0003 fbfa ddf1 060d e005
000000b0: f9fd ebf4 ecfd f9df 0b30 f610 f0f2 0527
000000c0: d53a 1aef 0904 c3e6 cf1a fb1c f9ea 4212
000000d0: 09ed 17ef 5909 204f f7ce 35c3 fe4c 26c5
000000e0: fe34 e321 1a1d 010b dde2 070d e5f0 e7f2
000000f0: ea0d 1909 0039 fa18 1408 ff1f d10b 03ee

std.constant14 f4 [240, 1]
0.39804614 0.8129086 0.34668884 0.7006349 0.7936681 0.8409093 -0.056649655 0.074216835
-0.02903456 -0.08776693 -0.25767428 0.64406544 0.07931774 1.1317542 -0.22401485 -0.2421528
0.353531 0.8374211 0.56057584 0.32796922 0.6191571 1.2661307 -0.26554805 0.46166417
0.3153143 0.10154296 1.2261094 0.34418982 0.1706564 0.8959381 0.5917351 0.8620105
0.7726714 -0.087832436 0.3319303 1.5833989 0.16101041 1.4043452 0.06365848 1.0239457
-0.56842744 0.43030274 1.1092789 1.2613146 -0.05667585 0.17420202 0.2600616 0.31926993
0.4485309 0.32423574 0.98488563 -0.74211466 0.5731897 0.4399632 0.4660609 0.483162
-0.99680156 0.3385325 0.4181135 0.2742941 -0.5602881 -0.1345508 0.16120656 -0.42316666
-0.028679237 -0.23688653 -0.42564616 -0.17701408 -0.16485602 -0.31400612 -0.22789425 -0.21966927
-0.7399875 -0.7801459 -0.47270045 -0.2605519 -0.19363031 0.24039908 -0.47595906 -0.43828943
-0.5357877 0.14498343 -0.2691559 -0.29377323 -0.064459726 -0.3657651 -0.42666268 -0.40442744
0.10474728 -0.07636642 -0.23850651 -0.75277644 -0.2444426 -0.2045775 -0.35674366 -0.24983983
-0.37279636 -0.24079883 -0.16136396 -0.500973 -0.533271 -0.2117827 -0.17696656 -0.45116565
-0.29797068 -0.49507645 -0.21921436 -0.5142508 -0.48759294 -0.07079218 0.0006276869 -0.18405347
-0.3341664 -0.20617828 0.044815026 0.0048169205 -0.32362828 -0.27869043 -0.7751459 -0.11825848
-0.046477105 0.5540536 0.5137369 0.588825 -0.57179 -0.25608876 0.36366585 -0.25773054
0.40539986 0.37257642 -0.21354373 -0.24435833 -0.023250625 -0.50770885 -0.23382682 -0.37874448
-0.4999772 -0.51659787 0.41419536 0.37078238 0.24240024 -0.4942279 -0.2275328 -0.48814943
0.24582715 0.5292314 -0.50567716 -0.55609995 -0.4712083 0.5790153 -0.45795968 0.19531496
-0.3785541 -0.3550105 -0.37494206 -0.47398868 0.44169533 0.5312049 0.3112976 0.54129714
0.19794862 -0.42620662 -0.599081 0.49329406 0.2190357 -0.21308254 0.40935388 -0.39738277
-0.41963878 -0.44883862 -0.56284523 -0.23622386 0.48260123 0.41089132 -0.52752703 -0.4059562
-0.32733688 0.3505016 -0.23727736 0.2724947 -0.015218627 0.6870913 0.77626586 0.8080543
0.5723874 0.6576909 -0.01189322 0.1297123 0.1260482 0.15457755 0.08715221 0.5445634
-1.0124687 0.55171615 -0.06654215 0.07145731 0.4614148 0.7533034 0.33830598 0.5545443
-0.48013487 1.2730463 0.11911023 0.46334043 0.1304123 0.1903958 1.1396818 0.41210923
0.5513485 1.240184 0.5735793 0.7853269 0.20345494 -0.030212238 0.25309965 1.0338211
0.07581568 1.0828874 0.15768188 0.5789238 0.020966776 0.37798664 1.2530053 1.1593324
0.1740974 -0.536717 0.38500336 0.050502587 0.030661263 0.50848347 0.6488179 -0.42445976
0.34752613 0.51974976 0.19248985 0.4328004 -1.185808 0.28574917 0.37514302 0.16759253
00000000: b4cc cb3e c71a 503f 3381 b13e cf5c 333f
00000010: d52d 4b3f d545 573f 7809 68bd fffe 973d
00000020: e3d9 edbc 26bf b3bd e2ed 83be 79e1 243f
00000030: 5771 a23d 52dd 903f 2664 65be e7f6 77be
00000040: 0402 b53e 3b61 563f e681 0f3f 95eb a73e
00000050: 1481 1e3f 9210 a23f eaf5 87be 3f5f ec3e
00000060: e070 a13e c1f5 cf3d 27f1 9c3f a639 b03e
00000070: 8dc0 2e3e 335c 653f f47b 173f b8ac 5c3f
00000080: cbcd 453f 7ee1 b3bd c5f2 a93e d1ac ca3f
00000090: eadf 243e 95c1 b33f 615f 823d a710 833f
000000a0: 7684 11bf a450 dc3e dafc 8d3f c272 a13f
000000b0: f024 68bd 0462 323e cb26 853e 5977 a33e
000000c0: d8a5 e53e 3a02 a63e 7721 7c3f 3afb 3dbf
000000d0: 8fbc 123f db42 e13e 899f ee3e 0261 f73e
000000e0: 632e 7fbf 2254 ad3e f912 d63e 4770 8c3e
000000f0: 0a6f 0fbf afc7 09be 5513 253e 4da9 d8be
00000100: b8f0 eabc 6292 72be 4bee d9be 2e43 35be
00000110: 04d0 28be 69c5 a0be 1c5d 69be fbf0 60be
00000120: d26f 3dbf a4b7 47bf cb05 f2be 0f67 85be
00000130: 0647 46be 2d2b 763e e8b0 f3be 7967 e0be
00000140: 6229 09bf 8976 143e cdce 89be 7269 96be
00000150: 7603 84bd 9045 bbbe 8873 dabe 1d11 cfbe
00000160: be85 d63d ff65 9cbd 0d3b 74be f5b5 40bf
00000170: 294f 7abe c47c 51be 1ba7 b6be 03d6 7fbe
00000180: 2adf bebe f893 76be 983c 25be c43f 00bf
00000190: 7384 08bf 90dd 58be b936 35be 2fff e6be
000001a0: 9d8f 98be a97a fdbe bb79 60be f1a5 03bf
000001b0: c8a5 f9be 7efb 90bd 5b8b 243a 8378 3cbe
000001c0: dc17 abbe 6620 53be f68f 373d 42d7 9d3b
000001d0: 9bb2 a5be 83b0 8ebe f66f 46bf 8131 f2bd
000001e0: c75e 3ebd 75d6 0d3f 4384 033f 3cbd 163f
000001f0: d460 12bf 111e 83be 6932 ba3e 42f5 83be
00000200: 9290 cf3e 56c2 be3e 35ab 5abe 1239 7abe
00000210: 1878 bebc 35f9 01bf 4c70 6fbe ccea c1be
00000220: 03fd ffbe c23f 04bf 6a11 d43e 30d7 bd3e
00000230: c537 783e 700b fdbe 5cfe 68be b9ee f9be
00000240: 1dba 7b3e b67b 073f 0f74 01bf 915c 0ebf
00000250: 3742 f1be 593a 143f b179 eabe a500 483e
00000260: d8d1 c1be f0c3 b5be 68f8 bfbe a5ae f2be
00000270: e425 e23e 0bfd 073f 6662 9f3e 7392 0a3f
00000280: 0bb3 4a3e c137 dabe 5f5d 19bf 0a91 fc3e
00000290: e54a 603e 4f32 5abe d596 d13e c175 cbbe
000002a0: e5da d6be 2dce e5be a016 10bf abe4 71be
000002b0: 8217 f73e 5960 d23e 030c 07bf 7ed9 cfbe
000002c0: b398 a7be f274 b33e d6f8 72be 6d84 8b3e
000002d0: 8c57 79bc 37e5 2f3f 5cb9 463f a6dc 4e3f
000002e0: fb87 123f 6e5e 283f c8db 42bc 4dd3 043e
000002f0: c812 013e 9449 1e3e dc7c b23d 8268 0b3f
00000300: 9398 81bf 453d 0d3f 4047 88bd 3658 923d
00000310: 903e ec3e 7ed8 403f 7136 ad3e 9ef6 0d3f
00000320: 3dd4 f5be 2ef3 a23f 10f0 f33d f53a ed3e
00000330: cd8a 053e 1ef7 423e 18e1 913f fbff d23e
00000340: 2d25 0d3f 59be 9e3f 18d6 123f 2f0b 493f
00000350: 7e56 503e a87f f7bc 4796 813e 4054 843f
00000360: 4045 9b3d 0e9c 8a3f 5c77 213e 5a34 143f
00000370: 84c2 ab3c 7787 c13e 7a62 a03f 0165 943f
00000380: 9746 323e 4966 09bf 291f c53e cddb 4e3d
00000390: 542d fb3c f92b 023f ee18 263f ca52 d9be
000003a0: f2ee b13e 520e 053f 0f1c 453e 0498 dd3e
000003b0: 8ec8 97bf b74d 923e bf12 c03e 609d 2b3e

lstm_1/lstm_cell_1/bias1 f4 [240]
-0.25892162 -0.30168968 -0.46756235 -0.44924316 -0.429189 -0.40090775 -0.4814309 -0.4113111
-0.32978198 -0.4160603 -0.06170244 -0.4032243 -0.36429715 -0.08655579 -0.37328398 -0.32214198
-0.24163596 -0.5085679 -0.10531919 -0.51934284 -0.42808717 -0.22857022 -0.40239972 -0.59134567
-0.29275033 -0.45577562 -0.43177035 -0.1715524 -0.43530014 -0.5305369 0.10704317 -0.4815354
-0.3064002 -0.17298503 -0.45955887 -0.4313328 -0.19395186 -0.48923963 -0.41718835 -0.26081058
-0.38135287 -0.37621328 -0.40127325 -0.44216192 -0.43269888 -0.5598533 -0.3574895 -0.34225425
-0.14728865 -0.40715954 -0.20444039 -0.42742974 -0.4328606 -0.19890973 -0.2371248 -0.3866733
-0.18412635 -0.41560185 -0.24920021 -0.48215422 0.77292424 0.74787134 0.7170275 0.64494395
0.34551197 0.5435083 0.7581003 0.6792792 0.34819618 0.65423703 0.50346845 0.7117314
0.75966895 0.4625659 0.70930976 0.45929134 0.6784028 0.6535511 0.617302 0.6623855
0.6660281 0.7419953 0.84666866 0.62245387 0.74376005 0.7530637 0.78548086 0.5319688
0.76608187 0.61121166 0.45897928 0.6871423 0.45490393 0.6418442 0.42822108 0.8084817
0.65780705 0.76345897 0.7725845 0.74161994 0.8079731 0.26634884 0.6844329 0.7125247
0.7964108 0.5181348 0.7926219 0.6961513 0.06308597 0.7622624 0.78568816 0.6256113
0.71291256 0.679064 0.4477156 0.7706357 0.6654733 0.82690537 0.8362539 0.645292
-0.019692132 0.025877709 -0.040778853 -0.01854513 0.03823769 -0.03089761 0.016816875 -0.0034086702
-0.05121588 -0.011066462 0.024176206 0.03108558 0.0036365679 -0.029114299 0.00789688 0.0065635676
-0.0019971784 0.006564162 0.0033975437 0.014764659 -0.04236061 -0.0032479013 -0.0016764434 -0.041270934
0.016985275 0.0036727837 -0.0022914873 0.0412401 0.0065176124 0.022478493 0.012439829 -0.00015232307
0.043696154 -0.019839108 -0.0060027116 0.027082546 -0.020102642 0.004695366 -0.04164648 0.002316633
-0.018124746 -0.036599614 0.015577948 -0.013172516 0.025090586 0.046863284 0.021145353 -0.018190173
0.07010207 -0.033975184 -0.007176549 -0.018870141 -0.0031473082 -0.017915333 -0.032587055 -0.013136138
0.026891636 0.015936779 0.02912356 0.016671168 -0.23482832 -0.33431718 -0.4928278 -0.38406187
-0.41488633 -0.40191182 -0.46466646 -0.40502676 -0.3950742 -0.36207858 -0.14866996 -0.38959935
-0.3110989 -0.06536021 -0.3777193 -0.29711783 -0.26472324 -0.48200417 -0.17906123 -0.5296606
-0.55095994 -0.13833244 -0.36365643 -0.63750136 -0.3006717 -0.42390838 -0.4146297 -0.16378634
-0.39348516 -0.5086448 0.045623504 -0.45500046 -0.29758254 -0.12248711 -0.4073699 -0.4670942
-0.19474512 -0.4658381 -0.3882222 -0.26716226 -0.38146853 -0.4765448 -0.33828858 -0.41636437
-0.40474477 -0.5430142 -0.36777347 -0.33705348 -0.18195175 -0.40591678 -0.25888512 -0.38353845
-0.4103581 -0.20351774 -0.2893509 -0.31685168 -0.58151335 -0.380431 -0.2345344 -0.48203745
00000000: 6091 84be 1277 9abe 5564 efbe 3303 e6be
00000010: a9be dbbe c843 cdbe 1c7e f6be 5e97 d2be
00000020: 2fd9 a8be db05 d5be b3bb 7cbd 6a73 cebe
00000030: 2885 babe 2944 b1bd 141f bfbe cbef a4be
00000040: 6b6f 77be 8231 02bf 96b1 d7bd a7f3 04bf
00000050: 3e2e dbbe 500e 6abe 5607 cebe 6e62 17bf
00000060: 5fe3 95be 6c5b e9be 0111 ddbe 6fab 2fbe
00000070: a9df debe 44d1 07bf 7339 db3d cf8b f6be
00000080: 7de0 9cbe fd22 31be 4d4b ebbe a7d7 dcbe
00000090: 519b 46be 9e7d fabe b699 d5be f788 85be
000000a0: af40 c3be 079f c0be b073 cdbe 0c63 e2be
000000b0: b58a ddbe 8c52 0fbf dd08 b7be f33b afbe
000000c0: d6d2 16be 3777 d0be d258 51be 12d8 dabe
000000d0: e89f ddbe feae 4bbe d8d0 72be 0bfa c5be
000000e0: 9e8b 3cbe c4c9 d4be 572e 7fbe ebdc f6be
000000f0: 5dde 453f 7f74 3f3f 1d8f 373f 0c1b 253f
00000100: f2e6 b03e 5c23 0b3f dc12 423f 3ee5 2d3f
00000110: c546 b23e 147c 273f 4fe3 003f 0734 363f
00000120: aa79 423f 70d5 ec3e 5395 353f 3c28 eb3e
00000130: ceab 2d3f 204f 273f 8107 1e3f 1992 293f
00000140: d180 2a3f 67f3 3d3f 47bf 583f 2359 1f3f
00000150: 0f67 3e3f c8c8 403f 4615 493f 1b2f 083f
00000160: f11d 443f 5e78 1c3f 55ff ea3e 8fe8 2f3f
00000170: 2be9 e83e e74f 243f cb3f db3e a8f8 4e3f
00000180: 0b66 283f 0c72 433f 19c8 453f ceda 3d3f
00000190: 53d7 4e3f e05e 883e ff36 2f3f 0568 363f
000001a0: 94e1 4b3f 7ba4 043f 45e9 4a3f f936 323f
000001b0: 3833 813d a123 433f dc22 493f 1028 203f
000001c0: 7081 363f 23d7 2d3f fb3a e53e 6248 453f
000001d0: 755c 2a3f 12b0 533f bc14 563f db31 253f
000001e0: 6551 a1bc 7dfd d33c ba07 27bd f5eb 97bc
000001f0: 209f 1c3d fc1c fdbc 8bc3 893c ff63 5fbb
00000200: bec7 51bd 1b50 35bc 2e0d c63c 30a7 fe3c
00000210: 7c53 6e3b 1c81 eebc ea61 013c 3213 d73b
00000220: 18e3 02bb 2f18 d73b 53a9 5e3b 78e7 713c
00000230: 5282 2dbd beda 54bb 1bbc dbba b60b 29bd
00000240: b424 8b3c 16b3 703b c72c 16bb 61eb 283d
00000250: b291 d53b d124 b83c 6dd0 4b3c eab8 1fb9
00000260: bdfa 323d a085 a2bc 65b2 c4bb 37dc dd3c
00000270: 4cae a4bc 96db 993b 8095 2abd a7d2 173b
00000280: 597a 94bc 7ae9 15bd a63a 7f3c 89d1 57bc
00000290: c68a cd3c b7f3 3f3d 0539 ad3c 8f03 95bc
000002a0: ad91 8f3d 9029 0bbd 4229 ebbb 8e95 9abc
000002b0: 1243 4ebb 2dc3 92bc 017a 05bd f538 57bc
000002c0: d94b dc3c d98d 823c 8894 ee3c f991 883c
000002d0: d676 70be 9f2b abbe ed53 fcbe c2a3 c4be
000002e0: fb6b d4be 63c7 cdbe c3e8 edbe ab5f cfbe
000002f0: 2a47 cabe 5d62 b9be f03c 18be 9179 c7be
00000300: 5b48 9fbe 93db 85bd 6d64 c1be d41f 98be
00000310: ce89 87be 40c9 f6be d45b 37be d697 07bf
00000320: b60b 0dbf 05a7 0dbe 2d31 babe 4a33 23bf
00000330: a4f1 99be 850a d9be 584a d4be 9bb7 27be
00000340: e376 c9be 8c36 02bf b6df 3a3d d2f5 e8be
00000350: bd5c 98be 86da fabd ca92 d0be f926 efbe
00000360: 446b 47be 5582 eebe 0fc5 c6be 7ec9 88be
00000370: d84f c3be aefd f3be 2934 adbe b62d d5be
00000380: b53a cfbe fb02 0bbf ce4c bcbe 4692 acbe
00000390: 8f51 3abe 53d4 cfbe 978c 84be 275f c4be
000003a0: 751a d2be f466 50be cd25 94be 623a a2be
000003b0: 0fde 14bf dac7 c2be c929 70be 9dcd f6be

std.constant23 i1 [240, 60] scale=0.010441737 zero_point=0
0.2819269 -0.10441737 0.2506017 0.11485911 -0.45943645 -0.18795127 0.0 0.07309216
-0.83533895 0.34457734 0.0 0.020883474 0.29236865 0.2506017 -0.31325212 -0.396786
-0.22971822 0.24015996 0.12530085 -0.052208684 0.34457734 -0.51164514 -0.0835339 0.0
0.0 -0.052208684 -0.07309216 -1.0441737 0.052208684 0.21927649 -0.04176695 0.010441737
-1.0024068 -0.2506017 0.32369384 -0.21927649 0.14618433 0.29236865 0.22971822 0.29236865
0.37590253 -1.2007998 -0.031325214 -0.11485911 0.031325214 0.15662606 0.1670678 0.14618433
-0.48031992 -0.07309216 0.2819269 0.14618433 -0.27148518 0.031325214 0.96063983 -0.31325212
0.5638538 0.12530085 0.24015996 -0.04176695 0.07309216 -0.04176695 0.5012034 -0.09397563
-0.13574259 -0.10441737 -0.15662606 0.2819269 -0.6891547 -0.010441737 -0.38634428 -0.40722775
-0.052208684 -0.020883474 -0.43855298 0.24015996 0.10441737 -0.0835339 -0.13574259 -0.30281037
0.48031992 0.020883474 0.12530085 0.3654608 -0.0835339 -0.11485911 0.20883474 -0.76224685
0.04176695 -0.2506017 -0.2506017 0.010441737 -0.6682712 -0.20883474 -0.052208684 -0.42811123
-0.11485911 0.20883474 0.15662606 -0.020883474 -0.07309216 -0.6787129 -0.26104343 0.21927649
-0.38634428 -0.26104343 -0.15662606 -0.0835339 -0.54297036 0.15662606 -0.07309216 0.32369384
0.198393 0.3654608 0.5638538 0.020883474 0.40722775 -0.27148518 -0.1670678 0.12530085
0.11485911 -0.0835339 0.04176695 -0.010441737 -0.0835339 0.10441737 0.031325214 -0.04176695
-0.42811123 0.10441737 -0.1670678 -0.020883474 0.13574259 -0.052208684 -0.18795127 0.010441737
-0.052208684 0.0835339 0.020883474 -0.13574259 0.22971822 -0.09397563 -0.0835339 -0.09397563
0.0 0.010441737 -0.052208684 -0.34457734 0.0 0.031325214 -0.14618433 0.04176695
-0.20883474 -0.10441737 0.052208684 0.020883474 0.020883474 0.12530085 0.15662606 0.12530085
0.15662606 -0.49076164 -0.09397563 -0.052208684 0.04176695 0.06265043 0.11485911 0.10441737
-0.30281037 -0.031325214 0.198393 -0.010441737 0.031325214 0.13574259 0.22971822 -0.0835339
0.62650424 0.052208684 0.052208684 -0.031325214 0.62650424 0.13574259 0.2819269 0.5534121
-0.48031992 -0.20883474 0.20883474 -0.04176695 -0.35501906 0.5742955 0.15662606 0.198393
0.40722775 0.74136335 -0.21927649 -0.198393 -0.26104343 0.396786 0.595179 -0.45943645
0.65782946 -0.5638538 -0.22971822 0.12530085 0.31325212 -0.0835339 -0.396786 -0.32369384
-0.17750953 0.21927649 0.45943645 -0.07309216 -0.42811123 -0.43855298 0.1670678 -0.15662606
0.5534121 0.49076164 0.32369384 0.5742955 0.3341356 -0.198393 0.30281037 -0.14618433
0.052208684 0.14618433 0.14618433 0.49076164 -0.35501906 -0.1670678 0.24015996 -0.06265043
0.14618433 -0.31325212 0.45943645 -0.6995964 0.42811123 0.31325212 0.31325212 0.30281037
0.5325286 0.09397563 -0.0835339 0.5012034 -0.2506017 -0.17750953 0.2819269 -0.2819269
-0.31325212 0.49076164 0.32369384 0.3654608 0.4489947 0.49076164 0.14618433 -0.031325214
00000000: 1bf6 180b d4ee 0007 b021 0002 1c18 e2da
00000010: ea17 0cfb 21cf f800 00fb f99c 0515 fc01
00000020: a0e8 1feb 0e1c 161c 248d fdf5 030f 100e
00000030: d2f9 1b0e e603 5ce2 360c 17fc 07fc 30f7
00000040: f3f6 f11b beff dbd9 fbfe d617 0af8 f3e3
00000050: 2e02 0c23 f8f5 14b7 04e8 e801 c0ec fbd7
00000060: f514 0ffe f9bf e715 dbe7 f1f8 cc0f f91f
00000070: 1323 3602 27e6 f00c 0bf8 04ff f80a 03fc
00000080: d70a f0fe 0dfb ee01 fb08 02f3 16f7 f8f7
00000090: 0001 fbdf 0003 f204 ecf6 0502 020c 0f0c
000000a0: 0fd1 f7fb 0406 0b0a e3fd 13ff 030d 16f8
000000b0: 3c05 05fd 3c0d 1b35 d2ec 14fc de37 0f13
000000c0: 2747 ebed e726 39d4 3fca ea0c 1ef8 dae1
000000d0: ef15 2cf9 d7d6 10f1 352f 1f37 20ed 1df2
000000e0: 050e 0e2f def0 17fa 0ee2 2cbd 291e 1e1d
000000f0: 3309 f830 e8ef 1be5 e22f 1f23 2b2f 0efd

std.constant24 i1 [240, 60] scale=0.013521117 zero_point=0
-0.067605585 -0.18929563 0.36507016 0.20281675 -0.081126705 0.4732391 0.10816894 -0.43267575
0.21633787 0.18929563 0.18929563 0.17577453 -0.50028133 0.21633787 -0.36507016 -0.28394347
0.013521117 0.027042234 0.32450682 0.067605585 -0.48676023 -0.12169006 0.32450682 -0.13521117
-0.24338011 -0.37859127 -0.33802792 -0.48676023 -0.9599993 -0.05408447 -0.56788695 0.48676023
-0.067605585 -0.5408447 -0.21633787 0.027042234 -0.05408447 0.229859 0.4732391 0.29746458
0.62197137 -0.16225341 -0.14873229 0.32450682 -0.36507016 0.4732391 0.43267575 -0.5408447
0.5543658 -0.28394347 0.067605585 -0.4056335 0.811267 0.56788695 -0.37859127 0.32450682
-0.98704153 0.25690123 -0.12169006 0.17577453 -0.05408447 -0.33802792 -0.040563352 -0.41915464
0.32450682 0.14873229 0.4056335 -0.4732391 -0.14873229 0.0 -0.09464782 0.24338011
-0.4732391 0.33802792 -0.44619685 0.081126705 0.21633787 0.5543658 0.013521117 -0.013521117
-0.31098568 0.50028133 -0.09464782 -0.229859 -0.040563352 -0.5543658 0.32450682 -0.09464782
-0.33802792 -0.3921124 -0.33802792 -0.16225341 0.35154906 -0.459718 0.12169006 0.6354925
-0.28394347 -0.14873229 -0.013521117 -0.48676023 0.24338011 0.10816894 0.459718 -0.35154906
-0.05408447 0.35154906 0.013521117 -0.20281675 0.41915464 -0.10816894 0.14873229 -0.081126705
0.27042234 0.12169006 0.10816894 0.25690123 -0.8923937 0.35154906 -0.27042234 0.51380247
-0.16225341 -0.25690123 -0.040563352 -0.20281675 0.18929563 0.36507016 0.25690123 -0.05408447
-0.067605585 -0.17577453 0.027042234 0.28394347 -0.20281675 0.229859 -0.17577453 0.027042234
-0.027042234 0.35154906 -0.067605585 -0.20281675 -0.20281675 0.5408447 -0.067605585 0.05408447
-0.13521117 -0.52732354 0.35154906 0.14873229 0.013521117 -0.48676023 0.17577453 -0.24338011
0.14873229 -0.33802792 0.081126705 0.32450682 0.10816894 -0.25690123 -0.18929563 -0.35154906
0.36507016 0.17577453 0.36507016 -0.16225341 0.027042234 0.24338011 -0.09464782 0.12169006
0.14873229 0.081126705 0.14873229 -0.44619685 -0.027042234 0.10816894 0.17577453 0.12169006
-0.10816894 -0.040563352 -0.05408447 -0.040563352 0.29746458 -0.4056335 0.10816894 0.09464782
0.040563352 0.229859 -0.18929563 -0.20281675 0.25690123 0.09464782 0.20281675 0.09464782
-0.32450682 0.040563352 -0.17577453 0.20281675 0.040563352 0.41915464 0.229859 0.20281675
-0.05408447 0.13521117 0.13521117 -0.027042234 -0.25690123 -0.35154906 -0.17577453 -0.10816894
-0.5543658 -0.20281675 -0.027042234 0.28394347 0.067605585 -0.33802792 -0.09464782 0.36507016
-0.44619685 0.16225341 -0.16225341 -0.10816894 -0.013521117 -0.35154906 0.067605585 0.13521117
-0.21633787 0.067605585 0.28394347 -0.37859127 0.29746458 -0.28394347 0.229859 0.14873229
0.44619685 0.48676023 0.17577453 0.52732354 -0.27042234 0.027042234 0.18929563 0.05408447
0.36507016 -0.37859127 -0.081126705 -0.10816894 0.28394347 0.229859 -0.25690123 -0.067605585
-0.17577453 -0.229859 0.35154906 -0.040563352 0.027042234 -0.040563352 0.14873229 0.28394347
00000000: fbf2 1b0f fa23 08e0 100e 0e0d db10 e5eb
00000010: 0102 1805 dcf7 18f6 eee4 e7dc b9fc d624
00000020: fbd8 f002 fc11 2316 2ef4 f518 e523 20d8
00000030: 29eb 05e2 3c2a e418 b713 f70d fce7 fde1
00000040: 180b 1edd f500 f912 dd19 df06 1029 01ff
00000050: e925 f9ef fdd7 18f9 e7e3 e7f4 1ade 092f
00000060: ebf5 ffdc 1208 22e6 fc1a 01f1 1ff8 0bfa
00000070: 1409 0813 be1a ec26 f4ed fdf1 0e1b 13fc
00000080: fbf3 0215 f111 f302 fe1a fbf1 f128 fb04
00000090: f6d9 1a0b 01dc 0dee 0be7 0618 08ed f2e6
000000a0: 1b0d 1bf4 0212 f909 0b06 0bdf fe08 0d09
000000b0: f8fd fcfd 16e2 0807 0311 f2f1 1307 0f07
000000c0: e803 f30f 031f 110f fc0a 0afe ede6 f3f8
000000d0: d7f1 fe15 05e7 f91b df0c f4f8 ffe6 050a
000000e0: f005 15e4 16eb 110b 2124 0d27 ec02 0e04
000000f0: 1be4 faf8 1511 edfb f3ef 1afd 02fd 0b15
