DATN_LSTM_SMGW-main/rx_service/src/LSTM_model/LSTM_model_6_temp.tflite (tflite, 231824 bytes, 17 tensors)

lstm_8/lstm_cell_3/bias f4 [480]
000000 8d cf 12 bf ae 97 3b bf 79 58 45 bf 0b fb 0f bf
       -0.5734795 -0.7327832 -0.77088124 -0.56242436
000010 ba 7d 1f bf 8f 88 e1 be a6 e5 18 bf 87 1d 21 bf
       -0.6230122 -0.44049498 -0.59725416 -0.6293568
000020 43 2c 08 bf 1c 0a 57 be c2 30 38 bf 18 45 41 bf
       -0.5319254 -0.2099995 -0.719494 -0.75496054
000030 3e 01 13 bf 2e 7c 62 be aa 0f 3f be 2a 35 cc be
       -0.5742377 -0.22117683 -0.18658319 -0.3988431
000040 4c b3 58 3e 8c e8 d1 be dc 95 b6 3d 7b 4b 33 bf
       0.21162146 -0.40997732 0.08915302 -0.7003705
000050 03 7e 3e bf f7 cd 28 bf b0 bd 06 bf a6 10 fd be
       -0.7441103 -0.6593928 -0.5263319 -0.49426764
000060 b7 17 b7 be 66 83 19 bf a4 11 2c bf 22 f0 50 bf
       -0.3576028 -0.59966123 -0.6721442 -0.81616414
000070 1a ae 9a be a0 5d 28 bf e0 b2 27 bf 84 15 34 bf
       -0.30210954 -0.6576786 -0.65507317 -0.7034533
000080 8b fd 1b bf df 43 4c bf d3 ca 60 be 7d 0b 1c bf
       -0.6093375 -0.79791063 -0.21952371 -0.6095503
000090 03 95 ac be 28 0a 38 bf 4e 69 13 bf 6b 3b 03 bf
       -0.33707437 -0.718905 -0.5758256 -0.5126254
0000a0 4c 84 27 bf db 74 32 bf f0 ef 20 bf 96 c4 14 bf
       -0.65436244 -0.6970956 -0.62866116 -0.58112466
0000b0 29 0b 37 bf 8e f8 26 bf 76 65 37 bf e9 a1 3d bf
       -0.71501404 -0.65223014 -0.7163919 -0.7407518
0000c0 44 78 15 bf 7f 42 42 bf ed 9f b7 be 8d 10 3b bf
       -0.58386636 -0.75882715 -0.358642 -0.7307213
0000d0 94 af 3e bf f3 0d 20 bf 1d 64 ac be 77 e2 0a bf
       -0.7448666 -0.62521285 -0.3367013 -0.5425181
0000e0 e6 0c e8 be fc b1 3b bf e4 58 98 be 01 f8 34 bf
       -0.4532234 -0.7331846 -0.29755318 -0.70690924
0000f0 ff da 11 bf 72 fb 36 bf b0 0c 04 bf bd de 47 bf
       -0.56974787 -0.71477425 -0.5158186 -0.78074247
000100 97 07 01 bf 3c bf 28 bf d3 f5 39 bf 53 b4 51 3e
       -0.50402206 -0.659168 -0.72640723 0.20478944
000110 d7 52 99 3e ad 07 17 bf 12 9d 1d bf c7 c4 0e bf
       0.29946014 -0.5899609 -0.61567795 -0.5576901
000120 97 3d 1a bf 27 41 b4 be 3f 80 92 be f0 f6 23 bf
       -0.6025023 -0.35205957 -0.2861347 -0.6404867
000130 07 f2 13 bf 10 6e 23 bf a1 e8 33 bf 2c 8a 21 bf
       -0.5779118 -0.6383982 -0.7027684 -0.6310146
000140 0b 49 31 bf b1 5c 10 bf 6c 26 21 bf b3 5d 78 be
       -0.6925208 -0.56391436 -0.6294925 -0.24254493
000150 4c 88 29 bf b1 61 18 bf 72 95 1a bf b3 df 40 bf
       -0.662236 -0.59524065 -0.60384285 -0.7534134
000160 97 3e 26 bf e1 9d c0 be 61 1b 1a bf d3 48 21 bf
       -0.64939255 -0.37620452 -0.60198027 -0.63001746
000170 8d ec 22 bf 45 fb 2d bf 4e e3 f5 be ea af 2b bf
       -0.636422 -0.6796153 -0.48024982 -0.670653
000180 c9 73 0b bf 78 bc 00 bf 1e 8b 27 bf 25 a8 1d bf
       -0.5447355 -0.5028758 -0.6544665 -0.61584693
000190 5e a9 2d bf fd 3d be be c3 a4 02 bf 87 93 08 bf
       -0.6783656 -0.37156668 -0.51032656 -0.5335011
0001a0 3e 09 2e bf c0 b3 41 bf 9f 2f 3b bf ab 2b 3c bf
       -0.6798285 -0.756649 -0.7311954 -0.7350413
0001b0 12 02 1f bf e9 63 3d bf f9 7e ab be 54 c7 01 bf
       -0.62112534 -0.73980576 -0.3349531 -0.50694776
0001c0 0d 12 31 bf ed 17 00 3c 2c 8e 12 bf 4b ba 2c bf
       -0.6916817 0.007818204 -0.5724819 -0.6747176
0001d0 3d 87 21 bf 60 01 3f bf 97 bd 31 bf 39 e0 31 bf
       -0.6309698 -0.74611473 -0.69429916 -0.6948276
0001e0 1e 6a 5e 3f 29 5e f9 3e 20 57 0a 3f fe 7a 2c 3f
       0.8688067 0.4870465 0.5403919 0.6737517
0001f0 1b c6 38 3f a4 3c 02 3f 71 66 4a 3f 9b 17 12 3f
       0.72177285 0.5087378 0.79062563 0.5706727
000200 88 0c 1f 3f 03 a3 4b 3f 36 52 f6 3e ee 8b 22 3f
       0.62128496 0.7954561 0.48109597 0.63494766
000210 2d 66 57 3f cb 40 99 3f c6 57 9d 3f 3a 69 88 3f
       0.8414028 1.1972898 1.2292411 1.0657113
000220 0e d4 5d 3f 99 a7 2d 3f 2f f0 5b 3f ad 3a 0c 3f
       0.86651695 0.6783386 0.85913366 0.5477703
000230 7b 2b 1e 3f 7b ac 2d 3f 91 6f 70 3f a6 4d ff 3e
       0.61785096 0.6784131 0.93920237 0.4986393
000240 b1 10 2d 3f 42 c0 2f 3f 98 29 06 3f 05 cb 02 3f
       0.67603594 0.6865274 0.5240722 0.51091033
000250 29 7e 4d 3f 6b 68 1e 3f 0a 96 2f 3f f8 4a 23 3f
       0.8027063 0.6187808 0.68588316 0.6378627
000260 dc b4 f6 3e 3e 3c eb 3e f7 2e 2e 3f d8 2d 2c 3f
       0.4818486 0.459444 0.6804041 0.6725745
000270 b5 f3 61 3f 2c 33 1c 3f 06 12 53 3f f3 f4 0b 3f
       0.8826249 0.6101558 0.82449377 0.5467064
000280 77 51 2f 3f 17 e3 02 3f 24 16 2c 3f 49 ec 43 3f
       0.6848368 0.5112776 0.67221284 0.7653242
000290 d9 ab ef 3e 74 67 43 3f be 4a 11 3f 7d 9a fa 3e
       0.46810797 0.7632973 0.5675467 0.4894599
0002a0 15 74 2a 3f 2d 4d fb 3e 8b 3d 48 3f 0c 32 f9 3e
       0.6658338 0.49082318 0.7821891 0.48670995
0002b0 e7 a2 0c 3f e6 22 3a 3f 0d b0 8f 3f 15 2c 58 3f
       0.5493607 0.727095 1.1225601 0.84442264
0002c0 a5 55 79 3f 09 29 f8 3e 60 c7 6a 3f b6 1b 05 3f
       0.9739631 0.48468807 0.9171047 0.5199541
0002d0 e0 96 26 3f 1f ca 1f 3f 7c d8 23 3f 89 92 ff 3e
       0.65073967 0.6241779 0.64002204 0.49916485
0002e0 7c 05 4c 3f d2 76 32 3f 2c 81 21 3f 0e bb 77 3f
       0.7969587 0.69712555 0.63087726 0.967698
0002f0 70 d7 59 3f bc b9 56 3f c7 cd 40 3f 53 52 75 3f
       0.85094357 0.8387716 0.7531399 0.9582874
000300 91 ee 33 3f da f5 89 3f 04 53 62 3f 37 c9 25 3f
       0.702859 1.0778153 0.8840792 0.64760154
000310 e7 61 3e 3f c5 cf 0d 3f be ed 2d 3f fa c8 21 3f
       0.7436814 0.55395156 0.6794089 0.6319729
000320 f9 9e 10 3f a3 70 57 3f 60 f7 4b 3f 80 2d 40 3f
       0.56492573 0.84156245 0.7967434 0.7506943
000330 72 74 27 3f a0 49 44 3f 43 ab 4c 3f a0 b8 0f 3f
       0.65412056 0.7667484 0.79948825 0.5614109
000340 c6 d8 29 3f 95 1a 8a 3f 4b 6b 31 3f 09 49 54 3f
       0.66346395 1.0789362 0.6930434 0.8292394
000350 fb bd 29 3f dc 6e 46 3f 5f 2a 77 3f eb af 18 3f
       0.6630551 0.7751291 0.9654903 0.5964343
000360 f3 aa 58 3f b4 d4 3f 3f 0a 88 0a 3f 9f 29 3c 3f
       0.8463585 0.74933934 0.5411383 0.7350101
000370 c8 4e 24 3f f7 21 8e 3f be c1 7b 3f 0e 68 06 3f
       0.6418271 1.1104115 0.983425 0.52502525
000380 a1 45 0d 3f d1 07 0e 3f 9b f6 11 3f 81 8a f9 3e
       0.5518437 0.55480677 0.57016915 0.48738483
000390 18 24 fe 3e c2 78 0b 3f 2a 0e 88 3f c7 7f f3 3e
       0.49636912 0.54481137 1.0629323 0.47558424
0003a0 a2 e1 24 3f 26 a6 6b 3f 8d fa 50 3f ea 28 2a 3f
       0.6440679 0.920504 0.8163231 0.6646868
0003b0 2f 16 0c 3f 82 92 0c 3f ea 2d 0c 3f 48 15 08 3f
       0.5472135 0.54911053 0.5475756 0.5315747
0003c0 7a c0 b5 3c b8 0f 88 bc c1 e1 02 3c 45 bf 07 3d
       0.022186507 -0.016609058 0.007988394 0.033141393
0003d0 dd c9 7e 3c 5d 34 b0 3c c5 3c ea bc d7 36 2d bc
       0.015551058 0.021509344 -0.02859343 -0.010572157
0003e0 d7 6b 98 bb 46 32 cf 3d 79 44 d7 3c a5 5f 30 3d
       -0.0046515274 0.10117011 0.026277767 0.043059964
0003f0 1e 50 11 3d 36 85 8f 3c d3 f3 5c bb c0 2e f5 bc
       0.035476796 0.017519575 -0.0033714666 -0.029929519

lstm_7/lstm_cell_2/bias f4 [320]
000000 9b e6 10 bf 8e 93 0d bf f4 00 ed be 1e 29 f2 be
       -0.56601876 -0.55303276 -0.4628979 -0.47296995
000010 db c9 53 bf c6 c0 d4 be a7 64 ba be b0 13 1f bf
       -0.8272988 -0.41553324 -0.36404917 -0.62139416
000020 81 63 b5 be 5a 34 03 bf 4a 08 44 bf 99 ba 92 bf
       -0.35427478 -0.5125176 -0.7657515 -1.1463195
000030 27 18 1e bf fc b7 c9 be 6a 35 f3 be 07 b4 8b be
       -0.61755604 -0.3939818 -0.4750169 -0.27285787
000040 e9 6d 0a bf 2b dd 1e bf f2 d4 0d bf ce 68 11 bf
       -0.5407396 -0.62056226 -0.55403054 -0.56800544
000050 b4 8c 0b bf d0 65 f4 be af ef 8c be 76 a6 37 bf
       -0.5451157 -0.47733927 -0.27526614 -0.71738374
000060 3b 77 c7 be b0 ba 07 bf d2 c5 3b bf a3 08 fd be
       -0.38958153 -0.5301924 -0.73348725 -0.49420652
000070 14 72 88 bf 7c 24 24 bf b5 dc f8 be 5e 4b 31 be
       -1.0659814 -0.6411817 -0.48605886 -0.17313907
000080 ff ea 6f be 55 4e c5 be 10 00 13 bf 48 d9 8e 3e
       -0.23429488 -0.38536325 -0.5742197 0.27900147
000090 2b d8 ab be b2 7d 0b bf 15 ef 15 bf 15 f0 d2 be
       -0.3356336 -0.5448867 -0.58567935 -0.41198793
0000a0 62 68 97 3c 6b ab 33 bf 74 95 1e bf 3f b6 2b bf
       0.01848239 -0.7018344 -0.619468 -0.6707496
0000b0 24 70 36 be 30 c9 38 bf be b8 44 bf e8 df 0a bf
       -0.17816216 -0.7218199 -0.76844394 -0.54247904
0000c0 76 6c 0e bf 3b f5 45 bf b4 e8 0a bf 8c 16 f3 be
       -0.5563425 -0.77327317 -0.54261327 -0.4747814
0000d0 96 a2 35 bf e6 af ec be a8 19 c9 be 16 53 06 bf
       -0.7095121 -0.4622795 -0.39277387 -0.5247053
0000e0 fa c2 26 bf 60 a6 f7 be 7a 90 34 bf 31 0e 91 be
       -0.6514126 -0.48369122 -0.70532954 -0.2833114
0000f0 a7 a3 04 bf 57 16 03 be c4 60 49 bf a5 f8 3d bf
       -0.51812214 -0.1280149 -0.7866328 -0.74207526
000100 c1 52 04 bf 1f a1 96 be fb 25 c7 be fa 4a eb be
       -0.5168877 -0.294198 -0.38896164 -0.4595564
000110 fd 8e 1e bf 77 db d5 bd 56 c1 09 bf 68 37 e9 be
       -0.6193693 -0.1044225 -0.5381063 -0.45550084
000120 28 18 23 bf e4 e4 3b bf e5 f2 d4 be 89 31 03 bf
       -0.63708735 -0.73396134 -0.41591564 -0.5124746
000130 9b e6 4c bf 8b 43 3f bf b7 a7 a1 be 5a 48 e4 be
       -0.80039376 -0.7471244 -0.3157327 -0.4458645
000140 5e 39 19 3f b2 fc 2a 3f a4 dc 31 3f 04 c3 00 3f
       0.5985316 0.6679183 0.69477296 0.5029757
000150 ad b5 d8 3e f9 ba be 3e cd a0 68 3f 96 6f 18 3f
       0.42326108 0.37252024 0.9087036 0.59545267
000160 69 62 20 3f 7b 3c 28 3f 43 e3 d4 3e 4b bc 55 3c
       0.6265016 0.65717286 0.41579637 0.013045381
000170 42 4a 07 3f 4a dd 11 3f 35 ba 3f 3f 11 03 ca 3e
       0.52847683 0.56978285 0.74893504 0.39455464
000180 55 a7 30 3f fb 57 13 3f ed c4 0b 3f 0a da ff 3e
       0.6900533 0.5755612 0.5459736 0.49971038
000190 78 5d d9 3e 47 c4 51 3f 9c 67 57 3f a2 8d 06 3f
       0.42454123 0.8194012 0.8414247 0.52559865
0001a0 6b 97 2f 3f 6b e3 4e 3f 91 5a f1 3e eb 1c 44 3f
       0.6859042 0.8081576 0.4713941 0.76606625
0001b0 ac 8f d2 3c 0d ba fa 3e d7 3f 38 3f 14 a6 8c 3f
       0.025703274 0.4897007 0.7197241 1.0988183
0001c0 87 53 0f 3f ba 0c 35 3f 5e e9 3a 3f 46 b6 02 3f
       0.5598683 0.70722544 0.7301234 0.5105938
0001d0 ac 65 27 3f 84 52 0e 3f 6f f3 2c 3f f8 dc 4c 3f
       0.65389514 0.5559466 0.6755895 0.8002467
0001e0 8a d9 29 3f e3 9d f2 3e ea a4 19 3f c5 17 10 3f
       0.66347563 0.47386083 0.60017264 0.5628627
0001f0 87 9c 07 3f 30 03 06 3f f3 5b 7a 3e e8 cd 3d 3f
       0.52973217 0.52348614 0.24449138 0.74142313
000200 1b 54 23 3f 95 18 05 3f e6 52 2b 3f 0d 8b 3f 3f
       0.6380021 0.51990634 0.6692337 0.7482155
000210 d0 7c 03 3f fd 95 00 3f a8 b1 59 3f 66 03 0f 3f
       0.51362324 0.50228864 0.85036707 0.5586456
000220 bf 41 14 3f 5d 1d 00 3f 65 74 0a 3f d9 27 1d 3f
       0.5791282 0.50044805 0.54083854 0.6138893
000230 bb 34 2b 3f 16 0e 44 3f 31 f5 8f 3e 27 9e 00 3f
       0.66877335 0.76583993 0.28116754 0.5024132
000240 e6 f3 48 3f 75 f5 13 3f 50 66 57 3f a4 ea 2b 3f
       0.7849716 0.5779641 0.8414049 0.6715491
000250 2a b6 00 3f 6a 30 26 3f b6 ab 3c 3f ed f4 4d 3f
       0.5027796 0.64917624 0.7369951 0.8045185
000260 35 4b 25 3f de b7 ed 3e 08 96 4f 3f f2 50 43 3f
       0.6456788 0.46429342 0.81088305 0.7629539
000270 ff 56 bf 3e 5c c6 e3 3e a1 b7 5f 3f 9d 9f ee 3e
       0.3737106 0.44487274 0.8738957 0.4660615
000280 f5 52 21 3a e8 0a 28 3c f8 d3 4d 3c f1 c4 dc 3b
       0.0006154024 0.0102565065 0.012562744 0.0067373444
000290 ba 1f 3f 3c 5b e5 aa bc ca 6f b0 bc 1d 8c 28 bb
       0.011665279 -0.020861318 -0.02153768 -0.002571828
0002a0 ab 73 68 bc 4a 8e 71 bc 3b 55 b6 3c 5a 85 38 3d
       -0.014187734 -0.014743397 0.022257438 0.04504905
0002b0 a7 e1 c2 bc ea 00 44 3c aa 30 74 3b ac 2b ff 3c
       -0.02378924 0.011963109 0.0037260451 0.031148754
0002c0 88 90 73 3a c4 57 e0 3b 95 1e 55 3b d5 14 cf 3b
       0.0009291251 0.0068464 0.003251945 0.006319622
0002d0 ba e3 01 bd b8 e0 44 3c f5 1f 4a 3c 6e 16 b8 3c
       -0.031711318 0.012016468 0.012336721 0.022471633
0002e0 5d 2e ac bb 7c c9 7a bc e7 51 b3 3c ee 23 10 3d
       -0.0052545504 -0.015306827 0.02188964 0.035190515
0002f0 5e c4 d7 bc 9e 7d 1d 3c e0 db 1a bc 9b f3 94 bc
       -0.026338752 0.009612469 -0.009451836 -0.018182566
000300 13 c7 a7 bc ec f6 e6 3b 65 6c ed 3b 93 68 cb 3c
       -0.020480668 0.0070484784 0.0072455877 0.024830138
000310 4e d8 72 bc fa 52 92 3c e1 ad bd bc 12 bd bd bc
       -0.014822079 0.017861832 -0.023154201 -0.023161445
000320 a1 d5 81 bd b1 1e ba bb 3a 09 2c bc 0b fd c3 bc
       -0.063395746 -0.005679928 -0.010500247 -0.023924371
000330 4e 05 9c 3c a2 0a bc bc 23 52 0c bd 6c fd 47 bc
       0.019045498 -0.022954289 -0.03425802 -0.012206417
000340 2d 23 ed bb d6 fb e3 3c 77 63 a3 bb 49 90 67 3c
       -0.0072368593 0.027830046 -0.0049862224 0.014133521
000350 f1 3b fa 3c f6 a9 4a 3c 38 6b 3a 3c 92 7e 74 3c
       0.03054616 0.012369623 0.011378102 0.014922755
000360 25 8a 05 bb 9f c6 4c ba 60 20 70 3c 61 65 87 3c
       -0.002037653 -0.0007811579 0.014656156 0.016527833
000370 09 1c d2 bc b3 23 64 bb 88 73 c6 bb e6 95 bd 3b
       -0.025648134 -0.0034811317 -0.006056253 0.0057856916
000380 88 6a b2 3c 3c 58 f2 38 d5 89 e0 3b 73 cd ac 3c
       0.021779314 0.00011555894 0.0068523684 0.02109406
000390 2b f3 bf 3c 9f de e1 bc f3 4a e6 3b 3a 4b 94 3c
       0.023431381 -0.027571974 0.0070279776 0.018102277
0003a0 2e db 77 3b 8f ce 63 bc 7a a7 9b 3c 25 ef b5 bb
       0.003781985 -0.013904228 0.019000757 -0.00555219
0003b0 27 59 38 bd b5 72 09 3c a5 2c 93 3c 5a d0 24 bc
       -0.045006897 0.008389165 0.017965624 -0.0100594405
0003c0 87 bb 10 bf 87 6c 0d bf 68 78 ed be 59 27 e5 be
       -0.56536144 -0.55243725 -0.46380925 -0.44756582
0003d0 a6 ca 53 bf 81 66 e5 be 83 6e bf be e7 11 1d bf
       -0.8273109 -0.44804767 -0.37389 -0.6135544
0003e0 f2 9c a7 be a1 df 01 bf e0 37 44 bf 89 02 92 bf
       -0.32736927 -0.50731856 -0.7664776 -1.1407024
0003f0 1f ec 1c bf 7a f4 cc be 20 f0 f3 be f9 27 78 be
       -0.6129779 -0.4003027 -0.47644138 -0.24233998

lstm_6/lstm_cell_1/bias f4 [240]
000000 1d 92 da be b4 b1 02 bf d2 f3 e5 bd 88 b2 17 bf
       -0.426896 -0.51052403 -0.11228146 -0.5925679
000010 bc d6 90 be cb 1d 1d be 7c 92 21 be 54 70 ab 3d
       -0.2828883 -0.15343396 -0.15778536 0.08371034
000020 45 ce f1 be 02 8f 7b 3f 2c 8d 5f be 60 8e b1 bd
       -0.47227684 0.9826509 -0.21831197 -0.08669734
000030 40 ee 20 3f 67 d5 22 bd b4 0d 30 3f 2a 01 39 be
       0.6286354 -0.039754298 0.6877091 -0.1806685
000040 78 11 44 be 48 4f a8 be a3 a2 49 be b8 07 a5 bd
       -0.19147289 -0.32872987 -0.19690947 -0.08058113
000050 cc 9b 78 be 2c 49 60 be fd 67 b2 bc 2c 72 6a bc
       -0.24278182 -0.21902913 -0.021778101 -0.014309447
000060 da 15 cc be 73 d8 a2 be 8f bb b3 be 6d d7 86 be
       -0.3986042 -0.31805763 -0.35104033 -0.26336232
000070 f2 9d ca be b6 1b 5f be 53 a5 4f be 3f a2 0b bf
       -0.39573628 -0.21787915 -0.2027791 -0.5454444
000080 0c de b6 be 96 b6 16 be 72 38 b1 bc 8b c0 40 be
       -0.35716283 -0.14718089 -0.02163336 -0.1882345
000090 53 7c 9b be 54 4f 06 bf 1d 0c 7c be d0 49 53 be
       -0.3036829 -0.52464795 -0.24613996 -0.20633626
0000a0 89 f1 30 bd 4a b4 7c be e4 e8 08 bf 73 8f 44 be
       -0.043199096 -0.2467815 -0.5348036 -0.19195347
0000b0 11 42 43 be ed 79 44 be 79 ca 1f be 02 b2 83 be
       -0.19068171 -0.19187136 -0.15604581 -0.25721747
0000c0 d4 3f 8d be f7 ac 8c be 51 01 e5 be 20 2e 9b 3d
       -0.2758776 -0.27475712 -0.44727567 0.07577157
0000d0 dd 05 b8 3d 1f 38 a3 bd 3d cb 63 be 34 f6 6f be
       0.08985493 -0.079696886 -0.22245498 -0.23433763
0000e0 b0 de 44 bd 78 25 e3 be 35 a3 3e be d5 f8 b1 be
       -0.048063934 -0.44364524 -0.18616946 -0.34760156
0000f0 94 cb 05 3f 13 c5 44 3f d8 db b7 3e a1 87 0c 3f
       0.5226376 0.7686321 0.35909915 0.54894453
000100 4f 2e 61 3f d4 8e 3b 3f 52 0b 45 3f 83 c5 cb 3e
       0.87961286 0.73264813 0.769704 0.39799127
000110 91 04 46 3f 37 08 02 3f 2e 09 34 3f 6c e0 05 3f
       0.7735072 0.50793785 0.7032651 0.52295566
000120 f4 aa 13 3f cb 2f 92 3f c8 19 da 3e da 6d eb 3e
       0.5768273 1.1420835 0.42597795 0.45982248
000130 0a 97 87 3f 49 b4 0c 3f 21 7f 8a 3f d2 6c df 3e
       1.0592968 0.54962593 1.0820047 0.4363771
000140 ab 58 84 3f b2 c6 24 3f f0 ec af 3f 0e d4 eb 3e
       1.0339559 0.64365685 1.3744183 0.46060222
000150 31 72 42 3f 6f 00 3f 3f ff f8 3b 3f 9a bd 49 3f
       0.7595549 0.74610037 0.7342681 0.78804934
000160 9a 2a 45 3f bc 31 6e 3f 14 2e fc 3e 74 63 5b 3f
       0.7701813 0.9304464 0.49253905 0.8569863
000170 74 77 43 3f 86 c3 8f 3f d8 00 eb 3e 43 df 8b 3f
       0.76354146 1.1231544 0.4589908 1.0927509
000180 3b 21 0c 3f c5 55 0a 3f 05 f2 b3 3e b5 00 05 3f
       0.54738206 0.54037124 0.35145584 0.51954204
000190 c3 51 07 3f d7 a9 8c 3f 2d 2a 3e 3f 75 68 29 3f
       0.52859133 1.0989331 0.74283105 0.66175014
0001a0 a1 ca f3 3e 64 2b 95 3f 36 64 33 3f b9 2e bd 3e
       0.4761553 1.1653867 0.70074785 0.3694971
0001b0 4c a5 5b 3f f2 bf 7a 3f 17 39 1c 3f fe 12 a3 3e
       0.857991 0.97949135 0.6102461 0.31850427
0001c0 16 f3 8d 3f 48 ae 9b 3f fa 5b 6f 3f a9 df 62 3f
       1.1089809 1.2162561 0.9349972 0.8862253
0001d0 8f cc 10 3f a9 60 4b 3f ec 69 7e 3f 2c 28 2d 3f
       0.5656213 0.79444367 0.99380374 0.6763942
0001e0 78 e6 71 39 56 f5 9b 3b 32 6e 91 bb 8a 47 17 3d
       0.00023069407 0.004759471 -0.004438185 0.03693346
0001f0 57 2e 38 3c e7 80 b0 3b 0a b3 38 bc dc 33 c2 bc
       0.011241517 0.00538646 -0.011273155 -0.02370637
000200 ad ff a2 bc 3c c3 9f bc 20 87 ba 3b e6 1e 85 3c
       -0.019897306 -0.019502275 0.0056923777 0.016250085
000210 bd 06 7c 3c 09 55 af bc 0d e9 ce bc 53 ac 0a bd
       0.015382466 -0.021402853 -0.025257612 -0.033855747
000220 e7 9c fc bc 14 a2 b7 38 c5 8d 30 bd e8 46 80 ba
       -0.030836536 8.7563094e-05 -0.043103952 -0.0009786757
000230 8f c4 ee bb 4d c8 97 3c d2 a1 85 ba f4 13 05 bd
       -0.007286615 0.018528128 -0.0010195321 -0.032489732
000240 fb fa df 3c 3f d0 d6 bc 69 1c c4 3a f8 4b 7c bb
       0.027341357 -0.026222346 0.001496208 -0.003849743
000250 98 a1 9f bb c6 45 79 bc 5d 0e 69 bb ae b8 40 3c
       -0.0048715584 -0.015214389 -0.003556154 0.011762781
000260 d7 43 9d 3a ef e1 21 bd 3d 95 6a 3c ef b4 d1 bc
       0.0011998367 -0.039522108 0.014317808 -0.025598971
000270 1c df 54 bc 3f a7 87 3c 55 b3 9d 3c 1c 96 64 3c
       -0.012992647 0.016559241 0.019250551 0.0139518045
000280 b2 3b 62 3c 00 19 47 bc 1f 76 9f bc a3 2e 05 3d
       0.013808178 -0.012151957 -0.019465504 0.03251518
000290 b0 36 99 bc 90 56 cf bc 62 7f df 3c 53 6d 5b 3a
       -0.018702835 -0.02530983 0.02728242 0.00083704776
0002a0 b8 39 2f 3d ca f1 fe 3c 51 ed 81 bb 57 97 b9 3c
       0.042779654 0.031121153 -0.003965058 0.022655172
0002b0 36 b4 10 bc d0 5c 3b bc c1 67 11 bc ce ed 88 bc
       -0.008832028 -0.011435702 -0.0088748345 -0.016714957
0002c0 75 e0 e0 bb 9e 11 cd bc cd e5 ec bc 00 11 a0 ba
       -0.006862695 -0.025032815 -0.028918171 -0.0012212098
0002d0 bf e1 d4 be b3 ee 03 bf 80 d7 f8 bd 75 5e 1a bf
       -0.4157848 -0.515361 -0.12150478 -0.6030038
0002e0 b2 d1 93 be ea 4d 1c be 20 67 25 be e1 47 98 3d
       -0.28870922 -0.15264097 -0.1615262 0.07435585
0002f0 2d bb f7 be 0c a9 87 3f 49 fb 5c be 98 eb bb bd
       -0.4838499 1.0598464 -0.21580233 -0.09175795
000300 9a 11 22 3f b7 97 94 bd c5 d2 3d 3f cc e6 2d be
       0.6330811 -0.072555 0.74149734 -0.16982573
000310 7c 09 47 be ed 32 aa be 71 b6 27 be e4 25 a3 bd
       -0.19437212 -0.33241978 -0.1637819 -0.079662114
000320 0c cb 83 be 86 bf 64 be 80 9a 33 bd fa 1c 7e bc
       -0.2574085 -0.22338685 -0.043848515 -0.015509838
000330 94 aa cd be 50 ce a5 be cf 48 b5 be 25 09 88 be
       -0.40169203 -0.32383966 -0.3540711 -0.26569477
000340 df a0 c8 be bc ba 5f be 96 6b 54 be 92 1f 0e bf
       -0.39185235 -0.21848577 -0.20744166 -0.5551692
000350 0d 01 b9 be 87 8f 10 be 1a 28 ab bc 07 4e 4c be
       -0.36133614 -0.14117251 -0.020893145 -0.1995164
000360 e6 51 9a be eb 52 04 bf 0b 65 7a be eb 9c 53 be
       -0.3014061 -0.5168902 -0.24452607 -0.20665328
000370 aa f9 67 bd b6 5b 79 be a9 06 0e bf 1a 81 53 be
       -0.056634583 -0.24351391 -0.5547891 -0.20654717
000380 88 30 45 be ce 33 73 be 38 e5 14 be 2c d5 8d be
       -0.19256794 -0.2375023 -0.14540565 -0.277017
000390 fb 65 98 be 92 3b 95 be ce 1b e4 be a4 bd 86 3d
       -0.29765305 -0.2914701 -0.44552463 0.0657914
0003a0 22 ac 86 3d 46 e9 e5 bd d8 12 6a be fd b0 59 be
       0.065758005 -0.11226134 -0.22858751 -0.21258922
0003b0 72 ac 60 bd 9d 88 eb be 76 dc 40 be f6 68 b6 be
       -0.054851957 -0.46002665 -0.18834099 -0.35626954

lstm_5/lstm_cell/bias f4 [240]
000000 2c a5 8b be f1 90 a8 3f ca 3b 81 bd cb 90 a6 bd
       -0.27274454 1.3169233 -0.06310232 -0.08133086
000010 ec d1 93 3d f6 89 e5 3e 90 b3 5a 3f 2b dd 17 bf
       0.07217774 0.44831818 0.8543024 -0.5932185
000020 df 6b cc 3e b3 4d 89 3d bb 08 2e 3f 84 e6 63 3f
       0.3992605 0.06704273 0.6798207 0.89023614
000030 f1 ce 3f be 4b a9 a1 be a6 41 4f 3d fb 6c 10 bf
       -0.18731286 -0.31574473 0.050599717 -0.5641629
000040 7e 1d c9 bd 06 d4 b1 be 24 4a 33 be 0b c6 90 3f
       -0.09820078 -0.34732074 -0.17508751 1.1310438
000050 97 08 6f 3e 5b c4 f1 be 17 6b b0 bd 46 3f e4 bb
       0.2334312 -0.4722012 -0.08614176 -0.0069655506
000060 cd 9d 4b be 0d ba 28 3e d3 43 c7 be 63 a0 d2 be
       -0.19884415 0.16477223 -0.38918933 -0.4113799
000070 54 29 fb 3e 36 9d 11 bf 58 8b c5 3e b5 6d 75 3f
       0.49054968 -0.5688051 0.38582873 0.95870525
000080 19 4e de bc 41 52 c2 be 56 1b 48 3d 74 d5 ba 3e
       -0.02713685 -0.3795338 0.048854195 0.36490977
000090 e6 21 38 bd 84 fa b1 3f 1b a8 d5 be 21 ae 81 3e
       -0.044954203 1.3904576 -0.41729817 0.25328162
0000a0 71 0f cb be 79 bc 9d 3d 48 1f 94 3f e8 d3 d4 3a
       -0.39660218 0.07701964 1.1572046 0.0016237469
0000b0 ed c6 6f be 44 85 3f bd bc 4e 29 3f 20 2e cb be
       -0.23415728 -0.04675795 0.66135764 -0.39683628
0000c0 39 5a 3c 3e f1 ba cb be 62 04 69 be 7c 25 4c 3e
       0.18393792 -0.39791062 -0.22755578 0.19936174
0000d0 5f 2c c1 be 4e 93 3b be e1 43 99 be 96 6d 0a 3f
       -0.37729165 -0.18317911 -0.299346 0.54073465
0000e0 12 31 99 3f 5b 80 ff 3e fd bd 9a be f5 f3 f5 be
       1.19681 0.49902615 -0.30223075 -0.48037687
0000f0 d0 69 f0 3e 35 7e 2d 3f 05 5d 96 3e aa b1 ff 3e
       0.4695573 0.677707 0.29367843 0.49940234
000100 15 b3 08 3f 4e c6 53 3e 85 d8 88 3e 7e 8e 96 3e
       0.5339826 0.20681116 0.2672769 0.29405588
000110 5b b2 c1 3e 72 b0 e1 3e ad 69 9f 3e 43 20 6f 3e
       0.37831387 0.4407993 0.31135312 0.2335215
000120 d4 d9 9e 3e 39 24 7b 3f f2 e1 5f 3e 3a bd e0 3e
       0.31025565 0.98102146 0.21863535 0.43894368
000130 73 7c dd 3e 74 17 e4 3e 8f 2a 81 3e 60 31 67 3e
       0.4325901 0.44549143 0.25227782 0.22577429
000140 15 95 6c 3e c6 9d 07 3f 5f 3e 86 3e f8 1e bc 3e
       0.23103745 0.5297512 0.2621946 0.36742377
000150 d7 aa 8a 3e 82 db 90 3e 99 fd 47 3f 8f 54 5e 3f
       0.27083465 0.2829247 0.78121334 0.86847776
000160 82 74 0b 3f 25 c8 21 3f e9 e1 d6 3e 3d 90 0b 3f
       0.5447465 0.6319602 0.4196923 0.54516965
000170 11 ac c7 3e e5 3f 43 3f 26 69 84 3e 3d a4 ba 3e
       0.38998464 0.7626937 0.25861472 0.3645343
000180 65 2c 9e 3e 4d 2b e0 3e 4e 8f 2a 3f 83 5e 57 3e
       0.30893245 0.43783036 0.66624916 0.21032147
000190 30 b7 23 3f 9c cf 87 3e 96 61 14 3f 69 80 80 3e
       0.63951397 0.2652558 0.57961404 0.2509797
0001a0 44 23 df 3e 30 8b c6 3e ff 03 07 3f 8e 90 64 3f
       0.43581593 0.38778067 0.5274047 0.8928307
0001b0 a1 ae 8a 3e d1 d2 2c 3f ef 29 f5 3e 09 fa d6 3e
       0.27086356 0.6750918 0.47883555 0.41987637
0001c0 c0 4f 0b 3f a3 b9 e8 3e 65 06 8e 3e 62 9c 22 3e
       0.54418564 0.4545413 0.27739254 0.15879968
0001d0 63 d5 1b 3f a1 18 01 3f d1 95 a1 3e ad b4 28 3f
       0.6087248 0.50428206 0.31559613 0.6590069
0001e0 d3 10 c2 3d 35 aa 12 be 18 5f e9 bd 8a a9 e3 bd
       0.09475865 -0.14322741 -0.11395091 -0.111163214
0001f0 00 f4 f2 3d ed 70 04 be 06 e4 04 3e c3 9b 83 3d
       0.118629456 -0.12933703 0.12977609 0.064261936
000200 07 ba 06 be 33 f6 fa bd 76 de 03 3e ee 75 07 be
       -0.13156901 -0.1225399 0.12877831 -0.1322858
000210 b9 a9 b8 bd 42 43 62 bd 1e 47 cd 3d f6 4c d6 3c
       -0.09016747 -0.055239923 0.1002333 0.026159745
000220 47 5f d5 3d 4f f1 8b 3d f5 b0 cc 3d fd 6a 06 3e
       0.10418563 0.06833135 0.099946894 0.1312675
000230 bf 85 f4 bd 64 50 01 3d 56 33 d1 3d 0b 26 e7 3d
       -0.119395725 0.031570807 0.1021487 0.11286553
000240 c0 54 bc bd 6b 45 eb bd f7 50 76 bd 5c 63 aa bd
       -0.09195852 -0.1148785 -0.060135808 -0.083197325
000250 49 fb 07 be 75 ed 19 3d b4 96 fa bd 21 d7 0d 3e
       -0.13279451 0.037579972 -0.122357756 0.13851596
000260 8e fd fb 3d ec f8 9b bd 68 4e f8 bd e7 c4 00 3e
       0.12304221 -0.076158375 -0.1212433 0.12575112
000270 71 09 bd bd 18 73 00 be 16 93 88 bd a6 0a f4 3d
       -0.092303164 -0.12543905 -0.066686794 0.119160935
000280 af 7c 37 bd 2e da ef 3d 67 e8 0f 3e 2a 95 e0 bd
       -0.044796642 0.11711536 0.14053498 -0.10965951
000290 d7 90 bc bd b9 cd e0 3d 20 e9 0f 3e f3 99 ae bd
       -0.092073135 0.109767385 0.14053774 -0.08525457
0002a0 1c c7 ea bd bd a3 a8 bd 7d 37 dc bd 6b ed 07 3e
       -0.11463758 -0.082343556 -0.10752771 0.13274162
0002b0 5f 7e bc 3d cb 3e ad 3d 5f 48 c4 bd 90 76 f4 bd
       0.09203791 0.084592424 -0.09584116 -0.119366765
0002c0 b7 59 06 3e d1 31 fe bd 71 fc 83 bd 6f 91 89 bd
       0.13120161 -0.124118455 -0.06444634 -0.067171924
0002d0 57 53 94 be 0e af ad 3f f8 4d 82 bd 4d 1e a9 bd
       -0.28969833 1.3569047 -0.063625276 -0.082577325
0002e0 35 5c 97 3d 18 e2 e9 3e ea 3f 64 3f 56 6b 18 bf
       0.07390634 0.45680308 0.89160025 -0.5953878
0002f0 ab 4f cb 3e 22 18 7d 3d ab c7 2d 3f 5e a5 64 3f
       0.3970922 0.061790593 0.67882794 0.8931483
000300 c6 84 4e be 85 87 a5 be 54 44 34 3d ab 02 11 bf
       -0.20167837 -0.32329956 0.044010475 -0.56644696
000310 d2 0e d1 bd cb c1 b1 be 73 37 32 be 30 54 94 3f
       -0.10207905 -0.34718165 -0.17403965 1.1588192
000320 17 c1 5c 3e 9e 16 f1 be 2f cd b2 bd 09 f8 19 bc
       0.21558033 -0.47087568 -0.08730542 -0.009397515
000330 a8 22 4d be 5e 78 26 3e 6b a5 c5 be df e7 d3 be
       -0.20032752 0.16256854 -0.38602766 -0.4138784
000340 08 64 fb 3e 34 17 10 bf 5a aa c1 3e 15 f5 73 3f
       0.49099755 -0.56285405 0.3782528 0.9529584
000350 0b 86 bd bc df 99 c0 be d2 17 50 3d e3 3b b8 3e
       -0.023135206 -0.37617394 0.050803967 0.3598319
000360 98 0d 26 bd 03 84 b6 3f 14 a1 d7 be ae eb 84 3e
       -0.040540308 1.4259037 -0.4211508 0.2596106
000370 10 02 ce be d9 78 91 3d 57 db 95 3f 3a 08 d7 3a
       -0.4023595 0.07103128 1.1707562 0.001640565
000380 92 58 70 be 8e 9b 69 bd 52 14 27 3f e7 b7 cb be
       -0.23471287 -0.057033114 0.6526538 -0.39788744
000390 a7 5c 3e 3e b8 32 cc be 5e a1 67 be 2c 99 48 3e
       0.18590032 -0.39882445 -0.2262015 0.1958968
0003a0 29 bf c1 be 5b 1d 3e be 4b 45 9b be d9 79 0a 3f
       -0.37841156 -0.18565886 -0.30326304 0.54092175
0003b0 90 73 9a 3f 42 39 01 3f 5b 48 9b be f4 f7 f5 be
       1.2066517 0.50477993 -0.3032864 -0.48040736

std.constant9 f4 [1, 120]
000000 ae 3c 80 3d ac 52 99 bd a6 a3 a4 3d 94 f2 b9 3d
       0.06261574 -0.074864715 0.08039026 0.09079471
000010 c6 ef 93 3d 6f 20 9b 3d e9 9a 96 bd fd 9f 80 3d
       0.072234675 0.075745456 -0.073537655 0.06280515
000020 61 77 a0 3d 34 d4 32 bc 72 63 af 3d bb a9 a8 3d
       0.0783527 -0.010914851 0.085638896 0.082354985
000030 da e4 8c 3d 65 89 81 3c 07 0a 6d bc b3 f9 36 bd
       0.068795875 0.015812585 -0.014467723 -0.044671725
000040 4c 56 70 3b 59 e0 11 3d 52 8f 71 3c fc 5d 8e 3d
       0.003667253 0.035614345 0.014743643 0.0695152
000050 78 0a a5 bd b9 f6 a5 bd ed a8 6c bd bf ba a8 3d
       -0.080586374 -0.08103699 -0.057778288 0.08238744
000060 9e ea 70 bd 86 be aa 3d a2 b5 b0 bd 16 a2 a3 3d
       -0.0588175 0.08337121 -0.08628394 0.079899
000070 ab 50 35 3d ca 0a 91 bd 56 24 9e 3d da 9d 9e bd
       0.044266384 -0.07082136 0.07721774 -0.077449515
000080 ce b1 a7 bd b2 76 c1 3d 6b 3d 18 3d f6 1f a0 3d
       -0.081882104 0.094464675 0.037167948 0.07818596
000090 6f 48 12 bc 99 41 bf 3d ce 15 98 bd 3d 25 95 3d
       -0.008928402 0.09338684 -0.07426034 0.07282493
0000a0 18 b1 9d 3d 6e 86 a3 3d 68 08 b8 3d e5 08 ad bd
       0.076997936 0.07984625 0.08985978 -0.08448962
0000b0 81 d6 a7 3d 5b 45 89 3d 02 04 b0 3d 43 67 ae bd
       0.0819521 0.06702682 0.085945144 -0.08515789
0000c0 96 a3 99 bd 0a 1b 99 bd 3b 75 0a 3d 5e a1 d3 bd
       -0.07501905 -0.074758604 0.033803206 -0.10333513
0000d0 3d b3 9b bd 61 c9 89 3d ed ed 27 bd f8 a9 8d bd
       -0.07602546 0.06727863 -0.040998388 -0.069171846
0000e0 ef 30 6d 3d e6 9c c2 3d ac af 18 bb 77 f1 99 3d
       0.057907995 0.09502582 -0.0023298068 0.07516759
0000f0 e1 59 93 bd 55 ba c1 3d b7 f8 75 3d 45 98 a3 bd
       -0.071948774 0.09459368 0.060051646 -0.079880275
000100 d7 55 73 3d 60 53 8f 3d 21 c8 9f 3d 81 00 55 3c
       0.059408035 0.069983244 0.078018434 0.013000608
000110 ed 8c b9 bb e2 29 89 3d 5d 7a 9b 3d 9c 21 79 bd
       -0.0056625516 0.06697442 0.07591698 -0.060823068
000120 5a 5e a0 3d a0 14 22 3d 8b 4d 25 3d 7d c8 a4 3d
       0.07830496 0.03957045 0.040357154 0.080460526
000130 d8 a5 a3 bd 82 97 89 3d b7 c3 9d bd 89 e4 a2 bd
       -0.079906166 0.06718351 -0.07703345 -0.07953746
000140 0c 48 b2 bd c7 f1 93 bd 80 ec 93 3d be dd 72 3d
       -0.08705148 -0.0722385 0.07222843 0.0592935
000150 61 27 9e bd a8 50 91 3d 9c 86 83 bd bb 31 a2 bd
       -0.07722355 0.07095462 -0.06422159 -0.079196416
000160 aa b3 af 3d ac f7 08 3d ae d5 92 bd ab c5 9f bd
       0.0857919 0.033439323 -0.071696624 -0.07801374
000170 d0 4a 91 3d 26 fd 8e 3d 3e 76 5e bd a0 e6 9a bd
       0.070943475 0.06981878 -0.054311983 -0.075635195
000180 4e 8f 8b 3d b7 a6 6b bd 30 b2 a3 bd 62 0e 82 3d
       0.068144426 -0.05753204 -0.07992971 0.063503996
000190 f2 b3 8e 3d 55 79 95 3c 8c 5c 2f 3d 6c 4c 90 bd
       0.069679156 0.018246332 0.04281287 -0.07045826
0001a0 2e 20 bb bd d7 af c0 bd e2 12 b5 bd 00 77 a6 bd
       -0.09136997 -0.09408539 -0.08841492 -0.08128166
0001b0 17 e1 af 3d 57 cd c8 3d 14 44 e8 bc de 46 ab bd
       0.08587854 0.098047905 -0.028352775 -0.08363126
0001c0 ce c6 c6 3d c6 f6 d7 3c 7f a7 99 bd 41 c1 90 3d
       0.09705888 0.026362788 -0.075026505 0.0706811
0001d0 c4 e2 b9 3d 50 a7 9e bd 44 5d 9e 3d 0f 18 ae bd
       0.09076455 -0.07746756 0.07732633 -0.085006826

lstm_5/lstm_cell/bias1 f4 [240]
000000 2c a5 8b be f1 90 a8 3f ca 3b 81 bd cb 90 a6 bd
       -0.27274454 1.3169233 -0.06310232 -0.08133086
000010 ec d1 93 3d f6 89 e5 3e 90 b3 5a 3f 2b dd 17 bf
       0.07217774 0.44831818 0.8543024 -0.5932185
000020 df 6b cc 3e b3 4d 89 3d bb 08 2e 3f 84 e6 63 3f
       0.3992605 0.06704273 0.6798207 0.89023614
000030 f1 ce 3f be 4b a9 a1 be a6 41 4f 3d fb 6c 10 bf
       -0.18731286 -0.31574473 0.050599717 -0.5641629
000040 7e 1d c9 bd 06 d4 b1 be 24 4a 33 be 0b c6 90 3f
       -0.09820078 -0.34732074 -0.17508751 1.1310438
000050 97 08 6f 3e 5b c4 f1 be 17 6b b0 bd 46 3f e4 bb
       0.2334312 -0.4722012 -0.08614176 -0.0069655506
000060 cd 9d 4b be 0d ba 28 3e d3 43 c7 be 63 a0 d2 be
       -0.19884415 0.16477223 -0.38918933 -0.4113799
000070 54 29 fb 3e 36 9d 11 bf 58 8b c5 3e b5 6d 75 3f
       0.49054968 -0.5688051 0.38582873 0.95870525
000080 19 4e de bc 41 52 c2 be 56 1b 48 3d 74 d5 ba 3e
       -0.02713685 -0.3795338 0.048854195 0.36490977
000090 e6 21 38 bd 84 fa b1 3f 1b a8 d5 be 21 ae 81 3e
       -0.044954203 1.3904576 -0.41729817 0.25328162
0000a0 71 0f cb be 79 bc 9d 3d 48 1f 94 3f e8 d3 d4 3a
       -0.39660218 0.07701964 1.1572046 0.0016237469
0000b0 ed c6 6f be 44 85 3f bd bc 4e 29 3f 20 2e cb be
       -0.23415728 -0.04675795 0.66135764 -0.39683628
0000c0 39 5a 3c 3e f1 ba cb be 62 04 69 be 7c 25 4c 3e
       0.18393792 -0.39791062 -0.22755578 0.19936174
0000d0 5f 2c c1 be 4e 93 3b be e1 43 99 be 96 6d 0a 3f
       -0.37729165 -0.18317911 -0.299346 0.54073465
0000e0 12 31 99 3f 5b 80 ff 3e fd bd 9a be f5 f3 f5 be
       1.19681 0.49902615 -0.30223075 -0.48037687
0000f0 d0 69 f0 3e 35 7e 2d 3f 05 5d 96 3e aa b1 ff 3e
       0.4695573 0.677707 0.29367843 0.49940234
000100 15 b3 08 3f 4e c6 53 3e 85 d8 88 3e 7e 8e 96 3e
       0.5339826 0.20681116 0.2672769 0.29405588
000110 5b b2 c1 3e 72 b0 e1 3e ad 69 9f 3e 43 20 6f 3e
       0.37831387 0.4407993 0.31135312 0.2335215
000120 d4 d9 9e 3e 39 24 7b 3f f2 e1 5f 3e 3a bd e0 3e
       0.31025565 0.98102146 0.21863535 0.43894368
000130 73 7c dd 3e 74 17 e4 3e 8f 2a 81 3e 60 31 67 3e
       0.4325901 0.44549143 0.25227782 0.22577429
000140 15 95 6c 3e c6 9d 07 3f 5f 3e 86 3e f8 1e bc 3e
       0.23103745 0.5297512 0.2621946 0.36742377
000150 d7 aa 8a 3e 82 db 90 3e 99 fd 47 3f 8f 54 5e 3f
       0.27083465 0.2829247 0.78121334 0.86847776
000160 82 74 0b 3f 25 c8 21 3f e9 e1 d6 3e 3d 90 0b 3f
       0.5447465 0.6319602 0.4196923 0.54516965
000170 11 ac c7 3e e5 3f 43 3f 26 69 84 3e 3d a4 ba 3e
       0.38998464 0.7626937 0.25861472 0.3645343
000180 65 2c 9e 3e 4d 2b e0 3e 4e 8f 2a 3f 83 5e 57 3e
       0.30893245 0.43783036 0.66624916 0.21032147
000190 30 b7 23 3f 9c cf 87 3e 96 61 14 3f 69 80 80 3e
       0.63951397 0.2652558 0.57961404 0.2509797
0001a0 44 23 df 3e 30 8b c6 3e ff 03 07 3f 8e 90 64 3f
       0.43581593 0.38778067 0.5274047 0.8928307
0001b0 a1 ae 8a 3e d1 d2 2c 3f ef 29 f5 3e 09 fa d6 3e
       0.27086356 0.6750918 0.47883555 0.41987637
0001c0 c0 4f 0b 3f a3 b9 e8 3e 65 06 8e 3e 62 9c 22 3e
       0.54418564 0.4545413 0.27739254 0.15879968
0001d0 63 d5 1b 3f a1 18 01 3f d1 95 a1 3e ad b4 28 3f
       0.6087248 0.50428206 0.31559613 0.6590069
0001e0 d3 10 c2 3d 35 aa 12 be 18 5f e9 bd 8a a9 e3 bd
       0.09475865 -0.14322741 -0.11395091 -0.111163214
0001f0 00 f4 f2 3d ed 70 04 be 06 e4 04 3e c3 9b 83 3d
       0.118629456 -0.12933703 0.12977609 0.064261936
000200 07 ba 06 be 33 f6 fa bd 76 de 03 3e ee 75 07 be
       -0.13156901 -0.1225399 0.12877831 -0.1322858
000210 b9 a9 b8 bd 42 43 62 bd 1e 47 cd 3d f6 4c d6 3c
       -0.09016747 -0.055239923 0.1002333 0.026159745
000220 47 5f d5 3d 4f f1 8b 3d f5 b0 cc 3d fd 6a 06 3e
       0.10418563 0.06833135 0.099946894 0.1312675
000230 bf 85 f4 bd 64 50 01 3d 56 33 d1 3d 0b 26 e7 3d
       -0.119395725 0.031570807 0.1021487 0.11286553
000240 c0 54 bc bd 6b 45 eb bd f7 50 76 bd 5c 63 aa bd
       -0.09195852 -0.1148785 -0.060135808 -0.083197325
000250 49 fb 07 be 75 ed 19 3d b4 96 fa bd 21 d7 0d 3e
       -0.13279451 0.037579972 -0.122357756 0.13851596
000260 8e fd fb 3d ec f8 9b bd 68 4e f8 bd e7 c4 00 3e
       0.12304221 -0.076158375 -0.1212433 0.12575112
000270 71 09 bd bd 18 73 00 be 16 93 88 bd a6 0a f4 3d
       -0.092303164 -0.12543905 -0.066686794 0.119160935
000280 af 7c 37 bd 2e da ef 3d 67 e8 0f 3e 2a 95 e0 bd
       -0.044796642 0.11711536 0.14053498 -0.10965951
000290 d7 90 bc bd b9 cd e0 3d 20 e9 0f 3e f3 99 ae bd
       -0.092073135 0.109767385 0.14053774 -0.08525457
0002a0 1c c7 ea bd bd a3 a8 bd 7d 37 dc bd 6b ed 07 3e
       -0.11463758 -0.082343556 -0.10752771 0.13274162
0002b0 5f 7e bc 3d cb 3e ad 3d 5f 48 c4 bd 90 76 f4 bd
       0.09203791 0.084592424 -0.09584116 -0.119366765
0002c0 b7 59 06 3e d1 31 fe bd 71 fc 83 bd 6f 91 89 bd
       0.13120161 -0.124118455 -0.06444634 -0.067171924
0002d0 57 53 94 be 0e af ad 3f f8 4d 82 bd 4d 1e a9 bd
       -0.28969833 1.3569047 -0.063625276 -0.082577325
0002e0 35 5c 97 3d 18 e2 e9 3e ea 3f 64 3f 56 6b 18 bf
       0.07390634 0.45680308 0.89160025 -0.5953878
0002f0 ab 4f cb 3e 22 18 7d 3d ab c7 2d 3f 5e a5 64 3f
       0.3970922 0.061790593 0.67882794 0.8931483
000300 c6 84 4e be 85 87 a5 be 54 44 34 3d ab 02 11 bf
       -0.20167837 -0.32329956 0.044010475 -0.56644696
000310 d2 0e d1 bd cb c1 b1 be 73 37 32 be 30 54 94 3f
       -0.10207905 -0.34718165 -0.17403965 1.1588192
000320 17 c1 5c 3e 9e 16 f1 be 2f cd b2 bd 09 f8 19 bc
       0.21558033 -0.47087568 -0.08730542 -0.009397515
000330 a8 22 4d be 5e 78 26 3e 6b a5 c5 be df e7 d3 be
       -0.20032752 0.16256854 -0.38602766 -0.4138784
000340 08 64 fb 3e 34 17 10 bf 5a aa c1 3e 15 f5 73 3f
       0.49099755 -0.56285405 0.3782528 0.9529584
000350 0b 86 bd bc df 99 c0 be d2 17 50 3d e3 3b b8 3e
       -0.023135206 -0.37617394 0.050803967 0.3598319
000360 98 0d 26 bd 03 84 b6 3f 14 a1 d7 be ae eb 84 3e
       -0.040540308 1.4259037 -0.4211508 0.2596106
000370 10 02 ce be d9 78 91 3d 57 db 95 3f 3a 08 d7 3a
       -0.4023595 0.07103128 1.1707562 0.001640565
000380 92 58 70 be 8e 9b 69 bd 52 14 27 3f e7 b7 cb be
       -0.23471287 -0.057033114 0.6526538 -0.39788744
000390 a7 5c 3e 3e b8 32 cc be 5e a1 67 be 2c 99 48 3e
       0.18590032 -0.39882445 -0.2262015 0.1958968
0003a0 29 bf c1 be 5b 1d 3e be 4b 45 9b be d9 79 0a 3f
       -0.37841156 -0.18565886 -0.30326304 0.54092175
0003b0 90 73 9a 3f 42 39 01 3f 5b 48 9b be f4 f7 f5 be
       1.2066517 0.50477993 -0.3032864 -0.48040736

std.constant17 i1 [240, 60] scale=0.0073762285 zero_point=0
000000 17 04 f1 fa 0d 15 00 fc e9 f9 16 f3 e8 fc 09 05
       0.16965325 0.029504914 -0.110643424 -0.044257373 0.09589097 0.1549008 0.0 -0.029504914 -0.16965325 -0.0516336 0.16227703 -0.09589097 -0.17702949 -0.029504914 0.06638606 0.03688114
000010 20 03 09 01 f2 0c 00 12 f6 e4 de f6 f4 06 ee f8
       0.23603931 0.022128686 0.06638606 0.0073762285 -0.1032672 0.088514745 0.0 0.13277212 -0.07376228 -0.2065344 -0.25079176 -0.07376228 -0.088514745 0.044257373 -0.13277212 -0.059009828
000020 1b ff e2 0d d8 f9 e1 08 e8 01 ff f8 e9 1b 12 fa
       0.19915816 -0.0073762285 -0.22128685 0.09589097 -0.29504913 -0.0516336 -0.22866309 0.059009828 -0.17702949 0.0073762285 -0.0073762285 -0.059009828 -0.16965325 0.19915816 0.13277212 -0.044257373
000030 de fc eb 11 0b 20 f0 fd f5 f9 eb eb f2 f3 d1 f7
       -0.25079176 -0.029504914 -0.1549008 0.12539588 0.081138514 0.23603931 -0.118019655 -0.022128686 -0.081138514 -0.0516336 -0.1549008 -0.1549008 -0.1032672 -0.09589097 -0.34668273 -0.06638606
000040 00 f2 06 1b f3 0f 01 ed f1 e3 6f c7 0b d5 fc 46
       0.0 -0.1032672 0.044257373 0.19915816 -0.09589097 0.110643424 0.0073762285 -0.14014834 -0.110643424 -0.21391062 0.81876135 -0.42044502 0.081138514 -0.31717783 -0.029504914 0.51633596
000050 05 e4 fb 23 15 09 ea d8 f1 34 e2 11 02 05 05 05
       0.03688114 -0.2065344 -0.03688114 0.25816798 0.1549008 0.06638606 -0.16227703 -0.29504913 -0.110643424 0.38356388 -0.22128685 0.12539588 0.014752457 0.03688114 0.03688114 0.03688114
000060 10 ef ee 06 24 28 fc f1 07 17 fd e9 fd 0c f6 19
       0.118019655 -0.12539588 -0.13277212 0.044257373 0.26554424 0.29504913 -0.029504914 -0.110643424 0.0516336 0.16965325 -0.022128686 -0.16965325 -0.022128686 0.088514745 -0.07376228 0.18440571
000070 01 1e 1c cb 09 00 06 ed f2 fc 0a 0a fc 0b eb 0b
       0.0073762285 0.22128685 0.2065344 -0.3909401 0.06638606 0.0 0.044257373 -0.14014834 -0.1032672 -0.029504914 0.07376228 0.07376228 -0.029504914 0.081138514 -0.1549008 0.081138514
000080 08 06 0f 16 08 f6 09 f4 04 0e 06 f8 06 05 fd 0e
       0.059009828 0.044257373 0.110643424 0.16227703 0.059009828 -0.07376228 0.06638606 -0.088514745 0.029504914 0.1032672 0.044257373 -0.059009828 0.044257373 0.03688114 -0.022128686 0.1032672
000090 0f ff ea ee fd 00 00 fa 08 f1 03 f7 fd 04 fb 00
       0.110643424 -0.0073762285 -0.16227703 -0.13277212 -0.022128686 0.0 0.0 -0.044257373 0.059009828 -0.110643424 0.022128686 -0.06638606 -0.022128686 0.029504914 -0.03688114 0.0
0000a0 e9 f9 00 07 f7 02 04 f7 04 e8 e9 fb 19 13 eb e8
       -0.16965325 -0.0516336 0.0 0.0516336 -0.06638606 0.014752457 0.029504914 -0.06638606 0.029504914 -0.17702949 -0.16965325 -0.03688114 0.18440571 0.14014834 -0.1549008 -0.17702949
0000b0 f8 f6 05 f6 f6 09 04 fc f9 14 eb 06 04 00 fd 13
       -0.059009828 -0.07376228 0.03688114 -0.07376228 -0.07376228 0.06638606 0.029504914 -0.029504914 -0.0516336 0.14752457 -0.1549008 0.044257373 0.029504914 0.0 -0.022128686 0.14014834
0000c0 07 e2 00 13 01 08 fa f1 00 14 0d 0f fa f2 ef fc
       0.0516336 -0.22128685 0.0 0.14014834 0.0073762285 0.059009828 -0.044257373 -0.110643424 0.0 0.14752457 0.09589097 0.110643424 -0.044257373 -0.1032672 -0.12539588 -0.029504914
0000d0 07 0f 11 e7 02 ff ff ec fd 13 f6 fc 02 01 f6 01
       0.0516336 0.110643424 0.12539588 -0.18440571 0.014752457 -0.0073762285 -0.0073762285 -0.14752457 -0.022128686 0.14014834 -0.07376228 -0.029504914 0.014752457 0.0073762285 -0.07376228 0.0073762285
0000e0 fe 0a ea 07 f2 ff f0 fe 00 0b f7 f4 fb 07 f2 f6
       -0.014752457 0.07376228 -0.16227703 0.0516336 -0.1032672 -0.0073762285 -0.118019655 -0.014752457 0.0 0.081138514 -0.06638606 -0.088514745 -0.03688114 0.0516336 -0.1032672 -0.07376228
0000f0 0b 02 fa 05 07 e8 22 ff fa db ff fc f0 ee 0f 01
       0.081138514 0.014752457 -0.044257373 0.03688114 0.0516336 -0.17702949 0.25079176 -0.0073762285 -0.044257373 -0.27292046 -0.0073762285 -0.029504914 -0.118019655 -0.13277212 0.110643424 0.0073762285

std.constant18 f4 [240, 1]
000000 de ee 31 be 4d 09 4e 3f 84 65 c9 bc d6 14 0a be
       -0.17376277 0.8048294 -0.02458454 -0.13484511
000010 e4 3a 5a 3d d7 af 77 3e 72 5e f5 3e cc 44 f4 be
       0.05327882 0.24188171 0.4792362 -0.47708738
000020 44 3a 9f 3e 92 9b 36 3e 2d 5f 1f 3f 13 9a 2f 3f
       0.3109914 0.17832783 0.622546 0.68594474
000030 81 03 0e be 1b f5 83 be 0d e8 fc bb b5 f2 33 bf
       -0.13868524 -0.25772938 -0.0077180923 -0.70292217
000040 fb 0f 70 3d b2 ba a0 be 93 c8 62 be 1d 49 1d 3f
       0.05860899 -0.31392437 -0.22146825 0.61439687
000050 04 19 69 3e 47 8e 9c be cb 22 5b 3d 42 aa c4 bd
       0.22763449 -0.305773 0.053499978 -0.096027866
000060 0f 36 8c bd 1e 36 10 3e 6a 1d bc be 38 4a 91 be
       -0.06846248 0.14083144 -0.3674119 -0.28376937
000070 85 0a 89 3e 78 c4 93 be 23 62 ac 3e 6c d2 5d 3f
       0.26765838 -0.2886083 0.33668622 0.86649203
000080 ba 59 04 be 3a 73 b0 be 87 a1 50 bd 37 ee 97 3e
       -0.12924853 -0.3446291 -0.050935294 0.2967393
000090 e9 fa 6c be dd 3f 29 3f 1c 85 00 bf 64 c6 3e 3e
       -0.2314259 0.6611307 -0.5020311 0.18630368
0000a0 48 49 95 be d1 21 ee 3d 68 67 48 3f c6 e3 7d 3d
       -0.29157472 0.11627544 0.78282785 0.0619848
0000b0 0f 79 67 be 1f af c2 bd 0e 00 fc 3e 4a 30 a3 be
       -0.22604774 -0.09506058 0.49218792 -0.3187278
0000c0 c7 e2 2f 3e e9 5c 87 be 69 65 b5 be d4 62 62 3e
       0.17176352 -0.26438072 -0.35428932 0.22108012
0000d0 c8 b1 0e be d9 95 b4 be 56 2e 9a be fc 73 7c 3e
       -0.13935006 -0.35270575 -0.30113477 0.2465362
0000e0 e1 49 4c 3f 94 b0 a0 3e 73 71 00 be c3 d4 91 be
       0.7980023 0.31384718 -0.12543277 -0.28482637
0000f0 29 5f c5 be d9 81 a9 bd ad fc d3 be 38 dc fe be
       -0.38549164 -0.082767196 -0.41403714 -0.4977739
000100 53 5e 4e be 77 3c e1 be f2 76 ac be a1 ae f7 be
       -0.2015317 -0.43991444 -0.33684498 -0.4837542
000110 63 05 e3 be f0 b4 ad be 36 f4 48 be 0f e5 d0 be
       -0.44340047 -0.33927107 -0.19624409 -0.40799758
000120 f6 1b 88 be c7 e5 52 bd 67 d4 31 bf da d5 1f bf
       -0.26583833 -0.051488664 -0.69464725 -0.62435687
000130 83 db 90 be 34 ee ee be 50 39 2b bf 9d 28 ee be
       -0.28292474 -0.4666611 -0.66884327 -0.4651536
000140 4a 14 ad be fa d1 a7 be 80 37 c0 be 37 fd a7 be
       -0.33804542 -0.32777387 -0.37542343 -0.32810375
000150 1c 0b 32 bf 23 9d 0a bf ba a9 0a be 48 ec d5 3d
       -0.695482 -0.5414602 -0.13541308 0.10445458
000160 7d 19 6c be 07 a0 4e be 6b 65 9e be 68 4c 36 be
       -0.23056598 -0.20178233 -0.3093675 -0.17802584
000170 43 57 01 bf be 76 af 3b d5 6e e1 be fb 84 e5 be
       -0.50523776 0.0053547313 -0.4402987 -0.4482802
000180 e8 68 18 bf 48 2f a8 be 04 fd 8e be d6 c2 c1 be
       -0.59535074 -0.32848573 -0.2792741 -0.3784396
000190 8f f0 0d be 17 6a 70 be ab 2b 50 be 74 1f 1b bf
       -0.13861297 -0.2347797 -0.20329158 -0.6059487
0001a0 48 63 a4 be 9f 77 d6 be b7 f5 a1 bd 4a 01 7f bd
       -0.32106996 -0.4188814 -0.079081945 -0.06225709
0001b0 57 21 0c bf 36 aa 33 be ad ed 0c bf 04 a0 83 be
       -0.5473837 -0.17545399 -0.55050164 -0.2570802
0001c0 39 18 85 be 61 1b ee be 7e 79 1c bf 45 34 32 bf
       -0.25995043 -0.46505263 -0.6112288 -0.69611007
0001d0 8e 45 67 be 28 f4 62 be 63 6d 06 bf 8e 83 91 be
       -0.22585127 -0.2216345 -0.5251066 -0.2842068
0001e0 12 02 7c be 5d 3f 9b 3e 56 7a 63 3e da db 66 3e
       -0.24610165 0.3032178 0.22214636 0.22544804
0001f0 e9 af 80 be 75 cb 85 3e ea 70 83 be ef 9b 0c be
       -0.2513421 0.26131788 -0.25672084 -0.13731359
000200 1d 95 8d 3e 3c 30 79 3e ab 6a 8e be 98 b3 88 3e
       0.27652827 0.24334806 -0.27815756 0.2669952
000210 99 e0 6d 3e 4d ab 28 3e d2 9f 71 be c7 e4 b5 bd
       0.23230208 0.16471596 -0.23596123 -0.088815264
000220 ac 5c 7d be 43 f2 36 be 26 b2 49 be e2 dc 92 be
       -0.24742383 -0.17865853 -0.19696864 -0.28684145
000230 71 ca 79 3e 51 d8 f2 bd b2 62 5c be 3f 3e 6b be
       0.24393632 -0.11857665 -0.21522024 -0.22972964
000240 4b fb 50 3e cc 5b 76 3e 14 16 fa 3d e8 13 3c 3e
       0.2040836 0.24058455 0.12211242 0.18366969
000250 e7 ed 8f 3e ba e4 b8 bd 66 23 83 3e 95 9f 99 be
       0.28111193 -0.09028001 0.25612944 -0.30004564
000260 12 46 6a be 87 35 41 3e e3 96 83 3e 56 86 89 be
       -0.22878292 0.18868075 0.25701055 -0.26860303
000270 d7 95 67 3e 53 29 8a 3e 68 6e 0f 3e b9 d6 73 be
       0.22615753 0.26984653 0.1400696 -0.23812379
000280 ee 26 cf 3d 3f a2 55 be 3d c0 97 be e8 e9 84 3e
       0.10114847 -0.20862673 -0.29638854 0.25959706
000290 c3 7e 43 3e b1 e0 6f be b3 d9 96 be d8 aa 20 3e
       0.19091325 -0.23425557 -0.29462966 0.15690172
0002a0 e1 1f 6d 3e f6 a9 59 3e c5 b9 6a 3e ee 4c 78 be
       0.23156692 0.21256241 0.22922428 -0.24248096
0002b0 d7 43 3b be b6 94 4e be 23 a0 54 3e 38 f6 88 3e
       -0.18287598 -0.20173916 0.20764212 0.2675035
0002c0 05 3a 90 be fd 04 88 3e 5c 03 52 3e be 2a 1e 3e
       -0.28169265 0.26566306 0.20509094 0.15445992
0002d0 a8 f4 89 be 0e 8b 5c 3f 64 7c 38 bd cf 7c 6d 3d
       -0.2694447 0.8614968 -0.045040503 0.057980355
0002e0 02 8d a6 3d 80 95 ad 3e a0 f4 2e 3f 9e ad 95 be
       0.08132364 0.33903122 0.6834202 -0.29234022
0002f0 2f eb 8e 3e 47 18 60 3e 7f 3b 13 3f bb 6b de 3e
       0.27913806 0.21884261 0.5751266 0.43441567
000300 96 14 33 3d 8b 07 c0 be 84 f9 4c be 0a ff 21 bf
       0.043720804 -0.37505755 -0.20017058 -0.63279784
000310 a3 9d 14 3e 21 24 31 be 07 55 75 be 5e 04 03 3f
       0.14513259 -0.17298938 -0.23958217 0.5117854
000320 2a 05 ec 3e c7 8c fd be 97 ca 9c bd af 75 87 bc
       0.4609769 -0.49521467 -0.076558284 -0.016535608
000330 ca ab 12 be 25 8b 94 3d 13 ff a9 be a8 3e b9 be
       -0.14323345 0.07253102 -0.3320242 -0.36180615
000340 76 e8 70 3e 1d 93 f0 be 84 4f 34 3e 36 24 1a 3f
       0.23526177 -0.4698724 0.17608458 0.60211504
000350 da 96 28 3c f1 fe 72 be a8 88 d3 3d 27 7a 95 3e
       0.010289872 -0.23730065 0.103287995 0.29194757
000360 da ca c4 bd 68 4b 31 3f 14 7b ad be 4d b3 94 3e
       -0.09609003 0.69255686 -0.33882964 0.29043046
000370 33 89 99 be bc f7 16 3e e0 9a 42 3f 32 6a b6 3d
       -0.29987487 0.1474294 0.7601757 0.08906974
000380 e5 68 b8 be d8 46 21 3e f7 ec 05 3f b2 48 29 be
       -0.36017528 0.15749681 0.52314705 -0.16531637
000390 8a 3d 36 3e d5 64 c2 be 3e 56 a6 be 54 d5 aa 3e
       0.17796913 -0.37967554 -0.32487673 0.3336588
0003a0 5b d6 86 be 5b 09 c4 be bf 85 a4 bd 85 ae 2d 3e
       -0.26335415 -0.38288388 -0.080333225 0.16961105
0003b0 42 fc 2a 3f 03 01 89 3e 7c 6f 7f be 5b c1 81 be
       0.66791165 0.26758584 -0.24944872 -0.2534283
