DATN_LSTM_SMGW-main/rx_service/src/LSTM_model/LSTM_model_5_NH3.tflite (tflite, 185408 bytes, 17 tensors)

lstm_8/lstm_cell_3/bias f4 [320]
-1.2892736 -0.40355882 -0.59446067 -0.44964 -0.5570302 -0.37996656 -0.64078027 -1.6402092
-0.6498931 -1.2252575 -0.4659683 -0.5744961 -0.8384785 -0.97114515 -0.86859655 -0.5556429
-0.49929923 -0.533187 -1.673925 -0.48075703 -0.5748128 -1.1841421 -0.491794 -0.44066355
-0.66836953 -0.48039073 -0.4466446 -0.42359585 -0.65470344 -0.7119293 -0.47830972 -0.45989025
-0.48933807 -0.4568293 -0.5224735 -1.0286078 -0.71866083 -0.47208655 -0.46638983 -0.51361
-0.46835944 -1.2217082 -1.3532155 -0.7727558 -0.35222957 -0.42316684 -0.48246822 -0.9317189
-0.6481043 -0.71074003 -0.4133946 -0.94775057 -0.42701653 -0.45437 -1.4641011 -0.483973
-0.59777147 -0.60954356 -0.8379604 -0.34110776 -0.6805882 -0.44884935 -0.579621 -0.4173979
-0.557635 -0.46601048 -0.4913171 -0.3220275 -0.77653944 -0.5299571 -1.4935473 -0.44119236
-0.4265503 -0.77529866 -0.7036197 -0.38546002 -1.400203 -0.4421597 -0.46050316 -0.5765125
0.055945657 0.6986941 0.4657869 0.8179888 0.5656002 0.72312224 0.49734694 -0.15542807
0.61222386 0.08029507 0.42129073 0.6636254 0.25630897 0.21600874 -0.39626002 0.6577964
0.2218561 0.7727262 -0.3016187 0.7667504 0.6253236 0.09777453 0.774849 0.5761638
0.48180318 0.64220494 0.7689069 0.71486163 0.6142921 0.32038847 0.73405534 0.71725994
0.73857343 0.65043235 0.67943966 0.14497326 0.47324666 0.7712346 0.70817846 0.76060945
0.6971083 0.051832937 -0.30512574 0.32762605 0.63975275 0.7594493 0.76489055 0.25342146
0.48807305 0.47394493 0.79923874 0.1654059 0.8003754 0.67902017 -0.39206755 0.65036863
0.31017858 0.60600454 0.2949365 0.65637004 0.62060374 0.27525777 0.67393625 0.721798
0.65662336 0.7120451 0.6585062 0.6282867 0.04520229 0.6726207 -0.25692183 0.6765278
0.6297723 -0.075451985 0.5928346 0.69967246 -0.18946916 0.5796415 0.71565765 0.062682524
0.019516084 -0.003161287 -0.021532869 0.035229426 0.057016917 0.002790075 -0.052689217 -0.022132184
0.0013000368 0.015036122 0.017896457 0.017396573 -0.05779923 -0.013609315 -0.0006749064 -0.009105567
-0.077592514 0.0056191413 0.0068195197 0.01481143 -0.009501702 -0.025966007 -0.00017880803 0.022177711
0.007848196 0.006001714 0.016859708 -0.03887818 -0.00096636463 0.016361423 0.031038608 -0.008426211
-0.0057228724 -0.008612652 0.037682027 -0.012901802 -0.009755699 -0.025880575 -0.020615287 -0.049435925
0.009867601 0.017756794 -0.0037747577 -0.027817167 -0.030378573 0.033780016 -0.014788334 0.06833599
0.000773628 -0.017026188 0.005478333 0.021919385 -0.022662537 0.02122131 -0.0073605594 0.024133341
0.09266299 -0.075392485 0.01628844 0.007243014 0.03869696 0.059131462 0.019947859 0.029708372
-0.028568324 -0.012144332 0.0041541564 0.04833172 -0.027209649 -0.052896474 -0.0029060817 -0.040737063
-0.03953069 0.0065768356 0.05806187 -0.028611626 0.007277299 0.07045443 -0.011783626 0.016620822
-1.3294789 -0.48889253 -0.6688308 -0.48424342 -0.6454523 -0.47439325 -0.7133209 -1.6359848
-0.6806867 -1.2423565 -0.505604 -0.66103965 -0.8937214 -0.9970356 -0.8536751 -0.5977905
00000000: eb06 a5bf 439f cebe 932e 18bf 3737 e6be
00000010: 8899 0ebf fa8a c2be 2d0a 24bf 60f2 d1bf
00000020: 655f 26bf 3dd5 9cbf 6693 eebe 2d12 13bf
00000030: 87a6 56bf f89c 78bf 585c 5ebf 9d3e 0ebf
00000040: 26a4 ffbe f17e 08bf 2d43 d6bf c925 f6be
00000050: ef26 13bf f891 97bf 6ccc fbbe a79e e1be
00000060: 441a 2bbf c6f5 f5be 9aae e4be 8ee1 d8be
00000070: a59a 27bf 0041 36bf 03e5 f4be bc76 ebbe
00000080: 858a fabe 88e5 e9be d3c0 05bf 6ca9 83bf
00000090: 28fa 37bf 54b5 f1be a6ca eebe f27b 03bf
000000a0: cfcc efbe ef60 9cbf 2a36 adbf 53d3 45bf
000000b0: 6f57 b4be 53a9 d8be 1306 f7be 2185 6ebf
000000c0: 2aea 25bf 0ff3 35bf 75a8 d3be c89f 72bf
000000d0: e9a1 dabe 2fa3 e8be aa67 bbbf 4fcb f7be
000000e0: 8d07 19bf 0c0b 1cbf 9384 56bf ada5 aebe
000000f0: 073b 2ebf 95cf e5be 0b62 14bf 2db5 d5be
00000100: 2bc1 0ebf ed98 eebe ea8d fbbe cae0 a4be
00000110: 4acb 46bf 45ab 07bf 8f2c bfbf f7e3 e1be
00000120: cd64 dabe f979 46bf 6c20 34bf 045b c5be
00000130: da39 b3bf c262 e2be 12c7 ebbe 5396 13bf
00000140: 4627 653d 9edd 323f 9f7b ee3e b767 513f
00000150: 2dcb 103f 8a1e 393f 42a4 fe3e 8928 1fbe
00000160: b4ba 1c3f be71 a43d 6bb3 d73e 5be3 293f
00000170: ee3a 833e 6531 5d3e 98e2 cabe 5865 283f
00000180: 3f2e 633e 62d1 453f c46d 9abe c149 443f
00000190: 3515 203f 033e c83d 815c 463f 797f 133f
000001a0: e8ae f63e 8b67 243f 15d7 443f 2c01 373f
000001b0: 3f42 1d3f f509 a43e 0deb 3b3f 599e 373f
000001c0: 2613 3d3f bc82 263f c2ef 2d3f df73 143e
000001d0: 634d f23e a16f 453f 2f4b 353f 4db7 423f
000001e0: b175 323f c64e 543d 7139 9cbe 9abe a73e
000001f0: d6c6 233f 456b 423f decf 433f 75c0 813e
00000200: b6e4 f93e e9a8 f23e e99a 4c3f 2a60 293e
00000210: 67e5 4c3f 44d4 2d3f 14bd c8be 8f7e 263f
00000220: bacf 9e3e 1d23 1b3f eb01 973e de07 283f
00000230: e3df 1e3f 96ee 8c3e 1687 2c3f c1c7 383f
00000240: 7818 283f 9648 363f dd93 283f 66d7 203f
00000250: 0926 393d df30 2c3f 428b 83be ed30 2d3f
00000260: c238 213f 9286 9abd 02c4 173f bc1d 333f
00000270: 3404 42be 6363 143f 5735 373f b25f 803d
00000280: 32e0 9f3c 982d 4fbb b365 b0bc bb4c 103d
00000290: 928a 693d b1d9 363b a6d0 57bd 8e4e b5bc
000002a0: ff65 aa3a 115a 763c 979b 923c 4283 8e3c
000002b0: e3be 6cbd 9bf9 5ebc 34ec 30ba 842f 15bc
000002c0: d3e8 9ebd c620 b83b 4776 df3b a4ab 723c
000002d0: 07ad 1bbc aab6 d4bc 6a7e 3bb9 08ae b53c
000002e0: b895 003c 07aa c43b 5f1d 8a3c ba3e 1fbd
000002f0: a253 7dba 6408 863c ae44 fe3c 170e 0abc
00000300: ef86 bbbb 151c 0dbc 7858 1a3d 1462 53bc
00000310: 5ed6 1fbc 8003 d4bc 64e1 a8bc 537d 4abd
00000320: b8ab 213c b276 913c ed61 77bb d4e0 e3bc
00000330: 7cdc f8bc ea5c 0a3d c54a 72bc bdf3 8b3d
00000340: 4ccd 4a3a 817a 8bbc 9783 b33b 4890 b33c
00000350: c9a6 b9bc 50d8 ad3c d930 f1bb 49b3 c53c
00000360: 18c6 bd3d 6067 9abd 566f 853c ce56 ed3b
00000370: b480 1e3d d533 723d b169 a33c f95e f33c
00000380: 1e08 eabc 05f9 46bc 971f 883b 7bf7 453d
00000390: c5e6 debc f9a9 58bd f673 3ebb e8db 26bd
000003a0: efea 21bd 7f82 d73b 49d2 6d3d ee62 eabc
000003b0: 6976 ee3b 6a4a 903d 1c10 41bc 6428 883c
000003c0: 5d2c aabf 1f50 fabe 7f38 2bbf c1ee f7be
000003d0: 5d3c 25bf ace3 f2be 339c 36bf f367 d1bf
000003e0: 7c41 2ebf 8a05 9fbf 446f 01bf e539 29bf
000003f0: edca 64bf ba3d 7fbf 748a 5abf cc08 19bf

lstm_7/lstm_cell_2/bias f4 [320]
-0.42468762 -0.5527442 0.08605575 -0.3075783 -0.4249603 -0.3236529 -0.3108985 -0.20421125
-0.87600434 -0.5011288 -0.22349203 0.07621029 -0.30085707 -0.2059509 -0.019869953 -0.619752
-0.25840354 -0.13315132 -0.08221998 -0.37761548 -0.26627743 -0.28596935 -0.05980598 -0.39292926
-0.39864373 -0.7177485 -0.27206534 -0.4649848 -0.109335974 -0.01436586 -0.31288132 -0.40647143
-0.20700336 -0.09695231 -0.11436624 -0.13841975 -0.21375075 -0.26187408 -0.5715719 -0.4061159
-0.41232377 -0.0887405 -0.23862898 -0.4853516 -0.20460783 0.062387418 -0.14281972 -0.34317163
-0.2872918 0.2209345 -0.56326914 -0.33314788 -0.57862717 -0.21150394 0.023259802 -0.45378485
-0.2535861 -0.14181596 0.022234011 0.15279242 -0.33135983 -0.7613177 -0.509163 -0.2784811
-0.42450523 -0.35373688 -0.32006383 -0.43899906 0.06553738 -0.23649971 -0.14904355 -0.7306055
-0.034965448 -0.33446988 -0.32137778 -0.16206592 -0.5914713 -0.6554314 -0.41373616 0.012048695
0.61788374 -0.13822691 0.6495885 0.5744958 0.24744642 0.53893083 0.7659609 0.6093918
0.22153306 0.6277024 0.78475374 0.66403425 0.1838398 0.8715839 0.67268926 0.52268785
0.2846525 0.6908835 0.73868144 0.70602506 0.6563798 0.52381 0.8244487 0.7565757
0.7666245 0.24908492 0.71344936 0.70721674 0.5305671 0.6143034 0.9972063 0.6695674
0.71841794 0.70046467 0.24894671 0.7919897 0.55002666 0.7852391 0.23550282 1.0493299
0.19517305 0.724396 0.8010787 0.54521847 0.67090416 0.71453613 0.4725755 0.581165
0.6749447 0.5467058 0.767219 0.4299335 0.96294796 0.7095616 0.6855107 0.8069202
0.5529684 0.56414306 0.5394028 0.34088162 0.37202087 0.6714988 0.4944789 0.85842866
0.5827085 0.61299413 0.6712236 0.8053932 0.68544704 0.72428954 0.62217724 0.4618868
0.56575227 0.6417191 0.89262414 0.47115237 0.6268073 0.24233346 0.53445596 0.210749
-0.00034971576 0.018851785 -0.03382068 0.016009117 0.06536718 0.06189987 0.025777316 0.04829323
0.03592241 0.003091242 -0.049706336 0.0032606781 -0.20763063 -0.06330746 -0.016827315 -0.05720462
0.1395621 -0.0047288146 0.10725025 -0.059569877 -0.08438389 0.054432355 -0.09717896 0.013196564
-0.02642792 -0.04761582 -0.0855839 -0.053752385 0.022951286 -0.014645627 -0.1374216 0.08118121
0.06506931 0.061960597 0.006972661 -0.025940994 -0.07389888 0.06076106 -0.008230803 -0.005053186
0.0535486 -0.09914886 0.108555205 -0.02663562 -0.012034644 0.006967014 0.17806195 -0.029597228
-0.03644526 -0.11668569 0.011571776 0.1257516 -0.034403965 0.089403674 0.058428694 0.036614385
-0.015155536 0.012672483 -0.034511298 0.12581934 -0.058931097 0.03387621 -0.14702947 -0.021032237
0.010032752 -0.033511676 0.0025943997 0.045911487 -0.055201054 -0.19572729 0.13300367 0.12778461
0.030718638 -0.06675161 -0.0032077436 -0.13962966 0.14352906 0.08208204 -0.0073822914 0.031752624
-0.516443 -0.5295042 -0.0670742 -0.4608988 -0.48133072 -0.28166136 -0.48387158 -0.3122308
-0.8295459 -0.60966545 -0.26979303 -0.2535489 -0.42096946 -0.16017377 -0.107525185 -0.4530843
00000000: a870 d9be a580 0dbf ff3d b03d e77a 9dbe
00000010: 6594 d9be d5b5 a5be 172e 9fbe c11c 51be
00000020: d241 60bf fa49 00bf 18db 64be 2414 9c3d
00000030: f009 9abe cbe4 52be 50c6 a2bc 11a8 1ebf
00000040: 784d 84be d258 08be f362 a8bd d156 c1be
00000050: 8455 88be 936a 92be 1ef7 74bd 062e c9be
00000060: 081b ccbe 5ebe 37bf 264c 8bbe 7d12 eebe
00000070: 8aeb dfbd c95e 6bbc fb31 a0be 061d d0be
00000080: b0f8 53be ef8e c6bd d938 eabd e8bd 0dbe
00000090: 7ae1 5abe 5c14 86be 8952 12bf 6cee cfbe
000000a0: 1a1c d3be 94bd b5bd 285b 74be 0180 f8be
000000b0: b784 51be f389 7f3d 553f 12be 31b4 afbe
000000c0: e917 93be a73c 623e 6832 10bf 5c92 aabe
000000d0: e920 14bf 7d94 58be 578b be3c 7d56 e8be
000000e0: 0ad6 81be 3438 11be 1a24 b63c 9e75 1c3e
000000f0: ffa7 a9be b7e5 42bf 8258 02bf 1395 8ebe
00000100: c058 d9be 001d b5be 68df a3be 7cc4 e0be
00000110: 7638 863d fb2c 72be df9e 18be f608 3bbf
00000120: ee37 0fbd a33f abbe a18b a4be 9cf4 25be
00000130: aa6a 17bf 5aca 27bf 3ad5 d3be e467 453c
00000140: a12d 1e3f 5b8b 0dbe 6f4b 263f 2812 133f
00000150: 9862 7d3e 5ff7 093f 0316 443f 1a01 1c3f
00000160: 90d9 623e 1bb1 203f 9fe5 483f 26fe 293f
00000170: 8040 3c3e 1f20 5f3f 5d35 2c3f dfce 053f
00000180: f9bd 913e bedd 303f 3a1a 3d3f 0fbe 343f
00000190: 8208 283f 6a18 063f 120f 533f f2ae 413f
000001a0: 8141 443f 1e10 7f3e 9ea4 363f 280c 353f
000001b0: 3fd3 073f fd42 1d3f e948 7f3f c568 2b3f
000001c0: 3dea 373f a751 333f e3eb 7e3e d6bf 4a3f
000001d0: 8cce 0c3f 6e05 493f a727 713e 7150 863f
000001e0: 72db 473e 0472 393f 7e13 4d3f 7093 0b3f
000001f0: 60c0 2b3f d7eb 363f 6af5 f13e 3bc7 143f
00000200: 2dc9 2c3f e9f4 0b3f 7768 443f 3e20 dc3e
00000210: c283 763f d4a5 353f a17d 2f3f 5292 4e3f
00000220: 568f 0d3f ae6b 103f 4d16 0a3f 0988 ae3e
00000230: 8579 be3e 58e7 2b3f 572c fd3e fbc1 5b3f
00000240: 622c 153f 2fed 1c3f 4fd5 2b3f 402e 4e3f
00000250: 7579 2f3f 0a6b 393f 0247 1f3f 6d7c ec3e
00000260: 24d5 103f b447 243f 0483 643f e23a f13e
00000270: 7176 203f 4326 783e 1bd2 083f 96ce 573e
00000280: 0e5a b7b9 0f6f 9a3c 8e87 0abd 8d25 833c
00000290: 3adf 853d b88a 7d3d f32a d33c 1fcf 453d
000002a0: 6123 133d 6f96 4a3b df98 4bbd 1ab1 553b
000002b0: 209d 54be 57a7 81bd 70d9 89bc 644f 6abd
000002c0: 5ee9 0e3e 2cf4 9abb 05a6 db3d 8bff 73bd
000002d0: 76d1 acbd 76f4 5e3d c305 c7bd 6736 583c
000002e0: 5e7f d8bc ce08 43bd 9d46 afbd 762b 5cbd
000002f0: 5604 bc3c 36f4 6fbc 3fb8 0cbe 5642 a63d
00000300: 0f43 853d 65ca 7d3d eb7a e43b 3582 d4bc
00000310: 4c58 97bd 97e0 783d 7dda 06bc 3295 a5bb
00000320: c755 5b3d 8f0e cbbd 3152 de3d f232 dabc
00000330: f52c 45bc 8d4b e43b df55 363e e375 f2bc
00000340: a047 15bd e8f8 eebd 8c97 3d3c 07c5 003e
00000350: 2ceb 0cbd 4619 b73d ed52 6f3d f7f8 153d
00000360: ed4e 78bc 3fa0 4f3c b85b 0dbd c9d6 003e
00000370: bc61 71bd c8c1 0a3d e58e 16be cc4b acbc
00000380: 6960 243c 8a43 09bd ce06 2a3b af0d 3c3d
00000390: 801a 62bd bc6c 48be 1d32 083e f8d9 023e
000003a0: a7a5 fb3c 11b5 88bd 0239 52bb 14fb 0ebe
000003b0: 48f9 123e a11a a83d 26e7 f1bb 0a0f 023d
000003c0: 9c35 04bf 968d 07bf 335e 89bd edfa ebbe
000003d0: fb70 f6be eb35 90be 04be f7be b7dc 9fbe
000003e0: 1f5d 54bf 0913 1cbf 5022 8abe 29d1 81be
000003f0: 4f89 d7be 9804 24be 2a36 dcbd aafa e7be

lstm_6/lstm_cell_1/bias f4 [240]
0.028697597 -0.21184015 0.28665397 -0.37432173 -0.38099855 0.333184 -0.24257508 -0.03723365
0.38898557 -0.23570508 0.29375908 0.073291965 0.082803905 0.14398573 -0.3591034 0.20655112
-0.11973457 -0.054845873 0.16041623 -0.0017085021 0.31232297 -0.65927064 0.15973131 0.38675165
0.25350484 -0.33705804 -0.057939846 0.017031355 -0.2756331 0.18737584 0.11104783 0.33342287
0.42879602 0.14614417 0.18286231 0.11219387 -0.024686921 -0.35956383 0.2783132 -0.0715831
-0.020373201 0.4550848 0.21400607 -0.40721115 -0.087546535 -0.051367596 0.2478068 0.416627
-0.0436003 -0.18769152 0.37319773 0.27599314 -0.34020594 -0.0152357835 -0.10207549 0.17658153
-0.41873118 -0.15077668 -0.20808144 -0.21724083 0.6152981 0.49828166 0.60510486 0.55734456
0.3173133 0.4400245 0.6289426 0.6429724 0.6020783 0.6822366 0.35877457 0.5489262
0.54270554 0.53414786 0.5356594 0.582351 0.3968962 0.60762763 0.48397854 0.52263075
0.5012028 0.7310541 0.5861322 0.48846 0.47575927 0.5805065 0.6390896 0.5449661
0.16789708 0.7238371 0.4502228 0.6921659 0.6239025 0.47214246 0.6748433 0.469365
0.52575475 0.6511185 0.55986524 0.7407273 0.6729497 0.67489547 0.5423872 0.7260594
0.521201 0.5826901 0.68527573 0.55318266 0.62365735 0.4509676 0.7336932 0.61200136
0.6294162 0.71749544 0.5479923 0.57267106 0.3727415 0.23917703 0.52393734 0.19221622
0.022012893 -0.002627043 -0.010871757 0.0063306247 -0.045669526 0.00054824323 -0.04896893 0.06935422
0.012226483 -0.02250731 0.03957359 -0.043667223 0.001178384 0.021761483 -0.017103676 0.02124023
0.025485685 0.05350878 0.011448772 0.012036972 0.01636157 0.01310333 0.034310292 0.05692919
-0.051545825 0.013772552 0.006855505 0.004691557 0.0059137754 0.008324634 0.012913031 0.03028553
0.037876084 0.03632183 -0.03328674 -0.02614278 -0.00089168455 -0.043931127 0.050570417 0.040971883
0.04497981 0.035595354 -0.015834637 0.025454778 0.028932873 0.03410872 -0.031994097 0.05673956
-0.011505934 0.031272173 -0.024811018 0.056205384 -0.004186043 -0.02142371 0.033135537 -0.06280204
0.015058067 -0.03393667 -0.006446682 0.086089805 0.039962087 -0.17703174 0.24021475 -0.36422542
-0.43026116 0.42095286 -0.24673146 -0.04560472 0.34925747 -0.22889818 0.32095876 0.2887544
0.10507777 0.16399865 -0.30521277 0.21739851 -0.11852451 0.10416447 0.13759515 -0.022452895
0.1581111 -0.4263428 0.09620688 0.31402293 0.14169407 -0.31169954 -0.054467544 -0.016409883
-0.3448698 0.1293845 0.124221586 0.27060866 0.34621224 0.16174334 0.19024688 0.103764266
-0.07706078 -0.30319086 0.28261578 -0.1063812 0.024929004 0.38697317 0.09420385 -0.19822404
-0.06306802 -0.16581026 0.2242693 0.3605608 -0.004905029 -0.19537638 0.3157785 0.29709217
-0.24872303 -0.1675503 0.03989596 0.2836299 -0.39223313 -0.10168348 -0.23367111 -0.2316228
00000000: 3917 eb3c a0ec 58be 4fc4 923e 19a7 bfbe
00000010: 3e12 c3be 1897 aa3e 9a65 78be 5082 18bd
00000020: 1e29 c73e ac5c 71be 9767 963e 191a 963d
00000030: 1895 a93d ff70 133e 67dc b7be 2382 533e
00000040: 6637 f5bd 11a6 60bd 2744 243e d1ef dfba
00000050: cce8 9f3e f6c5 28bf 9b90 233e 5004 c63e
00000060: 63cb 813e df92 acbe 5552 6dbd 5785 8b3c
00000070: c81f 8dbe 74df 3f3e 0b6d e33d 67b6 aa3e
00000080: 278b db3e d1a6 153e 4240 3b3e e6c5 e53d
00000090: 3a3c cabc c018 b8be 117f 8e3e 299a 92bd
000000a0: b3e5 a6bc e000 e93e 6824 5b3e fb7d d0be
000000b0: 994b b3bd d466 52bd 11c1 7d3e 2250 d53e
000000c0: 3a96 32bd 3532 40be c613 bf3e f94e 8d3e
000000d0: 792f aebe 829f 79bc f40c d1bd cad1 343e
000000e0: ef63 d6be 3465 1abe 4d13 55be 6174 5ebe
000000f0: 2d84 1d3f c61e ff3e 27e8 1a3f 22ae 0e3f
00000100: e476 a23e e44a e13e 6202 213f d799 243f
00000110: ce21 1a3f 0fa7 2e3f 4db1 b73e 6d86 0c3f
00000120: c0ee 0a3f eabd 083f f920 093f f514 153f
00000130: fb35 cb3e 7c8d 1b3f 09cc f73e 21cb 053f
00000140: d44e 003f 5d26 3b3f c30c 163f 6e17 fa3e
00000150: b896 f33e 139c 143f 609b 233f e682 0b3f
00000160: 36ed 2b3e 634d 393f 9a83 e63e c931 313f
00000170: 13b8 1f3f a8bc f13e 88c2 2c3f 9c50 f03e
00000180: dd97 063f b4af 263f 5453 0f3f 4ea0 3d3f
00000190: 6e46 2c3f f3c5 2c3f e3d9 0a3f 07df 393f
000001a0: 6e6d 053f 2e2b 153f 3b6e 2f3f 619d 0d3f
000001b0: 02a8 1f3f 3ae5 e63e 51d3 3b3f 1fac 1c3f
000001c0: 6c21 213f c8ad 373f 3949 0c3f 929a 123f
000001d0: f9d7 be3e d3ea 743e c220 063f 54d4 443e
000001e0: 6254 b43c 782a 2cbb 741f 32bc 2171 cf3b
000001f0: f80f 3bbd fbb7 0f3a a593 48bd 9609 8e3d
00000200: 9651 483c 4061 b8bc eb17 223d 67dc 32bd
00000210: 0174 9a3a 2345 b23c 021d 8cbc feff ad3c
00000220: 5bc7 d03c 062c 5b3d a193 3b3c b836 453c
00000230: b308 863c 59af 563c f388 0c3d 952e 693d
00000240: b721 53bd 45a6 613c 25a4 e03b a2bb 993b
00000250: 58c8 c13b 0c64 083c 2d91 533c 5c19 f83c
00000260: f423 1b3d 33c6 143d ad57 08bd 6229 d6bc
00000270: f0bf 69ba 20f1 33bd ed22 4f3d 22d2 273d
00000280: c03c 383d 6fcc 113d a4b7 81bc 8a86 d03c
00000290: a204 ed3c 96b5 0b3d 3e0c 03bd be67 683d
000002a0: 6383 3cbc 4017 003d 7a40 cbbc 9e37 663d
000002b0: 132b 89bb c780 afbc 21b9 073d 5b9e 80bd
000002c0: 1cb6 763c 2d01 0bbd b03e d3bb da4f b03d
000002d0: 49af 233d cf47 35be dbfa 753e c17b babe
000002e0: 314b dcbe 2287 d73e 2ca7 7cbe 04cc 3abd
000002f0: e0d1 b23e 4964 6abe b554 a43e 9ed7 933e
00000300: 0433 d73d 43ef 273e d944 9cbe b79d 5e3e
00000310: fabc f2bd 2f54 d53d bee5 0c3e 22ef b7bc
00000320: e0e7 213e 9a49 dabe 1d08 c53d 9dc7 a03e
00000330: 4018 113e 1597 9fbe 5c19 5fbd 056e 86bc
00000340: c692 b0be 5f7d 043e e367 fe3d 388d 8a3e
00000350: bb42 b13e 0ca0 253e 14d0 423e 5c82 d43d
00000360: 0bd2 9dbd d53b 9bbe 04b3 903e 63de d9bd
00000370: e937 cc3c 5921 c63e f3ed c03d 3efb 4abe
00000380: ce29 81bd 2aca 29be daa6 653e 6d9b b83e
00000390: 5eba a0bb bf10 48be b8ad a13e 771c 983e
000003a0: 40b1 7ebe 4e92 2bbe f269 233d f037 913e
000003b0: c8d2 c8be 6e3f d0bd 7b47 6fbe 872e 6dbe

lstm_5/lstm_cell/bias f4 [240]
0.3052785 0.08325823 0.18071108 0.13682549 0.5444227 0.028097194 -0.05869457 -0.18833914
0.28408495 0.8702486 0.26458648 0.16749841 0.33099774 0.17359489 0.49917343 0.47166243
0.41407844 -0.08334032 0.13953859 0.46405017 0.67782104 0.2539437 0.6253451 -0.13759322
0.37562883 0.18119225 0.27770236 0.5565218 0.41970134 0.62508255 0.18465827 0.5880016
0.35262182 0.5406744 0.07789713 0.3663017 0.56224877 0.05917364 0.3627951 -0.26362884
0.14475058 0.65027165 0.5233232 0.008173111 0.1659431 0.24182755 0.1852383 0.53170717
0.41090274 0.5681934 -0.39234212 0.008122456 0.5351429 0.41620752 0.10594932 0.035200726
0.3472478 0.105565175 0.03828997 0.46733642 0.49152327 0.5285411 0.60462606 0.48885077
-0.095269 0.46622956 0.4954278 0.71966666 0.43517646 0.566185 0.4420265 0.5237455
0.78127563 0.5347832 0.52608633 0.46774656 0.41221482 0.49085227 0.41382298 0.5762596
0.54110986 0.42132035 0.40565467 0.29837123 0.4918023 0.47012222 0.29288033 0.49160343
0.505643 0.52608544 0.39557147 0.46355116 0.51443213 0.3948858 0.525577 0.41227084
0.44020122 0.47157228 0.46592787 0.41923413 0.4551449 0.49522275 0.52506375 0.68626463
0.6289371 0.5545849 0.49985763 0.383692 0.554727 0.50400287 0.2845223 0.41553771
0.2412022 0.5153405 0.4245547 0.54161537 0.36834425 0.46010557 0.5010019 0.4229683
0.0663097 0.07859412 -0.074251205 -0.047967922 0.04098433 -0.021564778 0.0324933 0.002028998
0.051359594 -0.08498285 0.05783215 0.06643128 0.07899378 -0.05440359 0.089807354 0.07618655
-0.06593941 0.076052696 0.055155724 0.09298668 0.0830071 0.01881439 -0.08640656 0.020941708
-0.07287377 0.018855857 0.06679965 0.0838373 -0.0753774 -0.100214995 0.0048284507 -0.0912942
0.080476955 -0.08774797 -0.061472036 0.076883525 -0.07110001 -0.034643155 -0.06968347 -0.02855041
0.055387087 0.06503358 -0.085279435 0.03088481 0.05729731 0.0762793 0.007947579 -0.082448386
0.07157716 -0.08055373 0.046808608 -0.03553746 0.07852169 0.07916936 0.057168514 -0.08384603
-0.07225976 0.064375564 0.074111044 0.078184076 0.46132874 0.094234005 0.21054347 0.1336236
0.51997924 0.02472964 -0.12256361 -0.18871768 0.31922922 0.8777767 0.1630719 0.2587841
0.080371775 0.14451708 0.4353939 0.5419396 0.42310604 -0.06411533 0.114482105 0.47822502
0.7757287 0.21418166 0.7010095 -0.14285904 0.37608427 0.15577096 0.2986785 0.59375995
0.47052982 0.6351256 0.17502724 0.5719557 0.39147973 0.61257553 0.11519853 0.39062575
0.5926885 0.018303733 0.35826525 -0.2933435 0.08087355 0.73182046 0.5268302 0.025073038
0.21610104 0.28386536 0.1568231 0.5919807 0.41163057 0.6071622 -0.37833774 -0.019289123
0.5004071 0.44288474 0.0605311 0.037290566 0.33029902 0.076272346 -0.017205449 0.49571073
00000000: 774d 9c3e 4a83 aa3d 530c 393e fb1b 0c3e
00000010: 495f 0b3f 162c e63c b869 70bd fadb 40be
00000020: 9573 913e 9dc8 5e3f e177 873e b484 2b3e
00000030: 8978 a93e dcc2 313e a993 ff3e bd7d f13e
00000040: 1702 d43e 54ae aabd 34e3 0e3e fc97 ed3e
00000050: ae85 2d3f e904 823e 9e16 203f 3de5 0cbe
00000060: 6c52 c03e 768a 393e 012f 8e3e 3678 0e3f
00000070: 18e3 d63e 6905 203f 0f17 3d3e 4687 163f
00000080: d98a b43e a369 0a3f 8888 9f3d e58b bb3e
00000090: 89ef 0f3f 0f60 723d 48c0 b93e 5cfa 86be
000000a0: 7f39 143e 3478 263f 82f8 053f 83e8 053c
000000b0: fdec 293e a4a1 773e 1caf 3d3e f61d 083f
000000c0: d861 d23e 1f75 113f 11e1 c8be 0d14 053c
000000d0: 20ff 083f 2719 d53e f5fb d83d a32e 103d
000000e0: 77ca b13e 8e32 d83d f2d5 1c3d b846 ef3e
000000f0: f0a8 fb3e 784e 073f c6c8 1a3f a64a fa3e
00000100: 651c c3bd a4b5 ee3e b6a8 fd3e 133c 383f
00000110: 73cf de3e 80f1 103f 4c51 e23e 2f14 063f
00000120: ae01 483f 8de7 083f 98ad 063f 7a7c ef3e
00000130: d20d d33e fd50 fb3e 9be0 d33e c085 133f
00000140: 2d86 0a3f 4db7 d73e f8b1 cf3e 1dc4 983e
00000150: 83cd fb3e dcb3 f03e 69f4 953e 72b3 fb3e
00000160: d271 013f 89ad 063f 5888 ca3e 9456 ed3e
00000170: d3b1 033f 792e ca3e 378c 063f 2a15 d33e
00000180: 0e62 e13e ec71 f13e 198e ee3e dba5 d63e
00000190: c108 e93e d68d fd3e 946a 063f 0aaf 2f3f
000001a0: 0602 213f 47f9 0d3f 57ed ff3e 4773 c43e
000001b0: 9702 0e3f 5506 013f e8ac 913e 5cc1 d43e
000001c0: b6fd 763e 5bed 033f 3c5f d93e 4ea7 0a3f
000001d0: 9e97 bc3e f592 eb3e a941 003f 4d8f d83e
000001e0: 61cd 873d f4f5 a03d 0411 98bd 037a 44bd
000001f0: 2fdf 273d 9ea8 b0bc b217 053d f0f8 043b
00000200: 705e 523d 7d0b aebd 68e1 6c3d 1f0d 883d
00000210: 7ec7 a13d 4cd6 5ebd ebec b73d b207 9c3d
00000220: 3e0b 87bd 84c1 9b3d f8ea 613d cd6f be3d
00000230: a0ff a93d a320 9a3c ecf5 b0bd f28d ab3c
00000240: d83e 95bd 9977 9a3c 41ce 883d e4b2 ab3d
00000250: 775f 9abd 853d cdbd fb37 9e3b 74f8 babd
00000260: 1ad1 a43d 35b5 b3bd 1aca 7bbd 1c75 9d3d
00000270: e29c 91bd fbe5 0dbd 35b6 8ebd 8de2 e9bc
00000280: 92dd 623d 5330 853d fca6 aebd 2402 fd3c
00000290: 96b0 6a3d 5238 9c3d 9036 023c b3da a8bd
000002a0: 0c97 923d 5bf9 a4bd 62ba 3f3d ba8f 11bd
000002b0: fbcf a03d 8c23 a23d 8829 6a3d 78b7 abbd
000002c0: edfc 93bd 56d7 833d 88c7 973d f91e a03d
000002d0: 4833 ec3e c2fd c03d b598 573e a0d4 083e
000002e0: 5c1d 053f d095 ca3c a102 fbbd 353f 41be
000002f0: 0372 a33e f9b5 603f 52fc 263e 597f 843e
00000300: f599 a43d 49fc 133e f3eb de3e 8ebc 0a3f
00000310: 5ba1 d83e e64e 83bd 9875 ea3d e9d9 f43e
00000320: 2896 463f 7052 5b3e 5c75 333f a449 12be
00000330: 1e8e c03e 6c82 1f3e 63ec 983e a700 183f
00000340: 49e9 f03e 9797 223f 573a 333e b06b 123f
00000350: 0870 c83e c0d1 1c3f 35ed eb3d 1900 c83e
00000360: 6fba 173f b6f1 953c 8b6e b73e 1f31 96be
00000370: 08a1 a53d 9658 3b3f 58de 063f f965 cd3c
00000380: 9749 5d3e cd56 913e 3c96 203e 0c8c 173f
00000390: 3ec1 d23e fb6e 1b3f 7cb5 c1be 3904 9ebc
000003a0: ae1a 003f cac1 e23e 75ef 773d febd 183d
000003b0: f41c a93e ad34 9c3d 71f2 8cbc cccd fd3e

std.constant7 f4 [1, 80]
-0.003645727 -0.034493823 0.027036883 -0.03665719 0.031760033 -0.036617458 -0.022836193 0.0006523312
-0.049547564 -0.001146387 0.020692147 -0.032380387 -0.023114735 0.0021571228 0.021693513 -0.030692888
-0.021732315 -0.048395216 0.0009087841 0.04614407 -0.049170114 -0.0027588964 0.041978702 0.05268989
0.01236004 -0.02560517 -0.030502958 -0.030643703 -0.0352673 0.016612463 -0.04330393 0.023030907
0.03537794 0.033421423 0.040796172 -0.0035289547 -0.02748448 -0.04172754 0.043325983 0.044194337
-0.03602174 0.022085562 -0.0035804745 -0.06495445 -0.0445455 -0.04106169 -0.03608893 0.070486896
0.039878618 -0.03229894 -0.031823985 0.02519508 0.044294782 0.021541726 0.014150574 0.03274301
-0.004697771 -0.026578909 0.018608185 -0.055383496 0.052515265 0.03443095 0.046712115 0.029325457
-0.01854963 0.03410253 -0.029648952 0.04074448 -0.010628995 -0.031232487 -0.003810806 -0.04220541
0.024553357 -0.02324267 0.030588033 -0.024923554 0.007269967 0.03854537 -0.017963381 -0.00887539
00000000: 26ed 6ebb 6549 0dbd 747c dd3c da25 16bd
00000010: cf16 023d 30fc 15bd f812 bbbc 3501 2b3a
00000020: 63f2 4abd 5d42 96ba 9482 a93c 4ca1 04bd
00000030: 1d5b bdbc 845e 0d3b 98b6 b13c a76f fbbc
00000040: f807 b2bc 103a 46bd 783b 6e3a 9001 3d3d
00000050: 9a66 49bd 9ace 34bb dcf1 2b3d 5bd1 573d
00000060: c481 4a3c efc1 d1bc 57e1 f9bc 8108 fbbc
00000070: 7274 10bd dc16 883c 765f 31bd 50ab bc3c
00000080: 75e8 103d e7e4 083d e319 273d 0946 67bb
00000090: 2227 e1bc 7fea 2abd 9676 313d 1f05 353d
000000a0: 888b 13bd c8ec b43c 65a6 6abb d706 85bd
000000b0: 5875 36bd 4d30 28bd fcd1 13bd 6f5b 903d
000000c0: c357 233d e54b 04bd de59 02bd ea65 ce3c
000000d0: 726e 353d 4678 b03c cfd7 673c 891d 063d
000000e0: c2ef 99bb 03bc d9bc 3170 983c ced9 62bd
000000f0: 3f1a 573d 7807 0d3d 3455 3f3d f13b f03c
00000100: 65f5 97bc 18af 0b3d 5ce2 f2bc afe3 263d
00000110: 3c25 2ebc 46db ffbc b7be 79bb 94df 2cbd
00000120: 1f24 c93c 6967 bebc c193 fa3c 7b2c ccbc
00000130: e738 ee3b c0e1 1d3d f127 93bc 156a 11bc

lstm_5/lstm_cell/bias1 f4 [240]
0.3052785 0.08325823 0.18071108 0.13682549 0.5444227 0.028097194 -0.05869457 -0.18833914
0.28408495 0.8702486 0.26458648 0.16749841 0.33099774 0.17359489 0.49917343 0.47166243
0.41407844 -0.08334032 0.13953859 0.46405017 0.67782104 0.2539437 0.6253451 -0.13759322
0.37562883 0.18119225 0.27770236 0.5565218 0.41970134 0.62508255 0.18465827 0.5880016
0.35262182 0.5406744 0.07789713 0.3663017 0.56224877 0.05917364 0.3627951 -0.26362884
0.14475058 0.65027165 0.5233232 0.008173111 0.1659431 0.24182755 0.1852383 0.53170717
0.41090274 0.5681934 -0.39234212 0.008122456 0.5351429 0.41620752 0.10594932 0.035200726
0.3472478 0.105565175 0.03828997 0.46733642 0.49152327 0.5285411 0.60462606 0.48885077
-0.095269 0.46622956 0.4954278 0.71966666 0.43517646 0.566185 0.4420265 0.5237455
0.78127563 0.5347832 0.52608633 0.46774656 0.41221482 0.49085227 0.41382298 0.5762596
0.54110986 0.42132035 0.40565467 0.29837123 0.4918023 0.47012222 0.29288033 0.49160343
0.505643 0.52608544 0.39557147 0.46355116 0.51443213 0.3948858 0.525577 0.41227084
0.44020122 0.47157228 0.46592787 0.41923413 0.4551449 0.49522275 0.52506375 0.68626463
0.6289371 0.5545849 0.49985763 0.383692 0.554727 0.50400287 0.2845223 0.41553771
0.2412022 0.5153405 0.4245547 0.54161537 0.36834425 0.46010557 0.5010019 0.4229683
0.0663097 0.07859412 -0.074251205 -0.047967922 0.04098433 -0.021564778 0.0324933 0.002028998
0.051359594 -0.08498285 0.05783215 0.06643128 0.07899378 -0.05440359 0.089807354 0.07618655
-0.06593941 0.076052696 0.055155724 0.09298668 0.0830071 0.01881439 -0.08640656 0.020941708
-0.07287377 0.018855857 0.06679965 0.0838373 -0.0753774 -0.100214995 0.0048284507 -0.0912942
0.080476955 -0.08774797 -0.061472036 0.076883525 -0.07110001 -0.034643155 -0.06968347 -0.02855041
0.055387087 0.06503358 -0.085279435 0.03088481 0.05729731 0.0762793 0.007947579 -0.082448386
0.07157716 -0.08055373 0.046808608 -0.03553746 0.07852169 0.07916936 0.057168514 -0.08384603
-0.07225976 0.064375564 0.074111044 0.078184076 0.46132874 0.094234005 0.21054347 0.1336236
0.51997924 0.02472964 -0.12256361 -0.18871768 0.31922922 0.8777767 0.1630719 0.2587841
0.080371775 0.14451708 0.4353939 0.5419396 0.42310604 -0.06411533 0.114482105 0.47822502
0.7757287 0.21418166 0.7010095 -0.14285904 0.37608427 0.15577096 0.2986785 0.59375995
0.47052982 0.6351256 0.17502724 0.5719557 0.39147973 0.61257553 0.11519853 0.39062575
0.5926885 0.018303733 0.35826525 -0.2933435 0.08087355 0.73182046 0.5268302 0.025073038
0.21610104 0.28386536 0.1568231 0.5919807 0.41163057 0.6071622 -0.37833774 -0.019289123
0.5004071 0.44288474 0.0605311 0.037290566 0.33029902 0.076272346 -0.017205449 0.49571073
00000000: 774d 9c3e 4a83 aa3d 530c 393e fb1b 0c3e
00000010: 495f 0b3f 162c e63c b869 70bd fadb 40be
00000020: 9573 913e 9dc8 5e3f e177 873e b484 2b3e
00000030: 8978 a93e dcc2 313e a993 ff3e bd7d f13e
00000040: 1702 d43e 54ae aabd 34e3 0e3e fc97 ed3e
00000050: ae85 2d3f e904 823e 9e16 203f 3de5 0cbe
00000060: 6c52 c03e 768a 393e 012f 8e3e 3678 0e3f
00000070: 18e3 d63e 6905 203f 0f17 3d3e 4687 163f
00000080: d98a b43e a369 0a3f 8888 9f3d e58b bb3e
00000090: 89ef 0f3f 0f60 723d 48c0 b93e 5cfa 86be
000000a0: 7f39 143e 3478 263f 82f8 053f 83e8 053c
000000b0: fdec 293e a4a1 773e 1caf 3d3e f61d 083f
000000c0: d861 d23e 1f75 113f 11e1 c8be 0d14 053c
000000d0: 20ff 083f 2719 d53e f5fb d83d a32e 103d
000000e0: 77ca b13e 8e32 d83d f2d5 1c3d b846 ef3e
000000f0: f0a8 fb3e 784e 073f c6c8 1a3f a64a fa3e
00000100: 651c c3bd a4b5 ee3e b6a8 fd3e 133c 383f
00000110: 73cf de3e 80f1 103f 4c51 e23e 2f14 063f
00000120: ae01 483f 8de7 083f 98ad 063f 7a7c ef3e
00000130: d20d d33e fd50 fb3e 9be0 d33e c085 133f
00000140: 2d86 0a3f 4db7 d73e f8b1 cf3e 1dc4 983e
00000150: 83cd fb3e dcb3 f03e 69f4 953e 72b3 fb3e
00000160: d271 013f 89ad 063f 5888 ca3e 9456 ed3e
00000170: d3b1 033f 792e ca3e 378c 063f 2a15 d33e
00000180: 0e62 e13e ec71 f13e 198e ee3e dba5 d63e
00000190: c108 e93e d68d fd3e 946a 063f 0aaf 2f3f
000001a0: 0602 213f 47f9 0d3f 57ed ff3e 4773 c43e
000001b0: 9702 0e3f 5506 013f e8ac 913e 5cc1 d43e
000001c0: b6fd 763e 5bed 033f 3c5f d93e 4ea7 0a3f
000001d0: 9e97 bc3e f592 eb3e a941 003f 4d8f d83e
000001e0: 61cd 873d f4f5 a03d 0411 98bd 037a 44bd
000001f0: 2fdf 273d 9ea8 b0bc b217 053d f0f8 043b
00000200: 705e 523d 7d0b aebd 68e1 6c3d 1f0d 883d
00000210: 7ec7 a13d 4cd6 5ebd ebec b73d b207 9c3d
00000220: 3e0b 87bd 84c1 9b3d f8ea 613d cd6f be3d
00000230: a0ff a93d a320 9a3c ecf5 b0bd f28d ab3c
00000240: d83e 95bd 9977 9a3c 41ce 883d e4b2 ab3d
00000250: 775f 9abd 853d cdbd fb37 9e3b 74f8 babd
00000260: 1ad1 a43d 35b5 b3bd 1aca 7bbd 1c75 9d3d
00000270: e29c 91bd fbe5 0dbd 35b6 8ebd 8de2 e9bc
00000280: 92dd 623d 5330 853d fca6 aebd 2402 fd3c
00000290: 96b0 6a3d 5238 9c3d 9036 023c b3da a8bd
000002a0: 0c97 923d 5bf9 a4bd 62ba 3f3d ba8f 11bd
000002b0: fbcf a03d 8c23 a23d 8829 6a3d 78b7 abbd
000002c0: edfc 93bd 56d7 833d 88c7 973d f91e a03d
000002d0: 4833 ec3e c2fd c03d b598 573e a0d4 083e
000002e0: 5c1d 053f d095 ca3c a102 fbbd 353f 41be
000002f0: 0372 a33e f9b5 603f 52fc 263e 597f 843e
00000300: f599 a43d 49fc 133e f3eb de3e 8ebc 0a3f
00000310: 5ba1 d83e e64e 83bd 9875 ea3d e9d9 f43e
00000320: 2896 463f 7052 5b3e 5c75 333f a449 12be
00000330: 1e8e c03e 6c82 1f3e 63ec 983e a700 183f
00000340: 49e9 f03e 9797 223f 573a 333e b06b 123f
00000350: 0870 c83e c0d1 1c3f 35ed eb3d 1900 c83e
00000360: 6fba 173f b6f1 953c 8b6e b73e 1f31 96be
00000370: 08a1 a53d 9658 3b3f 58de 063f f965 cd3c
00000380: 9749 5d3e cd56 913e 3c96 203e 0c8c 173f
00000390: 3ec1 d23e fb6e 1b3f 7cb5 c1be 3904 9ebc
000003a0: ae1a 003f cac1 e23e 75ef 773d febd 183d
000003b0: f41c a93e ad34 9c3d 71f2 8cbc cccd fd3e

std.constant15 i1 [240, 60] scale=0.011270151 zero_point=0
0.6987493 0.7889105 -0.822721 -0.1352418 -0.52969706 -0.8678016 0.8001807 0.8452613
0.67620903 -0.47334632 0.8678016 -0.022540301 -0.16905226 -0.36064482 -0.078891054 0.41699558
-0.090161204 0.9241524 0.5409672 0.61985826 0.0 0.8452613 -0.2704836 -0.2704836
-0.39445525 0.6085881 0.19159256 0.57477766 -0.2930239 -0.2930239 0.81145084 -0.2930239
0.5860478 -0.34937465 -0.7551001 0.22540301 -0.47334632 -0.57477766 -0.32683438 0.0676209
0.94669265 0.30429405 -0.42826572 0.9354225 0.9241524 0.7325598 0.57477766 -0.31556422
0.6085881 0.078891054 0.52969706 -0.1352418 -0.2930239 0.57477766 0.6987493 -0.65366876
0.078891054 0.7889105 0.61985826 0.42826572 0.34937465 -0.25921345 -0.123971656 -0.101431355
0.22540301 0.112701505 -0.045080602 0.15778211 0.112701505 -0.21413286 -0.16905226 0.36064482
0.101431355 -0.045080602 -0.31556422 0.28175378 -0.123971656 0.15778211 -0.15778211 0.38318512
0.19159256 -0.23667316 -0.23667316 0.078891054 -0.0676209 -0.38318512 0.16905226 0.19159256
-0.39445525 -0.022540301 -0.25921345 0.03381045 0.21413286 -0.56350756 -0.18032241 0.32683438
-0.045080602 0.30429405 0.022540301 -0.056350753 -0.078891054 0.16905226 0.03381045 0.2704836
0.28175378 0.34937465 -0.23667316 -0.25921345 0.112701505 -0.25921345 0.056350753 0.20286271
0.101431355 -0.101431355 -0.0676209 -0.15778211 0.0 -0.045080602 -0.022540301 0.32683438
0.30429405 0.101431355 -0.21413286 0.056350753 0.0 0.101431355 0.123971656 0.18032241
0.20286271 -0.34937465 0.123971656 0.15778211 0.090161204 -0.078891054 -0.090161204 0.40572542
-0.101431355 0.14651196 -0.011270151 0.45080602 0.22540301 0.0676209 -0.21413286 -0.011270151
-0.2930239 0.090161204 0.101431355 0.20286271 -0.19159256 -0.112701505 0.045080602 0.0
0.21413286 -0.2704836 -0.24794331 0.31556422 -0.20286271 0.090161204 -0.078891054 -0.112701505
0.25921345 0.31556422 -0.19159256 0.2704836 0.25921345 0.22540301 -0.045080602 -0.41699558
0.18032241 -0.16905226 0.045080602 0.011270151 0.011270151 0.112701505 0.19159256 -0.14651196
-0.045080602 0.123971656 0.078891054 0.19159256 0.19159256 -0.011270151 -0.090161204 0.056350753
-0.090161204 -0.056350753 -0.18032241 0.090161204 -0.090161204 0.34937465 -0.112701505 0.14651196
-0.22540301 0.045080602 -0.18032241 0.078891054 0.16905226 0.101431355 -0.078891054 -0.011270151
0.0676209 0.03381045 0.0676209 0.0 0.20286271 -0.112701505 -0.20286271 -0.123971656
-0.090161204 0.19159256 -0.14651196 0.25921345 -0.022540301 -0.22540301 -0.03381045 0.19159256
0.22540301 0.101431355 0.14651196 0.23667316 -0.011270151 -0.14651196 0.101431355 -0.090161204
0.045080602 0.1352418 -0.19159256 0.15778211 -0.1352418 0.101431355 -0.022540301 0.101431355
0.112701505 -0.056350753 -0.101431355 -0.03381045 0.20286271 -0.20286271 -0.16905226 0.078891054
-0.28175378 -0.5071568 0.31556422 0.49588662 0.24794331 0.40572542 -0.5071568 -0.18032241
-0.65366876 0.61985826 -0.36064482 -0.21413286 -0.39445525 0.39445525 -0.6085881 -0.5409672
00000000: 3e46 b7f4 d1b3 474b 3cd6 4dfe f1e0 f925
00000010: f852 3037 004b e8e8 dd36 1133 e6e6 48e6
00000020: 34e1 bd14 d6cd e306 541b da53 5241 33e4
00000030: 3607 2ff4 e633 3ec6 0746 3726 1fe9 f5f7
00000040: 140a fc0e 0aed f120 09fc e419 f50e f222
00000050: 11eb eb07 fade 0f11 ddfe e903 13ce f01d
00000060: fc1b 02fb f90f 0318 191f ebe9 0ae9 0512
00000070: 09f7 faf2 00fc fe1d 1b09 ed05 0009 0b10
00000080: 12e1 0b0e 08f9 f824 f70d ff28 1406 edff
00000090: e608 0912 eff6 0400 13e8 ea1c ee08 f9f6
000000a0: 171c ef18 1714 fcdb 10f1 0401 010a 11f3
000000b0: fc0b 0711 11ff f805 f8fb f008 f81f f60d
000000c0: ec04 f007 0f09 f9ff 0603 0600 12f6 eef5
000000d0: f811 f317 feec fd11 1409 0d15 fff3 09f8
000000e0: 040c ef0e f409 fe09 0afb f7fd 12ee f107
000000f0: e7d3 1c2c 1624 d3f0 c637 e0ed dd23 cad0

std.constant16 f4 [240, 1]
0.5164667 0.22696309 0.49535695 0.24742424 0.47500512 0.040228806 0.10190405 -0.22080618
0.6892462 0.770635 0.36689776 -0.06519015 0.39190695 0.27700973 0.66502947 0.7485438
0.30130413 0.26286453 0.3225903 0.58841264 0.27539915 0.58021605 0.4492016 -0.008496372
0.43176362 0.28935757 0.3415613 0.55412805 0.3092832 0.69279766 0.099185035 0.48053274
0.5400208 0.6453951 0.34639242 0.34938705 0.7153676 0.31692982 0.46307194 -0.29678637
0.021701025 0.41984308 0.45184043 0.32783824 0.29516318 0.581934 0.20063959 0.7298757
0.5176424 0.5402012 0.22985956 0.20565033 0.40322733 0.5613125 0.23057704 0.12824753
0.04407197 0.006861651 0.08718522 0.6120953 -0.29680127 -0.26612672 -0.16849765 0.012372887
-0.5464946 -0.46072602 -0.22014657 -0.21184391 -0.26140788 -0.09451646 -0.0056634843 0.021325469
-0.07259563 -0.32605642 -0.109196156 -0.13797802 -0.15651584 -0.40143454 -0.34164003 -0.43109617
-0.13864876 -0.34870705 -0.35737193 -0.31797764 -0.17956127 -0.18598242 -0.1585846 -0.27273643
-0.107915714 -0.043063175 -0.5688799 0.11591456 -0.13934323 -0.48475793 -0.26031926 -0.016420498
-0.30032274 -0.09235548 -0.032675456 -0.39652008 -0.5928725 -0.040558394 -0.013795735 -0.13110198
-0.10610773 -0.12657285 -0.20542783 -0.2980064 -0.11543065 -0.19923574 -0.36063066 -0.017121352
-0.1432729 -0.16831197 -0.42351726 -0.1041054 0.1230116 -0.27594563 -0.045569204 -0.3184279
-0.62528247 -0.49341097 0.50048834 0.5173212 -0.24537753 0.28235403 -0.27746934 -0.1612825
-0.5718789 0.6741864 -0.46674263 -0.57953155 -0.42239508 0.4765276 -0.53726244 -0.61005056
0.60397124 -0.4153838 -0.53246653 -0.55546737 -0.655983 -0.38885748 0.67286074 -0.08021555
0.59703356 -0.26135445 -0.570346 -0.63040954 0.57056284 0.61166143 -0.1958505 0.6778764
-0.5769814 0.6585374 0.45494533 -0.58430594 0.64226323 0.4011196 0.57503414 0.36525604
-0.43270636 -0.5916572 0.66874486 -0.4533272 -0.5280319 -0.5354113 -0.37327382 0.6168248
-0.56817853 0.6384054 -0.3204552 0.253765 -0.4625904 -0.56782097 -0.4938117 0.47818232
0.57966423 -0.51701474 -0.46641478 -0.5963943 0.29822385 0.25762275 0.20756575 0.4490477
0.7911409 -0.039116815 0.088302344 -0.08813336 0.46513924 0.52816385 0.12535627 0.16418196
0.27461863 0.3051662 0.46936706 0.662979 0.37356627 -0.044545263 0.21645206 0.33620837
0.6198398 0.39757776 0.46310538 0.18045236 0.494521 0.107243255 0.5044511 0.59738135
0.4423824 0.53660923 0.047322 0.48210323 0.3120058 0.51059747 0.01000272 0.50347364
0.4540301 0.13725924 0.46963635 0.028869959 0.09622366 0.3398868 0.29378822 -0.12526165
0.2678728 0.3929107 0.08329731 0.6170166 0.4639827 0.72038263 0.097013384 0.3162665
0.56299454 0.47505718 -0.07253143 0.119230196 0.36643156 0.31043705 0.37297758 0.72274685
00000000: 2937 043f 0369 683e 6d9f fd3e c85c 7d3e
00000010: df33 f33e f6c6 243d 12b3 d03d 041b 62be
00000020: 7072 303f 5648 453f 06da bb3e 6a82 85bd
00000030: 07a8 c83e 38d4 8d3e 5f3f 2a3f 91a0 3f3f
00000040: 8944 9a3e 2e96 863e 8e2a a53e 36a2 163f
00000050: 1e01 8d3e 0a89 143f c1fd e53e 5e34 0bbc
00000060: 1f10 dd3e ad26 943e 1fe1 ae3e 56db 0d3f
00000070: 5e5a 9e3e 305b 313f 8621 cb3d 6308 f63e
00000080: ce3e 0a3f 9d38 253f 595a b13e dce2 b23e
00000090: 5522 373f a044 a23e c417 ed3e 62f4 97be
000000a0: 59c6 b13c acf5 d63e a157 e73e 6ada a73e
000000b0: a11f 973e a0f9 143f 7774 4d3e 22d9 3a3f
000000c0: 3684 043f a04a 0a3f 4e60 6b3e 0096 523e
000000d0: d073 ce3e 2db2 0f3f 631c 6c3e 5253 033e
000000e0: cf84 343d b3d7 e03b 2a8e b23d 47b2 1c3f
000000f0: 56f6 97be c341 88be a68a 2cbe a6b7 4a3c
00000100: 12e7 0bbf 48e4 ebbe 1a6e 61be 9ced 58be
00000110: 41d7 85be d991 c1bd c094 b9bb c0b2 ae3c
00000120: 05ad 94bd def0 a6be 3ca2 dfbd 1c4a 0dbe
00000130: b045 20be d488 cdbe 71eb aebe a3b8 dcbe
00000140: f1f9 0dbe bb89 b2be 74f9 b6be f7cd a2be
00000150: e9de 37be 2d72 3ebe 0064 22be 1ca4 8bbe
00000160: ea02 ddbd 0363 30bd 1da2 11bf 9d64 ed3d
00000170: feaf 0ebe 3132 f8be 9148 85be 4884 86bc
00000180: e7c3 99be df24 bdbd b3d6 05bd ae04 cbbe
00000190: 7ec6 17bf 8f20 26bd 8207 62bc 993f 06be
000001a0: 024f d9bd 509c 01be ac5b 52be 4b94 98be
000001b0: e866 ecbd 7404 4cbe 95a4 b8be 1442 8cbc
000001c0: 22b6 12be f959 2cbe 41d7 d8be 3635 d5bd
000001d0: 81ed fb3d bf48 8dbe c6a6 3abd fb08 a3be
000001e0: 8312 20bf 5da0 fcbe 0120 003f 2a6f 043f
000001f0: 3f44 7bbe b590 903e 7610 8ebe 3d27 25be
00000200: a866 12bf 7b97 2c3f e4f8 eebe 2e5c 14bf
00000210: 2b44 d8be 6dfb f33e 088a 09bf 462c 1cbf
00000220: dc9d 1a3f 2fad d4be ba4f 08bf 1c33 0ebf
00000230: 80ee 27bf 5418 c7be 9a40 2c3f 0d48 a4bd
00000240: 31d7 183f 40d0 85be 3202 12bf 8562 21bf
00000250: 6810 123f d895 1c3f 098d 48be 4f89 2d3f
00000260: 0eb5 13bf e895 283f 98ee e83e 1395 15bf
00000270: 5d6b 243f 8c5f cd3e 7035 133f d702 bb3e
00000280: b08b ddbe d976 17bf dd32 2b3f 811a e8be
00000290: 192d 07bf b710 09bf bf1d bfbe 3be8 1d3f
000002a0: 2674 11bf 896e 233f b412 a4be 7ced 813e
000002b0: a6d8 ecbe b75c 11bf e3d4 fcbe 50d4 f43e
000002c0: e064 143f 145b 04bf ebcd eebe 4cad 18bf
000002d0: ccb0 983e 21e7 833e 1e8c 543e 95e9 e53e
000002e0: 3688 4a3f f438 20bd dcd7 b43d 437f b4bd
000002f0: bb26 ee3e bf35 073f 655d 003e 511f 283e
00000300: d09a 8c3e bf3e 9c3e e150 f03e feb8 293f
00000310: 1444 bf3e 1875 36bd 9ca5 5d3e 8123 ac3e
00000320: d2ad 1e3f 508f cb3e 261c ed3e 81c8 383e
00000330: db31 fd3e 5aa2 db3d b523 013f fced 183f
00000340: f27f e23e 395f 093f b7d4 413d 3cd6 f63e
00000350: 39bf 9f3e 84b6 023f 73e2 233c a6e3 003f
00000360: a276 e83e b08d 0c3e 2d74 f03e b180 ec3c
00000370: e910 c53d a505 ae3e 696b 963e 9744 00be
00000380: a026 893e 972b c93e c897 aa3d cdf4 1d3f
00000390: 248f ed3e ff6a 383f f4ae c63d afed a13e
000003a0: 6920 103f b23a f33e 5c8b 94bd f62e f43d
000003b0: eb9c bb3e 9bf1 9e3e ebf6 be3e f005 393f

lstm_6/lstm_cell_1/bias1 f4 [240]
0.028697597 -0.21184015 0.28665397 -0.37432173 -0.38099855 0.333184 -0.24257508 -0.03723365
0.38898557 -0.23570508 0.29375908 0.073291965 0.082803905 0.14398573 -0.3591034 0.20655112
-0.11973457 -0.054845873 0.16041623 -0.0017085021 0.31232297 -0.65927064 0.15973131 0.38675165
0.25350484 -0.33705804 -0.057939846 0.017031355 -0.2756331 0.18737584 0.11104783 0.33342287
0.42879602 0.14614417 0.18286231 0.11219387 -0.024686921 -0.35956383 0.2783132 -0.0715831
-0.020373201 0.4550848 0.21400607 -0.40721115 -0.087546535 -0.051367596 0.2478068 0.416627
-0.0436003 -0.18769152 0.37319773 0.27599314 -0.34020594 -0.0152357835 -0.10207549 0.17658153
-0.41873118 -0.15077668 -0.20808144 -0.21724083 0.6152981 0.49828166 0.60510486 0.55734456
0.3173133 0.4400245 0.6289426 0.6429724 0.6020783 0.6822366 0.35877457 0.5489262
0.54270554 0.53414786 0.5356594 0.582351 0.3968962 0.60762763 0.48397854 0.52263075
0.5012028 0.7310541 0.5861322 0.48846 0.47575927 0.5805065 0.6390896 0.5449661
0.16789708 0.7238371 0.4502228 0.6921659 0.6239025 0.47214246 0.6748433 0.469365
0.52575475 0.6511185 0.55986524 0.7407273 0.6729497 0.67489547 0.5423872 0.7260594
0.521201 0.5826901 0.68527573 0.55318266 0.62365735 0.4509676 0.7336932 0.61200136
0.6294162 0.71749544 0.5479923 0.57267106 0.3727415 0.23917703 0.52393734 0.19221622
0.022012893 -0.002627043 -0.010871757 0.0063306247 -0.045669526 0.00054824323 -0.04896893 0.06935422
0.012226483 -0.02250731 0.03957359 -0.043667223 0.001178384 0.021761483 -0.017103676 0.02124023
0.025485685 0.05350878 0.011448772 0.012036972 0.01636157 0.01310333 0.034310292 0.05692919
-0.051545825 0.013772552 0.006855505 0.004691557 0.0059137754 0.008324634 0.012913031 0.03028553
0.037876084 0.03632183 -0.03328674 -0.02614278 -0.00089168455 -0.043931127 0.050570417 0.040971883
0.04497981 0.035595354 -0.015834637 0.025454778 0.028932873 0.03410872 -0.031994097 0.05673956
-0.011505934 0.031272173 -0.024811018 0.056205384 -0.004186043 -0.02142371 0.033135537 -0.06280204
0.015058067 -0.03393667 -0.006446682 0.086089805 0.039962087 -0.17703174 0.24021475 -0.36422542
-0.43026116 0.42095286 -0.24673146 -0.04560472 0.34925747 -0.22889818 0.32095876 0.2887544
0.10507777 0.16399865 -0.30521277 0.21739851 -0.11852451 0.10416447 0.13759515 -0.022452895
0.1581111 -0.4263428 0.09620688 0.31402293 0.14169407 -0.31169954 -0.054467544 -0.016409883
-0.3448698 0.1293845 0.124221586 0.27060866 0.34621224 0.16174334 0.19024688 0.103764266
-0.07706078 -0.30319086 0.28261578 -0.1063812 0.024929004 0.38697317 0.09420385 -0.19822404
-0.06306802 -0.16581026 0.2242693 0.3605608 -0.004905029 -0.19537638 0.3157785 0.29709217
-0.24872303 -0.1675503 0.03989596 0.2836299 -0.39223313 -0.10168348 -0.23367111 -0.2316228
00000000: 3917 eb3c a0ec 58be 4fc4 923e 19a7 bfbe
00000010: 3e12 c3be 1897 aa3e 9a65 78be 5082 18bd
00000020: 1e29 c73e ac5c 71be 9767 963e 191a 963d
00000030: 1895 a93d ff70 133e 67dc b7be 2382 533e
00000040: 6637 f5bd 11a6 60bd 2744 243e d1ef dfba
00000050: cce8 9f3e f6c5 28bf 9b90 233e 5004 c63e
00000060: 63cb 813e df92 acbe 5552 6dbd 5785 8b3c
00000070: c81f 8dbe 74df 3f3e 0b6d e33d 67b6 aa3e
00000080: 278b db3e d1a6 153e 4240 3b3e e6c5 e53d
00000090: 3a3c cabc c018 b8be 117f 8e3e 299a 92bd
000000a0: b3e5 a6bc e000 e93e 6824 5b3e fb7d d0be
000000b0: 994b b3bd d466 52bd 11c1 7d3e 2250 d53e
000000c0: 3a96 32bd 3532 40be c613 bf3e f94e 8d3e
000000d0: 792f aebe 829f 79bc f40c d1bd cad1 343e
000000e0: ef63 d6be 3465 1abe 4d13 55be 6174 5ebe
000000f0: 2d84 1d3f c61e ff3e 27e8 1a3f 22ae 0e3f
00000100: e476 a23e e44a e13e 6202 213f d799 243f
00000110: ce21 1a3f 0fa7 2e3f 4db1 b73e 6d86 0c3f
00000120: c0ee 0a3f eabd 083f f920 093f f514 153f
00000130: fb35 cb3e 7c8d 1b3f 09cc f73e 21cb 053f
00000140: d44e 003f 5d26 3b3f c30c 163f 6e17 fa3e
00000150: b896 f33e 139c 143f 609b 233f e682 0b3f
00000160: 36ed 2b3e 634d 393f 9a83 e63e c931 313f
00000170: 13b8 1f3f a8bc f13e 88c2 2c3f 9c50 f03e
00000180: dd97 063f b4af 263f 5453 0f3f 4ea0 3d3f
00000190: 6e46 2c3f f3c5 2c3f e3d9 0a3f 07df 393f
000001a0: 6e6d 053f 2e2b 153f 3b6e 2f3f 619d 0d3f
000001b0: 02a8 1f3f 3ae5 e63e 51d3 3b3f 1fac 1c3f
000001c0: 6c21 213f c8ad 373f 3949 0c3f 929a 123f
000001d0: f9d7 be3e d3ea 743e c220 063f 54d4 443e
000001e0: 6254 b43c 782a 2cbb 741f 32bc 2171 cf3b
000001f0: f80f 3bbd fbb7 0f3a a593 48bd 9609 8e3d
00000200: 9651 483c 4061 b8bc eb17 223d 67dc 32bd
00000210: 0174 9a3a 2345 b23c 021d 8cbc feff ad3c
00000220: 5bc7 d03c 062c 5b3d a193 3b3c b836 453c
00000230: b308 863c 59af 563c f388 0c3d 952e 693d
00000240: b721 53bd 45a6 613c 25a4 e03b a2bb 993b
00000250: 58c8 c13b 0c64 083c 2d91 533c 5c19 f83c
00000260: f423 1b3d 33c6 143d ad57 08bd 6229 d6bc
00000270: f0bf 69ba 20f1 33bd ed22 4f3d 22d2 273d
00000280: c03c 383d 6fcc 113d a4b7 81bc 8a86 d03c
00000290: a204 ed3c 96b5 0b3d 3e0c 03bd be67 683d
000002a0: 6383 3cbc 4017 003d 7a40 cbbc 9e37 663d
000002b0: 132b 89bb c780 afbc 21b9 073d 5b9e 80bd
000002c0: 1cb6 763c 2d01 0bbd b03e d3bb da4f b03d
000002d0: 49af 233d cf47 35be dbfa 753e c17b babe
000002e0: 314b dcbe 2287 d73e 2ca7 7cbe 04cc 3abd
000002f0: e0d1 b23e 4964 6abe b554 a43e 9ed7 933e
00000300: 0433 d73d 43ef 273e d944 9cbe b79d 5e3e
00000310: fabc f2bd 2f54 d53d bee5 0c3e 22ef b7bc
00000320: e0e7 213e 9a49 dabe 1d08 c53d 9dc7 a03e
00000330: 4018 113e 1597 9fbe 5c19 5fbd 056e 86bc
00000340: c692 b0be 5f7d 043e e367 fe3d 388d 8a3e
00000350: bb42 b13e 0ca0 253e 14d0 423e 5c82 d43d
00000360: 0bd2 9dbd d53b 9bbe 04b3 903e 63de d9bd
00000370: e937 cc3c 5921 c63e f3ed c03d 3efb 4abe
00000380: ce29 81bd 2aca 29be daa6 653e 6d9b b83e
00000390: 5eba a0bb bf10 48be b8ad a13e 771c 983e
000003a0: 40b1 7ebe 4e92 2bbe f269 233d f037 913e
000003b0: c8d2 c8be 6e3f d0bd 7b47 6fbe 872e 6dbe
