DATN_LSTM_SMGW-main/rx_service/src/LSTM_model/LSTM_model_4_TSS.tflite (tflite, 106416 bytes, 13 tensors)

lstm_4/lstm_cell_2/bias f4 [240]
-0.43439704 -0.41600218 -0.22290866 -0.5435694 -0.18024738 -0.44383878 -0.45669097 -0.2679558
-0.41867837 -0.5931668 -0.38138843 -0.39751545 -0.4204596 -0.46912107 -0.19964045 -0.47702545
-0.38791993 -0.12333921 -0.17764327 -0.46380472 -0.36748907 -0.437585 -0.4092865 -0.28443944
-0.41992825 -0.1786674 -0.46447846 -0.42317206 -0.2890244 -0.46681163 -0.42548338 -0.4524533
-0.5255051 -0.38212228 -0.40822947 -0.39365655 -0.41044924 -0.46368185 -0.21880397 -0.4080514
-0.30060673 -0.3718062 -0.3932483 -0.4482999 -0.42431858 -0.42097405 -0.4057593 -0.4309694
-0.35038498 -0.5315753 -0.38803566 -0.36827818 -0.50463676 -0.47278708 -0.41959783 -0.21581043
-0.44890824 -0.41678765 -0.51243275 -0.42054245 0.80495316 0.69495934 0.6901047 0.7144021
0.61072767 0.7535422 0.86332566 0.6476919 0.6922246 0.23803249 0.7153797 0.7171934
0.6281247 0.7152907 0.7377884 0.7254177 0.70895565 0.6521663 0.70458907 0.75027514
0.6260285 0.7072303 0.7814792 0.64648 0.7713827 0.63205606 0.7278454 0.77862054
0.78027725 0.6498896 0.7263501 0.7332411 0.66058815 0.7517543 0.61933553 0.7124099
0.4612414 0.7243831 0.72927994 0.6066007 0.58295316 0.6766884 0.7365749 0.6802422
0.6388492 0.75974363 0.4740687 0.6967078 0.6799155 0.6836553 0.68530685 0.62467724
0.6650296 0.70124924 0.6904828 0.7640594 0.6320503 0.7220175 0.6748238 0.80130386
-0.025881242 0.022357473 0.02254656 -0.041158263 -0.07213608 0.039897054 -0.033918753 -0.054010294
0.0063345805 0.064420536 0.05119066 0.01395886 -0.014498148 -0.024163608 -0.038372993 -0.018267158
-0.036068097 -0.04436161 -0.06149703 0.007302167 -0.04187744 -0.010488392 -0.041506987 0.05578664
0.011237144 -0.012157165 -0.08149409 0.012839117 0.033908267 0.0093240235 -0.04182209 -0.04065779
0.006968912 -0.017437555 -0.012483679 0.0058999523 -0.01069996 0.012475698 0.049173992 -0.050874107
-0.021748167 -0.017158285 0.031562995 -0.03335283 -0.047058538 0.0049580024 -0.043698717 0.027930003
0.014836042 -0.072732046 0.04524412 -0.04211032 -0.0017298094 0.016678736 0.07424423 -0.043910343
-0.03098671 0.0025304644 -0.001650798 0.02026632 -0.42706946 -0.4374044 -0.29908988 -0.542579
-0.27900162 -0.4565391 -0.4488333 -0.36557966 -0.4465017 -0.5680321 -0.45022544 -0.40301532
-0.43728778 -0.41400403 -0.23077194 -0.46604815 -0.4042329 -0.15814517 -0.24413793 -0.47472265
-0.36693072 -0.46547553 -0.39981788 -0.32026637 -0.4167806 -0.28324002 -0.46695176 -0.42931756
-0.29828244 -0.39890707 -0.42068547 -0.47771397 -0.40097502 -0.40994337 -0.59002376 -0.3691889
-0.45975623 -0.441326 -0.46760774 -0.40817398 -0.33517668 -0.39776897 -0.39653602 -0.44574872
-0.44808662 -0.4310627 -0.49158463 -0.43306175 -0.4228706 -0.56788313 -0.3943759 -0.3791288
-0.46230233 -0.46070847 -0.39725533 -0.23485045 -0.45505756 -0.4121192 -0.48938558 -0.41138867
00000000: 4a69 debe 3dfe d4be 2b42 64be 5d27 0bbf
00000010: c592 38be d63e e3be 66d3 e9be 8131 89be
00000020: 035d d6be c8d9 17bf 5845 c3be 2587 cbbe
00000030: 7b46 d7be a330 f0be 8c6e 4cbe ae3c f4be
00000040: 719d c6be 4599 fcbd 1ee8 35be d077 edbe
00000050: 8727 bcbe 240b e0be 008e d1be 0ca2 91be
00000060: d600 d7be 96f4 36be 1fd0 edbe 02aa d8be
00000070: 02fb 93be ef01 efbe f5d8 d9be f5a7 e7be
00000080: 8187 06bf 88a5 c3be 7403 d1be 5a8d c9be
00000090: 6726 d2be b567 edbe 260e 60be 1dec d0be
000000a0: 20e9 99be 625d bebe d757 c9be 9187 e5be
000000b0: 4940 d9be e989 d7be afbf cfbe 05a8 dcbe
000000c0: a965 b3be 5215 08bf 9cac c6be f58e bcbe
000000d0: e02f 01bf 2611 f2be 87d5 d6be 69fd 5cbe
000000e0: 4dd7 e5be 3165 d5be cb2e 03bf 5751 d7be
000000f0: 6911 4e3f dbe8 313f b4aa 303f 0ee3 363f
00000100: a658 1c3f 24e8 403f e902 5d3f 23cf 253f
00000110: a235 313f cabe 733e 2023 373f fd99 373f
00000120: c8cc 203f 4b1d 373f b3df 3c3f f9b4 393f
00000130: 1e7e 353f 5ff4 263f f35f 343f 0812 403f
00000140: 6743 203f 0c0d 353f 050f 483f b77f 253f
00000150: 5679 453f 6dce 213f 1354 3a3f ad53 473f
00000160: 40c0 473f 2a5f 263f 15f2 393f b0b5 3b3f
00000170: 4e1c 293f f872 403f c68c 1e3f 7f60 363f
00000180: d527 ec3e 2c71 393f 17b2 3a3f 2f4a 1b3f
00000190: 6b3c 153f 733b 2d3f 2c90 3c3f 5a24 2e3f
000001a0: 9f8b 233f 8f7e 423f 22b9 f23e 715b 323f
000001b0: f10e 2e3f 0904 2f3f 4570 2f3f d9ea 1f3f
000001c0: 613f 2a3f 1285 333f 7bc3 303f 6699 433f
000001d0: 0cce 213f 24d6 383f 41c1 2c3f 4022 4d3f
000001e0: e604 d4bc 0527 b73c 90b3 b83c 9195 28bd
000001f0: 15bc 93bd 186b 233d 64ee 0abd e639 5dbd
00000200: 5092 cf3b eaee 833d 4cad 513d b4b3 643c
00000210: a489 6dbc c2f2 c5bc 002d 1dbd 02a5 95bc
00000220: 24bc 13bd 85b4 35bd 4fe4 7bbd 0447 ef3b
00000230: ae87 2bbd 81d7 2bbc 3b03 2abd 8880 643d
00000240: ff1b 383c d92e 47bc 60e6 a6bd 295b 523c
00000250: 65e3 0a3d cac3 183c a44d 2bbd c888 26bd
00000260: 795b e43b 34d9 8ebc 5888 4cbc 6354 c13b
00000270: e34e 2fbc df66 4c3c ab6a 493d 5e61 50bd
00000280: 3629 b2bc 888f 8cbc 3348 013d fa9c 08bd
00000290: 74c0 40bd bd76 a23b 6dfd 32bd 76cd e43c
000002a0: df12 733c 8af4 94bd e651 393d df7b 2cbd
000002b0: c6ba e2ba d8a1 883c 5c0d 983d 55db 33bd
000002c0: d7d7 fdbc 26d6 253b 975f d8ba 8e05 a63c
000002d0: d9a8 dabe 78f3 dfbe 4f22 99be 75e6 0abf
000002e0: 4dd9 8ebe 7ebf e9be 7acd e5be 422d bbbe
000002f0: df9b e4be 8d6a 11bf f383 e6be 0658 cebe
00000300: 2fe4 dfbe 56f8 d3be 7b4f 6cbe dd9d eebe
00000310: 9df7 cebe cff0 21be 4bff 79be d90e f3be
00000320: 58de bbbe cf52 eebe eeb4 ccbe f4f9 a3be
00000330: 4464 d5be d604 91be 4d14 efbe 83cf dbbe
00000340: 7ab8 98be 8c3d ccbe 1664 d7be ed96 f4be
00000350: 994c cdbe 19e4 d1be cc0b 17bf 5406 bdbe
00000360: 2b65 ebbe 7bf5 e1be 486a efbe 2efc d0be
00000370: 479c abbe 60a8 cbbe c506 cbbe 2d39 e4be
00000380: 9c6b e5be 40b4 dcbe fbb0 fbbe 45ba ddbe
00000390: 7f82 d8be ca60 11bf a3eb c9be 2c1d c2be
000003a0: e4b2 ecbe fbe1 ebbe 0d65 cbbe a37c 70be
000003b0: 4efd e8be 4a01 d3be bf90 fabe 89a1 d2be

lstm_3/lstm_cell_1/bias f4 [240]
-0.30448425 -0.21953586 -0.18354931 -0.22889714 0.12766951 0.3534755 -0.30525762 0.045443002
-0.684917 -0.25848827 0.08327163 -0.22155714 -0.36967427 -0.1575266 0.34627694 -0.33740774
0.26372266 -0.25572327 0.3242064 -0.19221836 0.28684065 -0.18999918 -0.2567873 -0.3532959
-0.27459827 0.07503646 0.34852016 -0.31382456 0.10595228 -0.36561966 -0.2075388 0.18941729
-0.14272077 -0.2679017 0.17285943 -0.4401589 -0.0050623957 -0.16229622 -0.35048133 -0.34278303
0.10186343 -0.3819542 -0.18438987 -0.16547336 -0.22009695 -0.24115701 -0.08433997 -0.19614388
0.09315694 0.15219244 -0.35096416 -0.11043124 -0.25464696 -0.16589591 0.10434374 -0.11701677
-0.29747486 -0.2520986 -0.34983227 -0.04477317 0.76606625 0.7920298 0.78813994 0.5534834
0.3583051 0.5125203 0.75185794 0.7960607 0.5184615 0.7006916 0.51405114 0.5827975
0.38752377 0.6824325 0.55591863 0.6128005 0.51153433 0.64024687 0.7593083 0.51397496
0.59605646 0.6486124 0.55891526 0.6889439 0.75847477 0.5898091 0.6004865 0.66599905
0.6645232 0.6352368 0.7232459 0.57660383 0.7536579 0.58702904 0.21824136 0.6320544
0.5790642 0.73634255 0.56824946 0.64263093 0.5344098 0.6265202 0.7044617 0.8860842
0.6679751 0.8466387 0.519951 0.21857303 0.50038236 0.5589816 0.71646583 0.30298424
0.5232611 0.5362121 0.5038372 0.6038977 0.7469689 0.4319784 0.7022964 0.61117107
-0.011793105 0.0429077 -0.12771977 -0.03565645 -0.063470036 0.006421386 -0.012922998 0.02900252
-0.04874439 0.070346646 -0.024428599 -0.0636144 -0.007072982 0.06172133 -0.02089283 0.05507072
0.017027782 -0.00041160866 0.02511749 -0.0004928237 -0.04381391 -0.025367726 -0.08980731 -0.055266004
-0.049820464 0.0153009845 -0.0030647474 -0.05034958 0.004545755 -0.006001419 0.05671111 0.041684583
-0.037494805 -0.032496855 0.018272262 0.010067172 -0.013708853 -0.016406499 -0.032046724 0.042265195
-0.018454045 -0.004088881 -0.02688356 0.034752134 -0.037919305 0.024889186 -0.012326196 -0.010084561
-0.04989895 0.005098451 0.026815558 -0.06443062 -0.024787327 -0.06992953 -0.029743752 0.0063541974
0.028329195 -0.11282118 0.060497306 0.047519427 -0.28234333 0.36973238 -0.23877354 -0.13597353
0.029881263 0.28072605 -0.16302218 -0.059441466 -0.5471832 -0.2903825 0.011907367 -0.23325607
-0.42934993 -0.07593464 0.5249987 -0.29236543 0.17173299 -0.22775541 0.15864614 -0.28136492
0.369197 -0.19679798 -0.05937509 -0.4095069 -0.42114517 0.04891815 0.41183093 -0.39689365
-0.35561627 -0.45248395 -0.20955475 0.14765659 0.11410567 -0.22946939 0.15271546 -0.5458781
0.12952586 -0.24505208 -0.024119183 -0.29474986 0.022825968 -0.40410376 -0.2152803 -0.2561753
-0.21146807 -0.30437398 0.042730246 -0.32630375 0.10037524 0.13956472 -0.42794725 -0.16370371
0.16059797 -0.2655763 0.1635553 -0.018410072 -0.30914938 -0.33572647 -0.3670458 0.045194928
00000000: 5ce5 9bbe 02ce 60be 5af4 3bbe 0364 6abe
00000010: ccbb 023e befa b43e ba4a 9cbe 7122 3a3d
00000020: b856 2fbf 9358 84be 518a aa3d e0df 62be
00000030: f245 bdbe a74e 21be 364b b13e b5c0 acbe
00000040: a806 873e 29ee 82be 62fe a53e e4d4 44be
00000050: c7dc 923e 258f 42be a079 83be 33e3 b4be
00000060: 2598 8cbe b7ac 993d 3c71 b23e 9dad a0be
00000070: 82fd d83d 8032 bbbe 0d85 54be 9bf6 413e
00000080: 6525 12be 692a 89be 1002 313e 825c e1be
00000090: 74e2 a5bb fb30 26be 4a72 b3be 4281 afbe
000000a0: c69d d03d 808f c3be b3d0 3cbe d971 29be
000000b0: 1861 61be ddf1 76be 6fba acbd f1d9 48be
000000c0: 11c9 be3d 56d8 1b3e 93b1 b3be c629 e2bd
000000d0: 1661 82be 9ee0 29be 2cb2 d53d 7da6 efbd
000000e0: a04e 98be 1113 81be 371d b3be 1264 37bd
000000f0: eb1c 443f 77c2 4a3f 8ac3 493f 17b1 0d3f
00000100: c473 b73e 8834 033f c379 403f a2ca 4b3f
00000110: e5b9 043f 8660 333f db98 033f 3832 153f
00000120: 8469 c63e e5b3 2e3f af50 0e3f 7ee0 1c3f
00000130: eaf3 023f 38e7 233f 0762 423f dd93 033f
00000140: 2897 183f 760b 263f 1215 0f3f a15e 303f
00000150: 672b 423f bbfd 163f 7cb9 193f ea7e 2a3f
00000160: 311e 2a3f e19e 223f a526 393f 4f9c 133f
00000170: b9ef 403f 8947 163f aa7a 5f3e 51ce 213f
00000180: 8d3d 143f f280 3c3f cc78 113f 7683 243f
00000190: 15cf 083f a163 203f 9a57 343f 6ad6 623f
000001a0: 6b00 2b3f 50bd 583f 821b 053f 9cd1 5f3e
000001b0: 0f19 003f 6b19 0f3f 4e6a 373f c020 9b3e
000001c0: 70f4 053f 3245 093f 7afb 003f 0a99 1a3f
000001d0: 5b39 3f3f 462c dd3e b2c9 333f b575 1c3f
000001e0: de37 41bc fcbf 2f3d f9c8 02be 7f0c 12bd
000001f0: 94fc 81bd 7d6a d23b fbba 53bc b196 ed3c
00000200: 33a8 47bd e711 903d 7c1e c8bc 4448 82bd
00000210: 79c4 e7bb 81cf 7c3d 7127 abbc d691 613d
00000220: d97d 8b3c 2ecd d7b9 32c3 cd3c d730 01ba
00000230: 3776 33bd facf cfbc e5ec b7bd 9b5e 62bd
00000240: 8b10 4cbd fbb0 7a3c eed9 48bb 5c3b 4ebd
00000250: 8ff4 943b 8da7 c4bb e949 683d 74bd 2a3d
00000260: 2794 19bd 6c1b 05bd b6af 953c c8f0 243c
00000270: 199b 60bc ec66 86bc 6d43 03bd 451e 2d3d
00000280: f02c 97bc 05fc 85bb e93a dcbc 4158 0e3d
00000290: 4651 1bbd 68e4 cb3c d0f3 49bc b739 25bc
000002a0: d762 4cbd e810 a73b 4dac db3c 33f4 83bd
000002b0: cb0e cbbc 3737 8fbd 2ba9 f3bc df36 d03b
000002c0: a112 e83c ca0e e7bd 06cc 773d bba3 423d
000002d0: 4e8f 90be 904d bd3e 0d81 74be a53c 0bbe
000002e0: 8dc9 f43c 53bb 8f3e 49ef 26be e578 73bd
000002f0: 3314 0cbf 04ad 94be 1e17 433c aeda 6ebe
00000300: c1d3 dbbe 9f83 9bbd 5166 063f ecb0 95be
00000310: c6da 2f3e b738 69be 2274 223e 100f 90be
00000320: 6407 bd3e 6985 49be 4b33 73bd e3aa d1be
00000330: 57a0 d7be 665e 483d 81db d23e a535 cbbe
00000340: 5613 b6be faab e7be 8595 56be 4a33 173e
00000350: 3cb0 e93d 06fa 6abe 7161 1c3e abbe 0bbf
00000360: 6da2 043e efee 7abe 9895 c5bc 74e9 96be
00000370: 86fd ba3c b0e6 cebe 7072 5cbe 6929 83be
00000380: 168b 58be e8d6 9bbe e905 2f3d 4911 a7be
00000390: 8991 cd3d 0eea 0e3e e71b dbbe f2a1 27be
000003a0: cb73 243e 9ef9 87be 0a7b 273e b8d0 96bc
000003b0: d448 9ebe 57e4 abbe 6ded bbbe 511e 393d

lstm_2/lstm_cell/bias f4 [240]
0.4671735 0.1968893 0.90878487 0.055839576 0.41468424 0.3359992 0.049956046 1.057185
-0.105258204 -0.053555306 -0.2389872 0.5999351 0.046395507 0.079350755 0.34065387 0.0021366174
0.40499163 0.2645344 0.21974306 0.28171077 0.2052817 0.74010444 0.076570645 0.7594851
0.19314502 -0.024821918 -0.14119779 0.04180555 0.23726311 0.19202933 0.5366529 0.4135222
-0.21589717 0.38078463 0.9586451 -0.054701053 0.582078 0.49876153 0.23270434 0.45984864
0.6933373 -0.07094096 -0.10613006 0.34008157 0.0223742 0.42983082 0.3057576 0.21730784
0.18525611 0.18497439 0.031491455 0.45637774 0.44443443 0.29375207 0.6564318 0.43785837
0.12416431 0.97260135 0.46253508 0.19733761 0.5273202 0.4516467 0.65060216 0.31101695
0.53749466 0.5098173 0.58608764 0.56959915 0.51612043 0.33017814 0.46959513 0.56660056
0.37950295 0.47409293 0.52359825 0.45236358 0.50614816 0.50442755 0.518462 0.32940832
0.60334206 0.485107 0.318433 0.43217936 0.5659963 0.48856443 0.36356166 0.29160756
0.49583745 0.46898106 0.6031138 0.29039165 0.46218774 0.52448416 0.45181358 0.5671606
0.45109624 0.30806676 0.60339206 0.52644557 0.46253604 0.35980213 0.613021 0.60392874
0.51281136 0.5549486 0.54691917 0.32242855 0.37409896 0.5240016 0.19280756 0.44787917
0.4710395 0.28652945 0.51237154 0.6193874 0.4027787 0.52405083 0.37150273 0.55321926
-0.15732953 0.11919577 0.16532497 -0.1823214 0.16336006 -0.11982734 0.12652111 -0.14852221
0.10057882 0.116284944 -0.045282975 0.17508207 -0.100598104 0.1146191 0.14621976 -0.018801069
0.16108423 -0.12898166 0.12821028 -0.11499398 0.10961372 0.15812655 -0.00077456556 -0.14650346
0.14286792 0.07680759 0.06437461 -0.055974346 0.12585644 -0.12917782 -0.16922547 0.22796535
0.048139505 -0.14824627 0.15532231 -0.0012170594 -0.14649282 0.17418274 -0.13421102 0.1463968
0.14554602 0.07612778 0.029503305 0.12176185 0.089111865 -0.1536808 -0.1275481 0.06199166
-0.11866981 0.14385487 -0.051505785 0.14153269 -0.16047288 -0.15751112 0.17640726 0.15659174
0.06137523 0.14170434 -0.14008196 0.137607 0.5434718 0.17697056 1.0235124 0.020174123
0.48429787 0.49529094 -0.06585752 1.1192526 -0.117755726 -0.036125176 -0.21972172 0.67949325
0.040940564 0.044564284 0.3611188 -0.05379931 0.4351673 0.2914119 0.2972239 0.16730028
0.20106164 0.8449046 0.070840195 0.85488725 0.15972956 -0.009983981 -0.13788916 0.06278956
0.2065157 0.12637275 0.5746503 0.4081163 -0.1826287 0.44563577 0.99852806 -0.04223281
0.502373 0.4895215 0.2593891 0.40720984 0.70300144 -0.064153865 -0.15139295 0.34517232
0.014759574 0.47436938 0.32342485 0.26423055 0.19494227 0.20919783 -0.0073861596 0.48949632
0.49352542 0.24813567 0.6546334 0.42588237 0.05400382 1.0635169 0.5557629 0.17328122
00000000: 5d31 ef3e 599d 493e 20a6 683f 0ab8 643d
00000010: 7e51 d43e 1608 ac3e b69e 4c3d d751 873f
00000020: 9d91 d7bd cf5c 5bbd 10b9 74be 5995 193f
00000030: 3709 3e3d a682 a23d 2f6a ae3e 7e06 0c3b
00000040: 105b cf3e 0e71 873e 5304 613e 653c 903e
00000050: 5e35 523e 7c77 3d3f 12d1 9c3d 9e6d 423f
00000060: cfc7 453e 5657 cbbc 2796 10be 4c3c 2b3d
00000070: 1af5 723e 56a3 443e 1662 093f 2fb9 d33e
00000080: 2614 5dbe 34f6 c23e c469 753f 360e 60bd
00000090: 1003 153f ac5d ff3e 0c4a 6e3e 4871 eb3e
000000a0: 8e7e 313f 7e49 91bd b85a d9bd 2c1f ae3e
000000b0: 194a b73c c912 dc3e 438c 9c3e f285 5e3e
000000c0: c7b3 3d3e ed69 3d3e 2ffd 003d 58aa e93e
000000d0: e98c e33e ac66 963e ea0b 283f f92e e03e
000000e0: dc49 fe3d 67fc 783f 66d1 ec3e df12 4a3e
000000f0: 75fe 063f 3c3e e73e dd8d 263f 9d3d 9f3e
00000100: 4099 093f 6383 023f d709 163f 40d1 113f
00000110: 7820 043f 1c0d a93e c66e f03e bc0c 113f
00000120: 364e c23e 4fbc f23e 890a 063f 339c e73e
00000130: ed92 013f 2a22 013f edb9 043f 35a8 a83e
00000140: a074 1a3f f25f f83e a609 a33e 9d46 dd3e
00000150: 22e5 103f 1e25 fa3e c124 ba3e 964d 953e
00000160: 68de fd3e 491e f03e aa65 1a3f 37ae 943e
00000170: dfa3 ec3e 9844 063f 1c54 e73e 7031 113f
00000180: 16f6 e63e edba 9d3e e777 1a3f 23c5 063f
00000190: 86d1 ec3e fc37 b83e f2ee 1c3f 139b 1a3f
000001a0: 9b47 033f 1d11 0e3f e502 0c3f 5b15 a53e
000001b0: e689 bf3e f824 063f 586f 453e 6b50 e53e
000001c0: 172c f13e fdb3 923e c82a 033f 2c90 1e3f
000001d0: 0339 ce3e 3228 063f 9b35 be3e c79f 0d3f
000001e0: fe1a 21be e91c f43d f34a 293e 76b2 3abe
000001f0: dc47 273e 0968 f5bd c08e 013e 3516 18be
00000200: 45fc cd3d cd26 ee3d a47a 39bd b748 333e
00000210: 6106 cebd 6bbd ea3d a2ba 153e b304 9abc
00000220: 44f3 243e c513 04be 8e49 033e f781 ebbd
00000230: 287d e03d edeb 213e 370c 4bba 0105 16be
00000240: f84b 123e 4c4d 9d3d d6d6 833d 5b45 65bd
00000250: 83e0 003e 3147 04be 7149 2dbe c06f 693e
00000260: ee2d 453d dfcd 17be d00c 1f3e bd85 9fba
00000270: 3702 16be f65c 323e 9d6e 09be 0be9 153e
00000280: 040a 153e e2e8 9b3d eab0 f13c 475e f93d
00000290: 4880 b63d 805e 1dbe f89b 02be f8ea 7d3d
000002a0: 2809 f3bd b14e 133e bbf7 52bd f2ed 103e
000002b0: 0153 24be 984a 21be 1ba4 343e 9659 203e
000002c0: 9864 7b3d f11a 113e a571 0fbe d9e8 0c3e
000002d0: f820 0b3f c537 353e 7402 833f 3444 a53c
000002e0: e4f5 f73e c696 fd3e 4fe0 86bd ab43 8f3f
000002f0: ea29 f1bd fef7 13bd bbfe 60be 45f3 2d3f
00000300: 4bb1 273d 0a89 363d 90e4 b83e aa5c 5cbd
00000310: 40ce de3e f133 953e bb2d 983e c450 2b3e
00000320: 1ae3 4d3e ab4b 583f aa14 913d e4d9 5a3f
00000330: 2590 233e da93 23bc d132 0dbe d097 803d
00000340: da78 533e dc67 013e 481c 133f 9ff4 d03e
00000350: 0503 3bbe 5f2a e43e 899f 7f3f 50fc 2cbd
00000360: 849b 003f 90a2 fa3e a6ce 843e cf7d d03e
00000370: e7f7 333f 1a63 83bd c106 1bbe 6dba b03e
00000380: 24d2 713c 8be0 f23e f197 a53e 3a49 873e
00000390: f29e 473e f537 563e 9907 f2bb 439f fa3e
000003a0: 5daf fc3e 4717 7e3e 0e96 273f 410d da3e
000003b0: 1c33 5d3d 5221 883f 7a46 0e3f a270 313e

std.constant5 f4 [1, 60]
-0.06597813 0.048588008 0.082325004 -0.07687429 -0.0911535 0.046200164 -0.05316196 -0.025853008
-0.07370059 0.023930673 0.04800545 -0.060716268 -0.06995852 -0.058638502 -0.06281089 -0.06443548
-0.04056337 -0.07235239 -0.047131803 -0.060308766 -0.07560261 -0.061724104 -0.075031966 0.048420172
0.058119636 -0.06866716 -0.06951837 0.08136968 0.05632816 0.07807097 -0.044355005 -0.061587907
0.08334747 -0.073956296 -0.05800213 0.07753501 0.040074266 0.07080866 -0.041606408 -0.054998916
-0.057094254 -0.09024996 0.053342827 -0.047923733 -0.061992638 -0.06808597 0.07031995 0.06934713
-0.07149168 -0.043599486 0.060366828 -0.048132267 -0.080236584 0.06969924 0.06678084 -0.033588607
-0.053994138 0.06662425 -0.073223285 0.052479155
00000000: 8b1f 87bd 3804 473d 039a a83d 4570 9dbd
00000010: b0ae babd 623c 3d3d 5bc0 59bd b0c9 d3bc
00000020: 56f0 96bd 420a c43c 5da1 443d 9fb1 78bd
00000030: 6a46 8fbd ed2e 70bd ffa2 80bd c0f6 83bd
00000040: c725 26bd 7d2d 94bd 470d 41bd 5306 77bd
00000050: 8bd5 9abd 6ad2 7cbd 5caa 99bd 3b54 463d
00000060: db0e 6e3d 5ea1 8cbd a65f 8ebd 26a5 a63d
00000070: 5bb8 663d ace3 9f3d 98ad 35bd 9a43 7cbd
00000080: 14b2 aa3d 6676 97bd a493 6dbd adca 9e3d
00000090: ea24 243d 2104 913d 7b6b 2abd 8b46 61bd
000000a0: aadb 69bd f9d4 b8bd 027e 5a3d ad4b 44bd
000000b0: feeb 7dbd a870 8bbd e803 903d de05 8e3d
000000c0: 3b6a 92bd 6095 32bd 3543 773d 5726 45bd
000000d0: 1453 a4bd 7abe 8e3d 65c4 883d 3594 09bd
000000e0: f528 5dbd 4b72 883d 17f6 95bd 62f4 563d

lstm_2/lstm_cell/bias1 f4 [240]
0.4671735 0.1968893 0.90878487 0.055839576 0.41468424 0.3359992 0.049956046 1.057185
-0.105258204 -0.053555306 -0.2389872 0.5999351 0.046395507 0.079350755 0.34065387 0.0021366174
0.40499163 0.2645344 0.21974306 0.28171077 0.2052817 0.74010444 0.076570645 0.7594851
0.19314502 -0.024821918 -0.14119779 0.04180555 0.23726311 0.19202933 0.5366529 0.4135222
-0.21589717 0.38078463 0.9586451 -0.054701053 0.582078 0.49876153 0.23270434 0.45984864
0.6933373 -0.07094096 -0.10613006 0.34008157 0.0223742 0.42983082 0.3057576 0.21730784
0.18525611 0.18497439 0.031491455 0.45637774 0.44443443 0.29375207 0.6564318 0.43785837
0.12416431 0.97260135 0.46253508 0.19733761 0.5273202 0.4516467 0.65060216 0.31101695
0.53749466 0.5098173 0.58608764 0.56959915 0.51612043 0.33017814 0.46959513 0.56660056
0.37950295 0.47409293 0.52359825 0.45236358 0.50614816 0.50442755 0.518462 0.32940832
0.60334206 0.485107 0.318433 0.43217936 0.5659963 0.48856443 0.36356166 0.29160756
0.49583745 0.46898106 0.6031138 0.29039165 0.46218774 0.52448416 0.45181358 0.5671606
0.45109624 0.30806676 0.60339206 0.52644557 0.46253604 0.35980213 0.613021 0.60392874
0.51281136 0.5549486 0.54691917 0.32242855 0.37409896 0.5240016 0.19280756 0.44787917
0.4710395 0.28652945 0.51237154 0.6193874 0.4027787 0.52405083 0.37150273 0.55321926
-0.15732953 0.11919577 0.16532497 -0.1823214 0.16336006 -0.11982734 0.12652111 -0.14852221
0.10057882 0.116284944 -0.045282975 0.17508207 -0.100598104 0.1146191 0.14621976 -0.018801069
0.16108423 -0.12898166 0.12821028 -0.11499398 0.10961372 0.15812655 -0.00077456556 -0.14650346
0.14286792 0.07680759 0.06437461 -0.055974346 0.12585644 -0.12917782 -0.16922547 0.22796535
0.048139505 -0.14824627 0.15532231 -0.0012170594 -0.14649282 0.17418274 -0.13421102 0.1463968
0.14554602 0.07612778 0.029503305 0.12176185 0.089111865 -0.1536808 -0.1275481 0.06199166
-0.11866981 0.14385487 -0.051505785 0.14153269 -0.16047288 -0.15751112 0.17640726 0.15659174
0.06137523 0.14170434 -0.14008196 0.137607 0.5434718 0.17697056 1.0235124 0.020174123
0.48429787 0.49529094 -0.06585752 1.1192526 -0.117755726 -0.036125176 -0.21972172 0.67949325
0.040940564 0.044564284 0.3611188 -0.05379931 0.4351673 0.2914119 0.2972239 0.16730028
0.20106164 0.8449046 0.070840195 0.85488725 0.15972956 -0.009983981 -0.13788916 0.06278956
0.2065157 0.12637275 0.5746503 0.4081163 -0.1826287 0.44563577 0.99852806 -0.04223281
0.502373 0.4895215 0.2593891 0.40720984 0.70300144 -0.064153865 -0.15139295 0.34517232
0.014759574 0.47436938 0.32342485 0.26423055 0.19494227 0.20919783 -0.0073861596 0.48949632
0.49352542 0.24813567 0.6546334 0.42588237 0.05400382 1.0635169 0.5557629 0.17328122
00000000: 5d31 ef3e 599d 493e 20a6 683f 0ab8 643d
00000010: 7e51 d43e 1608 ac3e b69e 4c3d d751 873f
00000020: 9d91 d7bd cf5c 5bbd 10b9 74be 5995 193f
00000030: 3709 3e3d a682 a23d 2f6a ae3e 7e06 0c3b
00000040: 105b cf3e 0e71 873e 5304 613e 653c 903e
00000050: 5e35 523e 7c77 3d3f 12d1 9c3d 9e6d 423f
00000060: cfc7 453e 5657 cbbc 2796 10be 4c3c 2b3d
00000070: 1af5 723e 56a3 443e 1662 093f 2fb9 d33e
00000080: 2614 5dbe 34f6 c23e c469 753f 360e 60bd
00000090: 1003 153f ac5d ff3e 0c4a 6e3e 4871 eb3e
000000a0: 8e7e 313f 7e49 91bd b85a d9bd 2c1f ae3e
000000b0: 194a b73c c912 dc3e 438c 9c3e f285 5e3e
000000c0: c7b3 3d3e ed69 3d3e 2ffd 003d 58aa e93e
000000d0: e98c e33e ac66 963e ea0b 283f f92e e03e
000000e0: dc49 fe3d 67fc 783f 66d1 ec3e df12 4a3e
000000f0: 75fe 063f 3c3e e73e dd8d 263f 9d3d 9f3e
00000100: 4099 093f 6383 023f d709 163f 40d1 113f
00000110: 7820 043f 1c0d a93e c66e f03e bc0c 113f
00000120: 364e c23e 4fbc f23e 890a 063f 339c e73e
00000130: ed92 013f 2a22 013f edb9 043f 35a8 a83e
00000140: a074 1a3f f25f f83e a609 a33e 9d46 dd3e
00000150: 22e5 103f 1e25 fa3e c124 ba3e 964d 953e
00000160: 68de fd3e 491e f03e aa65 1a3f 37ae 943e
00000170: dfa3 ec3e 9844 063f 1c54 e73e 7031 113f
00000180: 16f6 e63e edba 9d3e e777 1a3f 23c5 063f
00000190: 86d1 ec3e fc37 b83e f2ee 1c3f 139b 1a3f
000001a0: 9b47 033f 1d11 0e3f e502 0c3f 5b15 a53e
000001b0: e689 bf3e f824 063f 586f 453e 6b50 e53e
000001c0: 172c f13e fdb3 923e c82a 033f 2c90 1e3f
000001d0: 0339 ce3e 3228 063f 9b35 be3e c79f 0d3f
000001e0: fe1a 21be e91c f43d f34a 293e 76b2 3abe
000001f0: dc47 273e 0968 f5bd c08e 013e 3516 18be
00000200: 45fc cd3d cd26 ee3d a47a 39bd b748 333e
00000210: 6106 cebd 6bbd ea3d a2ba 153e b304 9abc
00000220: 44f3 243e c513 04be 8e49 033e f781 ebbd
00000230: 287d e03d edeb 213e 370c 4bba 0105 16be
00000240: f84b 123e 4c4d 9d3d d6d6 833d 5b45 65bd
00000250: 83e0 003e 3147 04be 7149 2dbe c06f 693e
00000260: ee2d 453d dfcd 17be d00c 1f3e bd85 9fba
00000270: 3702 16be f65c 323e 9d6e 09be 0be9 153e
00000280: 040a 153e e2e8 9b3d eab0 f13c 475e f93d
00000290: 4880 b63d 805e 1dbe f89b 02be f8ea 7d3d
000002a0: 2809 f3bd b14e 133e bbf7 52bd f2ed 103e
000002b0: 0153 24be 984a 21be 1ba4 343e 9659 203e
000002c0: 9864 7b3d f11a 113e a571 0fbe d9e8 0c3e
000002d0: f820 0b3f c537 353e 7402 833f 3444 a53c
000002e0: e4f5 f73e c696 fd3e 4fe0 86bd ab43 8f3f
000002f0: ea29 f1bd fef7 13bd bbfe 60be 45f3 2d3f
00000300: 4bb1 273d 0a89 363d 90e4 b83e aa5c 5cbd
00000310: 40ce de3e f133 953e bb2d 983e c450 2b3e
00000320: 1ae3 4d3e ab4b 583f aa14 913d e4d9 5a3f
00000330: 2590 233e da93 23bc d132 0dbe d097 803d
00000340: da78 533e dc67 013e 481c 133f 9ff4 d03e
00000350: 0503 3bbe 5f2a e43e 899f 7f3f 50fc 2cbd
00000360: 849b 003f 90a2 fa3e a6ce 843e cf7d d03e
00000370: e7f7 333f 1a63 83bd c106 1bbe 6dba b03e
00000380: 24d2 713c 8be0 f23e f197 a53e 3a49 873e
00000390: f29e 473e f537 563e 9907 f2bb 439f fa3e
000003a0: 5daf fc3e 4717 7e3e 0e96 273f 410d da3e
000003b0: 1c33 5d3d 5221 883f 7a46 0e3f a270 313e

std.constant13 i1 [240, 60] scale=0.014023597 zero_point=0
0.29449555 0.30851915 -0.5328967 -0.32254273 0.14023598 0.8133686 0.7712979 0.8133686
0.08414158 0.35058993 0.0 0.014023597 0.0 0.64508545 0.08414158 -0.5188731
0.4207079 0.29449555 -0.4207079 0.64508545 0.05609439 -0.23840116 0.26644835 0.47680232
0.4347315 -0.46277872 0.4207079 0.64508545 -0.33656633 -0.35058993 -0.18230677 0.4207079
0.028047195 0.19633037 -0.44875512 -0.4207079 0.36461353 0.5469203 0.11218878 -0.05609439
-0.5889911 -0.36461353 0.37863714 0.28047195 -0.39266074 0.15425958 0.70117986 -0.869463
0.23840116 0.098165184 -0.46277872 0.028047195 0.21035396 -0.71520346 -0.12621237 0.014023597
0.6030147 -1.0657934 0.21035396 0.23840116 0.23840116 -0.04207079 -0.65910906 -0.23840116
-0.19633037 0.5048495 -0.11218878 0.63106185 -0.05609439 -0.014023597 0.19633037 -0.18230677
-0.04207079 -0.014023597 -0.15425958 -0.028047195 -0.5048495 0.11218878 -0.4066843 -0.08414158
-0.22437756 -0.44875512 0.014023597 0.74325067 -0.36461353 -0.12621237 0.47680232 0.25242475
-0.33656633 0.5328967 0.37863714 -0.04207079 -0.4347315 0.18230677 -0.46277872 -0.25242475
0.6170383 -0.18230677 0.08414158 -0.44875512 -0.32254273 -0.14023598 -0.028047195 -0.6170383
-0.22437756 0.23840116 0.25242475 -0.25242475 0.44875512 -0.16828316 0.39266074 -0.5469203
0.5048495 0.30851915 -0.36461353 -0.4347315 -0.32254273 -0.5609439 0.29449555 -0.29449555
0.4347315 -0.19633037 -0.7712979 -1.1639585 -0.4066843 1.2481002 0.5469203 1.2481002
-0.28047195 0.25242475 0.65910906 -0.23840116 0.5889911 0.15425958 -0.18230677 -0.19633037
0.30851915 0.93958104 -0.869463 0.63106185 -0.12621237 -0.21035396 0.8554394 0.7993451
0.14023598 -0.8834866 1.149935 1.1078641 -0.89751023 0.12621237 0.07011799 0.35058993
-0.5889911 0.28047195 -0.7853215 -1.009699 0.5889911 0.67313266 0.5188731 -0.63106185
-0.8554394 -0.68715626 -0.11218878 0.36461353 -0.91153383 0.26644835 1.0517699 -1.1920058
0.72922707 -0.28047195 -0.014023597 -0.21035396 0.5749675 -0.49082592 -0.39266074 -0.04207079
0.11218878 -1.2761474 0.35058993 -0.16828316 -0.44875512 0.7993451 0.36461353 0.4066843
0.6170383 -0.12621237 0.67313266 -0.18230677 0.74325067 0.49082592 -0.46277872 0.39266074
-0.68715626 0.5889911 0.7993451 -0.5188731 0.37863714 -0.46277872 0.49082592 -0.32254273
-0.014023597 0.04207079 -0.25242475 0.07011799 0.37863714 0.63106185 -0.19633037 -0.05609439
0.25242475 -0.098165184 -0.44875512 0.11218878 -0.014023597 -0.70117986 0.35058993 0.92555743
-0.04207079 0.36461353 -0.22437756 0.32254273 0.8133686 0.5749675 0.64508545 -1.0657934
0.71520346 -0.36461353 -0.4066843 0.028047195 -0.4347315 0.49082592 -0.15425958 0.11218878
-0.5188731 -0.65910906 0.11218878 0.25242475 0.33656633 0.4066843 -0.26644835 0.33656633
-0.014023597 0.26644835 -0.33656633 -0.25242475 0.32254273 0.6170383 0.8414158 0.5889911
0.14023598 0.46277872 0.098165184 0.29449555 -0.08414158 0.7712979 0.15425958 -0.37863714
00000000: 1516 dae9 0a3a 373a 0619 0001 002e 06db
00000010: 1e15 e22e 04ef 1322 1fdf 1e2e e8e7 f31e
00000020: 020e e0e2 1a27 08fc d6e6 1b14 e40b 32c2
00000030: 1107 df02 0fcd f701 2bb4 0f11 11fd d1ef
00000040: f224 f82d fcff 0ef3 fdff f5fe dc08 e3fa
00000050: f0e0 0135 e6f7 2212 e826 1bfd e10d dfee
00000060: 2cf3 06e0 e9f6 fed4 f011 12ee 20f4 1cd9
00000070: 2416 e6e1 e9d8 15eb 1ff2 c9ad e359 2759
00000080: ec12 2fef 2a0b f3f2 1643 c22d f7f1 3d39
00000090: 0ac1 524f c009 0519 d614 c8b8 2a30 25d3
000000a0: c3cf f81a bf13 4bab 34ec fff1 29dd e4fd
000000b0: 08a5 19f4 e039 1a1d 2cf7 30f3 3523 df1c
000000c0: cf2a 39db 1bdf 23e9 ff03 ee05 1b2d f2fc
000000d0: 12f9 e008 ffce 1942 fd1a f017 3a29 2eb4
000000e0: 33e6 e302 e123 f508 dbd1 0812 181d ed18
000000f0: ff13 e8ee 172c 3c2a 0a21 0715 fa37 0be5

std.constant14 f4 [240, 1]
0.48994613 0.21548082 0.5558195 -0.057036635 0.6075291 -0.15467939 0.45724258 0.73151433
-0.07728615 0.06372281 -0.4718087 0.8950177 0.030572506 0.06009178 0.4196853 0.008114461
0.6812062 -0.030714642 -0.06386081 0.11944147 0.00070556276 0.8318939 0.106740184 0.6861629
0.16239382 -0.1790558 -0.28682685 -0.4281402 0.2877552 -0.016250867 0.7159216 0.5325379
-0.34798965 0.5061427 0.9398209 -0.4681321 0.5128301 0.7266232 0.31098363 0.32459036
0.50738204 0.022277197 -0.08552425 0.038338404 0.081251726 0.44914243 0.021453146 -0.21525718
0.06501096 0.27822846 -0.27503005 0.55544066 0.55924785 0.4258795 0.45800367 0.5441566
-0.1627463 0.2536815 0.39790368 0.4049331 -0.1494672 -0.13552274 -0.10313919 -0.6935119
-0.288493 -0.00917746 -0.24784428 0.0998825 -0.31740725 -0.2874518 -0.3567806 -0.356627
-0.39375797 -0.18724152 -0.41502208 -0.5658161 -0.22820054 0.01301002 -0.1586133 -0.31569126
-0.27706257 -0.33888686 -0.41112974 -0.26485837 -0.42053577 -0.11477794 -0.6817523 -0.25950277
-0.21691406 -0.5047236 -0.36613336 -0.6753094 -0.30523396 -0.19660524 -0.39280647 -0.41440585
-0.45772746 -0.6443162 -0.22578704 -0.09396408 -0.058208175 -0.37998194 -0.34929833 -0.61663175
-0.15315032 -0.4519152 0.13258383 -0.05843966 -0.27470437 -0.2185171 -0.28705812 -0.14469527
-0.14321645 -0.6569569 -0.48169696 -0.35995072 -0.37388724 0.13623483 -0.16817649 -0.37384716
0.47036412 -0.29767826 -0.5193561 0.065333515 -0.42520967 0.49703696 -0.20253031 0.49899924
-0.29259005 -0.28206122 0.30076364 -0.47264346 0.32205725 -0.16926621 -0.41040424 0.07321555
-0.40352407 0.3848489 -0.4170748 0.44336352 -0.28409368 -0.46430808 0.2776234 0.50240433
-0.30258787 -0.35107595 0.15744767 0.3773487 -0.4055947 0.28933182 0.48440108 -0.51219314
-0.25228724 0.4205234 -0.463851 -0.21672362 0.5024374 -0.25605556 0.39881307 -0.46239942
-0.48487383 -0.34974313 -0.04725882 -0.15371715 -0.351589 0.43951774 0.50035965 -0.4116656
0.39300293 -0.3931699 0.019006174 -0.41860232 0.44134265 0.21460289 -0.46212235 -0.43523613
-0.13613455 -0.5277175 0.4369867 -0.36879954 0.6726618 0.32263997 0.88896286 -0.0954782
0.72550756 0.6060569 -0.20799552 0.9556259 -0.1016159 -0.04906499 -0.15166757 0.5772681
0.16911924 0.32033053 0.19572385 -0.054682802 0.5520831 0.4403821 0.4138552 0.1761291
0.18079998 0.90446 0.1454378 1.0364015 0.27068952 0.21544142 -0.24275999 -0.17132719
0.6679579 0.41797486 0.6123929 0.5103427 -0.013833744 0.16493727 0.380868 0.06541375
0.80422896 0.6634149 0.45689306 0.6470781 0.38472632 -0.10198807 -0.22608118 0.19156562
0.29559654 0.6570156 0.14463204 0.08616709 0.44779408 0.2129378 -0.058586884 0.6618423
0.6042557 0.44801962 0.8087907 0.46567938 -0.18248096 0.39182755 0.41093254 0.18281189
00000000: 38da fa3e 01a7 5c3e 304a 0e3f 3f9f 69bd
00000010: 0787 1b3f 4664 1ebe b31b ea3e 8644 3b3f
00000020: 3348 9ebd 1b81 823d e990 f1be e11f 653f
00000030: 3173 fa3c cc22 763d fee0 d63e 84f2 043c
00000040: 8863 2e3f 469d fbbc 75c9 82bd bb9d f43d
00000050: 84f5 383a 00f7 543f 999a da3d 5fa8 2f3f
00000060: 914a 263e 675a 37be f8da 92be 3135 dbbe
00000070: a654 933e 8a20 85bc a346 373f 6754 083f
00000080: b32b b2be 9192 013f 1a98 703f 03af efbe
00000090: d548 033f fa03 3a3f 3f39 9f3e b530 a63e
000000a0: cae3 013f ab7e b63c 5727 afbd bb08 1d3d
000000b0: 4e67 a63d fff5 e53e 82be af3c 616c 5cbe
000000c0: 7724 853d f673 8e3e bdd0 8cbe 5c31 0e3f
000000d0: de2a 0f3f e10c da3e 757f ea3e d94d 0b3f
000000e0: f7a6 26be 8be2 813e 08ba cb3e 6453 cf3e
000000f0: ee0d 19be 79c6 0abe a43a d3bd ff89 31bf
00000100: 5bb5 93be 0f5d 16bc e4ca 7dbe 328f cc3d
00000110: 3483 a2be e22c 93be f2ab b6be d097 b6be
00000120: a59a c9be 3ebc 3fbe c67d d4be 53d9 10bf
00000130: 67ad 69be fb27 553c 866b 22be 49a2 a1be
00000140: 25db 8dbe 9482 adbe 997f d2be 849b 87be
00000150: 7750 d7be b210 ebbd 5287 2ebf 8cdd 84be
00000160: b81e 5ebe 9135 01bf d575 bbbe 14e1 2cbf
00000170: a047 9cbe e252 49be ee1d c9be 012d d4be
00000180: 415b eabe e8f1 24bf b834 67be 3d70 c0bd
00000190: b26b 6ebd fe8c c2be 3bd7 b2be 94db 1dbf
000001a0: 70d3 1cbe 6e61 e7be 0ec4 073e 6d5e 6fbd
000001b0: 0da6 8cbe f2c2 5fbe 48f9 92be ff2a 14be
000001c0: 55a7 12be 542e 28bf fca0 f6be 764b b8be
000001d0: 266e bfbe 2581 0b3e 7536 2cbe e568 bfbe
000001e0: 91d3 f03e 4969 98be 85f4 04bf 94cd 853d
000001f0: 15b5 d9be a17b fe3e 1b64 4fbe d47c ff3e
00000200: 5dce 95be 546a 90be b1fd 993e 53fe f1be
00000210: b0e4 a43e 1f54 2dbe 8120 d2be 09f2 953d
00000220: b59a cebe ea0a c53e d48a d5be 8b00 e33e
00000230: ba74 91be cab9 edbe a724 8e3e 929d 003f
00000240: ccec 9abe 3ac0 b3be f639 213e d933 c13e
00000250: 1caa cfbe 4d23 943e 6b03 f83e 171f 03bf
00000260: cb2b 81be d84e d73e e17d edbe ccec 5dbe
00000270: bd9f 003f b719 83be 3a31 cc3e 9ebf ecbe
00000280: 6241 f8be 8811 b3be 7792 41bd 0768 1dbe
00000290: 7903 b4be 7808 e13e 9217 003f d5c5 d2be
000002a0: ae37 c93e 914d c9be d6b2 9b3c 0b53 d6be
000002b0: aaf7 e13e dcc0 5b3e 4d9b ecbe 45d7 debe
000002c0: db66 0bbe 7e18 07bf b9bc df3e 4bd3 bcbe
000002d0: 9033 2c3f 1131 a53e 1293 633f 138a c3bd
000002e0: ddba 393f 8c26 1b3f c7fc 54be e6a3 743f
000002f0: ff1b d0bd 5ff8 48bd be4e 1bbe d8c7 133f
00000300: 982d 2d3e 5d02 a43e d56b 483e 13fb 5fbd
00000310: 5155 0d3f c379 e13e d4e4 d33e 305b 343e
00000320: a123 393e b18a 673f a6ed 143e cea8 843f
00000330: d197 8a3e ad9c 5c3e 1396 78be 6570 2fbe
00000340: 4aff 2a3f cd00 d63e c8c5 1c3f d2a5 023f
00000350: eea6 62bc 51e5 283e 2101 c33e a5f7 853d
00000360: f3e1 4d3f 8fd5 293f e3ed e93e e9a6 253f
00000370: d9fa c43e 1fdf d0bd d381 67be c729 443e
00000380: 6e58 973e 2d32 283f 6c1a 143e 5f78 b03d
00000390: 4445 e53e 5e0c 5a3e cdf8 6fbd 7f6e 293f
000003a0: 80b0 1a3f d462 e53e e80c 4f3f 876d ee3e
000003b0: 4adc 3abe 9f9d c83e c065 d23e 0a33 3b3e

lstm_3/lstm_cell_1/bias1 f4 [240]
-0.30448425 -0.21953586 -0.18354931 -0.22889714 0.12766951 0.3534755 -0.30525762 0.045443002
-0.684917 -0.25848827 0.08327163 -0.22155714 -0.36967427 -0.1575266 0.34627694 -0.33740774
0.26372266 -0.25572327 0.3242064 -0.19221836 0.28684065 -0.18999918 -0.2567873 -0.3532959
-0.27459827 0.07503646 0.34852016 -0.31382456 0.10595228 -0.36561966 -0.2075388 0.18941729
-0.14272077 -0.2679017 0.17285943 -0.4401589 -0.0050623957 -0.16229622 -0.35048133 -0.34278303
0.10186343 -0.3819542 -0.18438987 -0.16547336 -0.22009695 -0.24115701 -0.08433997 -0.19614388
0.09315694 0.15219244 -0.35096416 -0.11043124 -0.25464696 -0.16589591 0.10434374 -0.11701677
-0.29747486 -0.2520986 -0.34983227 -0.04477317 0.76606625 0.7920298 0.78813994 0.5534834
0.3583051 0.5125203 0.75185794 0.7960607 0.5184615 0.7006916 0.51405114 0.5827975
0.38752377 0.6824325 0.55591863 0.6128005 0.51153433 0.64024687 0.7593083 0.51397496
0.59605646 0.6486124 0.55891526 0.6889439 0.75847477 0.5898091 0.6004865 0.66599905
0.6645232 0.6352368 0.7232459 0.57660383 0.7536579 0.58702904 0.21824136 0.6320544
0.5790642 0.73634255 0.56824946 0.64263093 0.5344098 0.6265202 0.7044617 0.8860842
0.6679751 0.8466387 0.519951 0.21857303 0.50038236 0.5589816 0.71646583 0.30298424
0.5232611 0.5362121 0.5038372 0.6038977 0.7469689 0.4319784 0.7022964 0.61117107
-0.011793105 0.0429077 -0.12771977 -0.03565645 -0.063470036 0.006421386 -0.012922998 0.02900252
-0.04874439 0.070346646 -0.024428599 -0.0636144 -0.007072982 0.06172133 -0.02089283 0.05507072
0.017027782 -0.00041160866 0.02511749 -0.0004928237 -0.04381391 -0.025367726 -0.08980731 -0.055266004
-0.049820464 0.0153009845 -0.0030647474 -0.05034958 0.004545755 -0.006001419 0.05671111 0.041684583
-0.037494805 -0.032496855 0.018272262 0.010067172 -0.013708853 -0.016406499 -0.032046724 0.042265195
-0.018454045 -0.004088881 -0.02688356 0.034752134 -0.037919305 0.024889186 -0.012326196 -0.010084561
-0.04989895 0.005098451 0.026815558 -0.06443062 -0.024787327 -0.06992953 -0.029743752 0.0063541974
0.028329195 -0.11282118 0.060497306 0.047519427 -0.28234333 0.36973238 -0.23877354 -0.13597353
0.029881263 0.28072605 -0.16302218 -0.059441466 -0.5471832 -0.2903825 0.011907367 -0.23325607
-0.42934993 -0.07593464 0.5249987 -0.29236543 0.17173299 -0.22775541 0.15864614 -0.28136492
0.369197 -0.19679798 -0.05937509 -0.4095069 -0.42114517 0.04891815 0.41183093 -0.39689365
-0.35561627 -0.45248395 -0.20955475 0.14765659 0.11410567 -0.22946939 0.15271546 -0.5458781
0.12952586 -0.24505208 -0.024119183 -0.29474986 0.022825968 -0.40410376 -0.2152803 -0.2561753
-0.21146807 -0.30437398 0.042730246 -0.32630375 0.10037524 0.13956472 -0.42794725 -0.16370371
0.16059797 -0.2655763 0.1635553 -0.018410072 -0.30914938 -0.33572647 -0.3670458 0.045194928
00000000: 5ce5 9bbe 02ce 60be 5af4 3bbe 0364 6abe
00000010: ccbb 023e befa b43e ba4a 9cbe 7122 3a3d
00000020: b856 2fbf 9358 84be 518a aa3d e0df 62be
00000030: f245 bdbe a74e 21be 364b b13e b5c0 acbe
00000040: a806 873e 29ee 82be 62fe a53e e4d4 44be
00000050: c7dc 923e 258f 42be a079 83be 33e3 b4be
00000060: 2598 8cbe b7ac 993d 3c71 b23e 9dad a0be
00000070: 82fd d83d 8032 bbbe 0d85 54be 9bf6 413e
00000080: 6525 12be 692a 89be 1002 313e 825c e1be
00000090: 74e2 a5bb fb30 26be 4a72 b3be 4281 afbe
000000a0: c69d d03d 808f c3be b3d0 3cbe d971 29be
000000b0: 1861 61be ddf1 76be 6fba acbd f1d9 48be
000000c0: 11c9 be3d 56d8 1b3e 93b1 b3be c629 e2bd
000000d0: 1661 82be 9ee0 29be 2cb2 d53d 7da6 efbd
000000e0: a04e 98be 1113 81be 371d b3be 1264 37bd
000000f0: eb1c 443f 77c2 4a3f 8ac3 493f 17b1 0d3f
00000100: c473 b73e 8834 033f c379 403f a2ca 4b3f
00000110: e5b9 043f 8660 333f db98 033f 3832 153f
00000120: 8469 c63e e5b3 2e3f af50 0e3f 7ee0 1c3f
00000130: eaf3 023f 38e7 233f 0762 423f dd93 033f
00000140: 2897 183f 760b 263f 1215 0f3f a15e 303f
00000150: 672b 423f bbfd 163f 7cb9 193f ea7e 2a3f
00000160: 311e 2a3f e19e 223f a526 393f 4f9c 133f
00000170: b9ef 403f 8947 163f aa7a 5f3e 51ce 213f
00000180: 8d3d 143f f280 3c3f cc78 113f 7683 243f
00000190: 15cf 083f a163 203f 9a57 343f 6ad6 623f
000001a0: 6b00 2b3f 50bd 583f 821b 053f 9cd1 5f3e
000001b0: 0f19 003f 6b19 0f3f 4e6a 373f c020 9b3e
000001c0: 70f4 053f 3245 093f 7afb 003f 0a99 1a3f
000001d0: 5b39 3f3f 462c dd3e b2c9 333f b575 1c3f
000001e0: de37 41bc fcbf 2f3d f9c8 02be 7f0c 12bd
000001f0: 94fc 81bd 7d6a d23b fbba 53bc b196 ed3c
00000200: 33a8 47bd e711 903d 7c1e c8bc 4448 82bd
00000210: 79c4 e7bb 81cf 7c3d 7127 abbc d691 613d
00000220: d97d 8b3c 2ecd d7b9 32c3 cd3c d730 01ba
00000230: 3776 33bd facf cfbc e5ec b7bd 9b5e 62bd
00000240: 8b10 4cbd fbb0 7a3c eed9 48bb 5c3b 4ebd
00000250: 8ff4 943b 8da7 c4bb e949 683d 74bd 2a3d
00000260: 2794 19bd 6c1b 05bd b6af 953c c8f0 243c
00000270: 199b 60bc ec66 86bc 6d43 03bd 451e 2d3d
00000280: f02c 97bc 05fc 85bb e93a dcbc 4158 0e3d
00000290: 4651 1bbd 68e4 cb3c d0f3 49bc b739 25bc
000002a0: d762 4cbd e810 a73b 4dac db3c 33f4 83bd
000002b0: cb0e cbbc 3737 8fbd 2ba9 f3bc df36 d03b
000002c0: a112 e83c ca0e e7bd 06cc 773d bba3 423d
000002d0: 4e8f 90be 904d bd3e 0d81 74be a53c 0bbe
000002e0: 8dc9 f43c 53bb 8f3e 49ef 26be e578 73bd
000002f0: 3314 0cbf 04ad 94be 1e17 433c aeda 6ebe
00000300: c1d3 dbbe 9f83 9bbd 5166 063f ecb0 95be
00000310: c6da 2f3e b738 69be 2274 223e 100f 90be
00000320: 6407 bd3e 6985 49be 4b33 73bd e3aa d1be
00000330: 57a0 d7be 665e 483d 81db d23e a535 cbbe
00000340: 5613 b6be faab e7be 8595 56be 4a33 173e
00000350: 3cb0 e93d 06fa 6abe 7161 1c3e abbe 0bbf
00000360: 6da2 043e efee 7abe 9895 c5bc 74e9 96be
00000370: 86fd ba3c b0e6 cebe 7072 5cbe 6929 83be
00000380: 168b 58be e8d6 9bbe e905 2f3d 4911 a7be
00000390: 8991 cd3d 0eea 0e3e e71b dbbe f2a1 27be
000003a0: cb73 243e 9ef9 87be 0a7b 273e b8d0 96bc
000003b0: d448 9ebe 57e4 abbe 6ded bbbe 511e 393d

std.constant23 i1 [240, 60] scale=0.013803583 zero_point=0
-0.51073253 -0.11042866 -0.23466091 0.06901792 0.2484645 0.496929 -0.46932182 -0.45551822
-0.5935541 -0.34508955 0.35889316 0.26226807 0.20705374 0.1518394 -0.3174824 0.23466091
-0.55214334 -0.52453613 -0.17944658 -0.44171464 0.44171464 0.42791107 -0.4003039 0.20705374
0.51073253 -0.027607165 0.34508955 0.12423225 1.159501 0.096625075 -0.027607165 -0.28987524
0.6073576 -0.27607167 -0.27607167 -0.05521433 0.6211612 0.64876837 0.33128598 -0.35889316
-0.27607167 -0.42791107 0.11042866 -0.6073576 0.11042866 0.1518394 -0.3865003 -0.67637557
0.4003039 0.53833973 -0.2484645 0.4003039 -0.041410748 0.3865003 0.55214334 0.7177863
-0.37269673 -0.41410747 -0.22085732 -0.082821496 -0.85582215 1.753055 -0.496929 -0.3036788
-1.0076616 -1.3251439 -0.9662508 0.4831254 0.33128598 0.3174824 -1.0628759 -0.5659469
-0.8972329 0.4003039 1.0076616 0.34508955 0.52453613 0.55214334 0.4003039 0.7039827
-1.2423224 -0.46932182 -0.67637557 -0.53833973 -0.26226807 1.5183941 -1.3251439 -0.35889316
-0.27607167 0.41410747 0.4831254 1.3941618 -0.46932182 -0.096625075 0.6901791 0.91103643
-0.52453613 0.20705374 -0.35889316 -0.4831254 0.45551822 0.26226807 -0.34508955 0.0
-1.0628759 -0.52453613 1.2147152 0.53833973 -1.0076616 -1.2009116 0.5659469 -1.0076616
-1.1318938 0.2484645 -0.64876837 -0.46932182 0.33128598 0.11042866 0.5659469 1.1180902
0.16564299 -0.19325015 0.027607165 0.2484645 -0.13803583 -0.1518394 -0.082821496 0.06901792
-0.17944658 -0.096625075 -0.51073253 0.013803583 0.027607165 -0.096625075 0.3865003 0.082821496
-0.05521433 0.041410748 0.0 -0.23466091 -0.05521433 -0.013803583 0.05521433 0.06901792
-0.06901792 -0.082821496 -0.05521433 0.06901792 0.52453613 0.2484645 -0.041410748 -0.12423225
-0.096625075 -0.027607165 -0.6211612 -0.26226807 -0.06901792 -0.1518394 -0.12423225 -0.37269673
0.096625075 -0.041410748 -0.16564299 0.06901792 0.082821496 -0.42791107 0.13803583 -0.33128598
-0.17944658 0.027607165 -0.16564299 0.13803583 0.05521433 0.013803583 -0.1518394 -0.20705374
-0.1518394 -0.3036788 -0.082821496 0.12423225 0.26226807 0.34508955 0.42791107 -0.3174824
-0.16564299 -0.3036788 0.12423225 -0.17944658 -0.33128598 -0.26226807 -0.12423225 -0.12423225
0.17944658 0.06901792 0.12423225 -0.26226807 0.35889316 -0.096625075 -0.16564299 -0.05521433
-0.041410748 0.3036788 0.23466091 0.19325015 0.12423225 0.34508955 -0.3036788 0.16564299
0.096625075 -0.13803583 -0.22085732 0.27607167 0.0 0.13803583 0.5797505 0.041410748
0.041410748 0.37269673 0.16564299 0.3174824 0.42791107 -0.37269673 0.23466091 -0.51073253
-0.20705374 -0.13803583 0.13803583 0.16564299 0.096625075 -0.1518394 -0.26226807 -0.20705374
0.19325015 0.0 0.05521433 0.33128598 -0.37269673 0.096625075 -0.17944658 0.13803583
-0.4831254 0.44171464 -0.096625075 0.2484645 -0.082821496 0.06901792 0.12423225 0.53833973
0.4003039 0.3036788 -0.28987524 -0.082821496 0.027607165 -0.5659469 0.13803583 0.05521433
00000000: dbf8 ef05 1224 dedf d5e7 1a13 0f0b e911
00000010: d8da f3e0 201f e30f 25fe 1909 5407 feeb
00000020: 2cec ecfc 2d2f 18e6 ece1 08d4 080b e4cf
00000030: 1d27 ee1d fd1c 2834 e5e2 f0fa c27f dcea
00000040: b7a0 ba23 1817 b3d7 bf1d 4919 2628 1d33
00000050: a6de cfd9 ed6e a0e6 ec1e 2365 def9 3242
00000060: da0f e6dd 2113 e700 b3da 5827 b7a9 29b7
00000070: ae12 d1de 1808 2951 0cf2 0212 f6f5 fa05
00000080: f3f9 db01 02f9 1c06 fc03 00ef fcff 0405
00000090: fbfa fc05 2612 fdf7 f9fe d3ed fbf5 f7e5
000000a0: 07fd f405 06e1 0ae8 f302 f40a 0401 f5f1
000000b0: f5ea fa09 1319 1fe9 f4ea 09f3 e8ed f7f7
000000c0: 0d05 09ed 1af9 f4fc fd16 110e 0919 ea0c
000000d0: 07f6 f014 000a 2a03 031b 0c17 1fe5 11db
000000e0: f1f6 0a0c 07f5 edf1 0e00 0418 e507 f30a
000000f0: dd20 f912 fa05 0927 1d16 ebfa 02d7 0a04

std.constant24 i1 [240, 60] scale=0.015768731 zero_point=0
1.056505 -0.39421827 -1.5295669 0.17345604 -0.74113035 1.2141923 -0.29960588 2.0026288
-0.09461239 -0.015768731 0.2049935 -1.1668861 0.17345604 0.031537462 -1.1038111 -0.031537462
-0.8515115 0.9618926 -0.74113035 0.78843653 -0.56767434 -1.4507233 0.5203681 1.3561108
-0.047306195 -0.646518 0.1576873 0.7095929 -0.7095929 0.5203681 0.8515115 -0.9618926
-0.6149805 0.6780554 -1.8607103 -0.2522997 0.9934301 -0.53613687 0.6780554 -0.94612384
-1.5137982 -0.5203681 0.2522997 -0.063074924 -0.47306192 0.9776613 1.1353487 -0.56767434
0.74113035 -0.44152448 -0.12614985 -0.9934301 1.1984235 -0.031537462 -1.4191858 -1.0407362
-0.14191858 -1.7818666 0.78843653 -0.48883066 1.0880425 0.09461239 -1.6084106 1.1038111
-0.89881766 1.3245734 -0.047306195 1.7187917 0.0 0.063074924 -0.37844956 -1.1038111
-0.12614985 -0.047306195 -0.94612384 -0.59921175 -0.89881766 0.56767434 -0.72536165 -0.063074924
-0.89881766 -1.6557168 -0.5519056 1.5453357 -0.6622867 -0.26806843 -0.47306192 0.3153746
-0.819974 0.59921175 1.2614985 -1.3876483 -0.09461239 0.8042053 -1.8134041 0.74113035
1.0722737 -1.0407362 0.58344305 -0.9776613 -1.3718796 -0.28383717 0.6938242 -1.7818666
-0.18922478 1.1038111 1.0091988 -0.37844956 0.78843653 -0.53613687 -0.409987 -0.9776613
1.1038111 0.33114335 -1.5926418 -1.1038111 0.409987 -1.876479 1.1511173 -0.74113035
0.29960588 -0.18922478 -0.09461239 0.2522997 -0.17345604 0.1576873 0.063074924 0.17345604
-0.015768731 0.063074924 0.047306195 -0.409987 0.015768731 -0.063074924 -0.09461239 0.063074924
-0.18922478 -0.09461239 -0.047306195 -0.063074924 -0.09461239 -0.23653096 -0.015768731 0.26806843
-0.09461239 -0.3153746 -0.11038112 0.2049935 0.0 0.063074924 0.11038112 0.015768731
0.22076224 -0.031537462 0.015768731 0.12614985 0.047306195 0.0 0.0 -0.14191858
-0.1576873 -0.031537462 0.07884365 -0.09461239 -0.11038112 0.3153746 0.2049935 -0.1576873
0.0 -0.07884365 -0.11038112 -0.33114335 0.2522997 0.2049935 -0.1576873 -0.18922478
0.07884365 -0.23653096 0.3153746 -0.047306195 -0.78843653 0.4572932 1.1984235 -0.26806843
0.7726678 -0.36268082 0.1576873 -0.9776613 0.14191858 0.14191858 -0.09461239 1.0880425
-0.36268082 0.48883066 0.5045994 0.2522997 0.4572932 -0.28383717 0.26806843 -0.14191858
0.58344305 0.74113035 -0.015768731 -0.7095929 0.3469121 0.1576873 0.22076224 0.047306195
0.6149805 -0.78843653 -0.89881766 0.7095929 0.22076224 -0.59921175 1.1511173 -0.23653096
-0.7568991 0.23653096 -0.17345604 0.93035513 0.646518 0.23653096 -0.07884365 0.11038112
0.44152448 -0.8672802 -0.4572932 -0.23653096 -0.59921175 0.37844956 -0.5203681 0.33114335
-0.7568991 -0.6780554 0.9618926 0.8357428 0.33114335 0.6149805 -0.23653096 0.6149805
1.1195799 -0.23653096 -1.2141923 0.39421827 -0.78843653 0.88304895 -0.031537462 1.1038111
-0.063074924 -0.44152448 -0.12614985 -1.229961 0.7095929 -0.2049935 -0.48883066 -0.28383717
00000000: 43e7 9f0b d14d ed7f faff 0db6 0b02 bafe
00000010: ca3d d132 dca4 2156 fdd7 0a2d d321 36c3
00000020: d92b 8af0 3fde 2bc4 a0df 10fc e23e 48dc
00000030: 2fe4 f8c1 4cfe a6be f78f 32e1 4506 9a46
00000040: c754 fd6d 0004 e8ba f8fd c4da c724 d2fc
00000050: c797 dd62 d6ef e214 cc26 50a8 fa33 8d2f
00000060: 44be 25c2 a9ee 2c8f f446 40e8 32de e6c2
00000070: 4615 9bba 1a89 49d1 13f4 fa10 f50a 040b
00000080: ff04 03e6 01fc fa04 f4fa fdfc faf1 ff11
00000090: faec f90d 0004 0701 0efe 0108 0300 00f7
000000a0: f6fe 05fa f914 0df6 00fb f9eb 100d f6f4
000000b0: 05f1 14fd ce1d 4cef 31e9 0ac2 0909 fa45
000000c0: e91f 2010 1dee 11f7 252f ffd3 160a 0e03
000000d0: 27ce c72d 0eda 49f1 d00f f53b 290f fb07
000000e0: 1cc9 e3f1 da18 df15 d0d5 3d35 1527 f127
000000f0: 47f1 b319 ce38 fe46 fce4 f8b2 2df3 e1ee
