DATN_LSTM_SMGW-main/rx_service/src/LSTM_model/LSTM_model_2_temp_fl16.tflite (tflite, 109744 bytes, 9 tensors)

lstm_4/lstm_cell_1/bias f4 [240]
00000000: b552 97be d478 d1be 789d d9be 8cb0 cbbe
00000010: 1efe 083e ac91 a6be 87aa 00bf 2e1a efbe
00000020: 290a 1bbf 56a9 16be ffc5 febe 3102 4cbe
00000030: 4a1f 09bf e869 08bf 756a debe 2785 f3be
00000040: 428a f4be dd2c 02bf c5ae a6be b5e8 f8be
00000050: e3a0 e0be f12b 22bf aa83 f1be 8e10 0ebf
00000060: 569c 08bf 2d34 8abe f942 09bf 2d8b 24bf
00000070: 2962 0fbf 4be3 e4be 3cd8 0cbf f8ff 13bf
00000080: fb92 aebe acaa ebbe 4f79 acbe f912 00bf
00000090: bd6f 02bf edb2 f4be 9f92 04bf ea57 eebe
000000a0: cf3f 29bf 8986 46be dc35 04bf 666b fdbe
000000b0: e756 15bf ded0 13bf 5548 fdbe b8f1 c53d
000000c0: 13cf 06bf de4d ffbe a833 14bf be99 b5be
000000d0: 5d25 afbe 83cd 1ebf b838 0dbf 8092 f7be
000000e0: 4a99 8cbe e7e7 efbe 50a9 57be ea50 febe
000000f0: 5ad7 853f e4b7 153f 4670 1e3f dc24 633f
00000100: 7c99 e83d b1d5 bf3e 3994 fc3e 84f6 053f
00000110: ce25 123f aea1 923f 60c4 fb3e ab52 8d3f
00000120: c9ea e93e 8049 513f 3573 613f d16c 0c3f
00000130: 2010 273f 032b 303f 2770 6e3f d5f7 c73e
00000140: 61e7 563f 3792 eb3e 6176 1b3f 0a0b 313f
00000150: a4a6 443f 070a 833f 9daa d93e 2340 df3e
00000160: 1229 1e3f 594c 5f3f 4ff3 093f 4399 f33e
00000170: ce48 743f b7ee 683f 67cf 6a3f d46f 3a3f
00000180: f5a2 d43e 489f 523f a9e9 cc3e b26f 0b3f
00000190: ffb1 083f e972 473f 300a 3e3f 6b23 433f
000001a0: 0b3e 2c3f 7ab0 2d3f 4952 283f 186f 9d3f
000001b0: 90b6 9b3e c13f 4e3f 4df6 d43e cdb9 803f
000001c0: eade 693f b660 f23e 6c46 003f babb 273f
000001d0: 4304 833f 51ba 353f 05dd 903f 52ac 283f
000001e0: 8bca 99bc 343f 7cbc 7248 6cbc 5a60 8f3c
000001f0: f7b6 173c a870 ed3b c615 07bc 417a 573c
00000200: 5697 28bb d794 65bc d9e9 7dbc 35c0 4dbc
00000210: 2297 e0bb 1faf 7d3c 3215 983b 50ae cabc
00000220: 936d c1bb 67c5 68bc d044 a1bc 3ef9 b0bb
00000230: d47b fdbc 748b b33b 27ee 4c3c b870 6c3c
00000240: b851 06bc 6ea8 8dbc 6ce2 82bc 7e5c c83a
00000250: 2267 a6bb 65b5 76ba 90fd cdb9 568b 553c
00000260: cf6a 09bc 2723 78bc 5a5f 193c 9b90 213c
00000270: 4a83 acbc eb16 7cbb 4a77 763c f43b 27bb
00000280: d364 d9bb e72a 893c 85ac 9f3c 8000 25bc
00000290: 2e18 a83c 9347 a63c c9e1 e23b f261 f6bb
000002a0: f7b0 e1bb 7219 ce3b 225d b5bb ffeb 7bbc
000002b0: bdcb 373c 2509 05bc fb52 04bb 7b0b d2bc
000002c0: 407e c5bc 7e84 853c 145b 82bc efd2 8a3b
000002d0: 505a 9cbe c093 d2be ae40 d3be b558 cbbe
000002e0: 0ca0 783b 4a5e b0be 4a72 f4be 1f07 e9be
000002f0: d136 19bf 3192 16be b505 07bf 9214 56be
00000300: 02b8 0bbf 3d32 08bf 8c3f d9be 68ca f7be
00000310: c594 fcbe c99f 04bf 7bb9 a6be d082 f8be
00000320: 30d5 e1be 610b 21bf 842d fcbe b04b 12bf
00000330: 801d 0dbf 5b71 90be 3404 04bf 2bcb 22bf
00000340: 39c5 13bf 5e88 d5be 33ad 0ebf 1bc8 16bf
00000350: ec73 adbe e46c eabe 57b7 adbe beca fdbe
00000360: ecdc 04bf fbeb f6be 7fe5 05bf e29d f1be
00000370: 190b 29bf fb00 7bbe dc19 05bf 91af 02bf
00000380: 2e7c 11bf 4d69 13bf aeff fbbe b300 5b3d
00000390: 508f 05bf 39a0 01bf 510f 13bf 8d2d b8be
000003a0: ed1a afbe 01bc 1fbf e2bf 08bf 26c4 ffbe
000003b0: 806f 8cbe 6d8e fbbe 76d5 61be 6302 fbbe
-0.29555288 -0.40912497 -0.42502952 -0.39783132 0.13378188 -0.32533014 -0.50260204 -0.4669966
-0.6056238 -0.14713034 -0.49760434 -0.19922711 -0.5356337 -0.532866 -0.43440595 -0.47562525
-0.47761732 -0.50849706 -0.32555214 -0.4861504 -0.43872747 -0.633483 -0.47170764 -0.5549401
-0.5336355 -0.26992932 -0.5361782 -0.64274865 -0.56009156 -0.4470466 -0.5501745 -0.5781245
-0.34096512 -0.4602865 -0.336863 -0.5002895 -0.5095175 -0.4779276 -0.51786226 -0.46551448
-0.6611299 -0.19387259 -0.5164468 -0.49496 -0.5833573 -0.5774058 -0.49469247 0.09665245
-0.5265972 -0.49864095 -0.5789132 -0.35468858 -0.34208193 -0.62032336 -0.5516467 -0.48353958
-0.274607 -0.46856615 -0.21060681 -0.49671108 1.0456345 0.5848372 0.61890066 0.8872812
0.113574 0.3746772 0.49331835 0.5232928 0.57088935 1.1455591 0.4917326 1.1040853
0.4568694 0.8175278 0.88066417 0.5485354 0.6525898 0.6881563 0.9313988 0.39056268
0.83946806 0.4600999 0.60727507 0.6915747 0.76816773 1.0237435 0.4251298 0.4360362
0.6178142 0.8722587 0.53886884 0.47577867 0.9542359 0.9098925 0.9172272 0.72826886
0.41530576 0.82274294 0.4002202 0.5446731 0.533966 0.77909714 0.74234295 0.7622592
0.6728217 0.67847407 0.6575056 1.2299528 0.30412722 0.8056603 0.41594163 1.0056702
0.91355765 0.4733941 0.50107455 0.65520823 1.0235676 0.7098742 1.131745 0.6588794
-0.018773338 -0.015395928 -0.014421569 0.017501999 0.009259931 0.0072460957 -0.008244937 0.013151706
-0.002572497 -0.014012537 -0.015497648 -0.012558033 -0.006853954 0.015483647 0.0046411986 -0.024741322
-0.005902955 -0.014207221 -0.019686133 -0.0054008057 -0.030942835 0.0054792706 0.012507952 0.014431171
-0.008198194 -0.017292228 -0.015977107 0.0015286354 -0.0050782124 -0.0009411185 -0.00039289566 0.013033709
-0.008387282 -0.0151451 0.0093611125 0.009861137 -0.021058697 -0.0038465809 0.015043089 -0.0025517913
-0.0066343336 0.01674409 0.019491443 -0.01007092 0.020519342 0.020297801 0.0069238883 -0.007519
-0.006887551 0.0062896544 -0.005534784 -0.01537609 0.011218009 -0.008119856 -0.0020191062 -0.02564024
-0.024108052 0.016298529 -0.01591257 0.004236571 -0.30537653 -0.4112835 -0.41260284 -0.39716116
0.0037937192 -0.34446937 -0.47743446 -0.45513245 -0.5984927 -0.14704205 -0.52743083 -0.20906284
-0.5457765 -0.5320166 -0.42431295 -0.4839661 -0.49332252 -0.5180631 -0.32563385 -0.48537302
-0.44107962 -0.6290799 -0.49253476 -0.5714674 -0.5512314 -0.28211483 -0.51568913 -0.6359126
-0.5772281 -0.41705602 -0.5573303 -0.58899087 -0.33877504 -0.45786202 -0.3392894 -0.49568743
-0.518996 -0.48226914 -0.5230331 -0.47190768 -0.6603256 -0.24512093 -0.51992583 -0.51049143
-0.5683011 -0.5758255 -0.49218506 0.053467464 -0.521718 -0.50635105 -0.57445246 -0.35972252
-0.3420023 -0.62396246 -0.5341779 -0.49954337 -0.27428818 -0.491321 -0.22054085 -0.49025258

lstm_3/lstm_cell/bias f4 [240]
00000000: 423d a83e b8ae 123e 458a 1dbf 6736 4dbe
00000010: 9343 cc3c 4572 893f 3a13 8cbe 8108 be3d
00000020: 7f6a 94bd 8b99 88bd 20bb d7be 8417 e3bd
00000030: 9744 47be 9f1d 2bbe 2c53 a0be 4990 bfbe
00000040: 9bee b3be d9d9 75bd e354 a83e 4be4 bdbe
00000050: 9db1 743f 49e4 f83d fe7f 98bd 26e2 cfbe
00000060: 7461 b63f 8ca2 303e aecf 5a3c ac93 5fbe
00000070: 071f 183e 9c57 afbe 8700 83be 9a91 18be
00000080: 40ac bebe becd 5ebd 39ae 1ebc f296 6bbe
00000090: 7208 7abe 6925 083c 5f13 91bd cbd0 6bbe
000000a0: 1cbe 7c3e 533c b9be 3557 f3bd 23dd aebe
000000b0: 1261 8a3d c4bd a9be 8278 b1be 62e3 52bc
000000c0: 50b3 6ebd d71e 3dbe 837d a4be b2dd 4dbe
000000d0: 0994 df3e d395 63bd a4a7 c53d 6a0b 823e
000000e0: 0046 293d b171 ebbe 6937 d03f e23d 2fbe
000000f0: 8816 863e c433 2e3f 020a 4d3f 0d93 953f
00000100: 941f 543f b41a 133e 96ba 853f 78d4 b03e
00000110: 954b df3e 4df4 a13f d5f8 6f3f 2e2a 9d3f
00000120: c423 823e 2001 983f 7a35 4d3f 19e2 583f
00000130: eaa8 683f 8c28 683f 0024 2c3f 46a8 5c3f
00000140: 2340 053e 44dd 583f dd22 9f3e 9bb3 0b3f
00000150: 0b4e 0e3f 82ff 983e e9f9 323f 3693 723f
00000160: 14c8 753f b194 2d3f a406 113f 4ee4 553f
00000170: 71fd 033f cfaf 9d3f 8460 5d3f 250b 843f
00000180: 097c be3e d2e8 323f 09a0 dd3e 533d 4b3f
00000190: 6ffd f53e 7024 2f3f 7095 1d3f b164 293f
000001a0: 9639 003f 7a32 f83e c8bf 753f 9764 993f
000001b0: 5cde 273f 643f de3e 5047 253f f5c7 1a3f
000001c0: a7c8 0c3e af23 3e3f 92c2 483f bcb7 1a3f
000001d0: f3a5 6a3f d433 f73e 0a5d 723f 1a7b 863e
000001e0: 2a88 08be 53ae 1a3e 2a6c b43c 2fa9 93bd
000001f0: 2be5 123e 7491 323e 99e6 733d 192d 053e
00000200: d07e 08be 9e76 873c 3b2b 1d3d d680 47bd
00000210: ac53 dd3d 9e19 d6bd 8402 703d 9fad e0bd
00000220: 3ff1 85bd c68c f73d fb17 28be 82a2 533d
00000230: 0c12 2a3e a009 0fbe 8670 ea3d 57f4 27bd
00000240: dde4 66be 683d 113e b4b7 0c3e 684c edbd
00000250: 51e8 ae3d f69c d8bd fb81 f0bd cc8f 113e
00000260: 9de4 dbbd 292f b7bd df05 07be 9433 35ba
00000270: c6d8 d6bd 0a3d 223e 97f9 0b3e 3710 ebbd
00000280: 9153 24be 5216 cf3d 9d14 9cbd 521f 983d
00000290: fb58 13be 0c39 cb3d c9e5 a6bc 8efb 7ebc
000002a0: fc44 12be 20df eabd 1144 b43d 57a4 fc3d
000002b0: e788 1b3e 150d 03be a7c5 983d 4b62 1a3e
000002c0: 2f45 17be 9978 cebd 73cf 48be a000 f03d
000002d0: efdb a33e 7106 073e 81f5 15bf a750 4fbe
000002e0: 9eb1 a93c 3df6 933f 0ddb 8bbe 7320 9c3d
000002f0: b132 94bd 00f1 d1bd de14 d5be a3ad f1bd
00000300: ccd8 3ebe f3e3 25be e518 96be 40cb bfbe
00000310: 8f3c c3be 9f02 78bd 92bd cb3e 31d8 bebe
00000320: b7d7 773f 4320 2a3e 6b45 aebd 1d07 d5be
00000330: 6264 d43f ce9f 363e 8065 a8bb ae6c 76be
00000340: 7ec7 263e 9c26 b1be 49c3 87be 22e2 27be
00000350: adf8 c5be 8485 8cbd 3dac afbc be4d 75be
00000360: d902 83be 2ef8 be3c d820 8bbd 8daf 71be
00000370: 214a 7a3e 85a2 bbbe 0735 02be 24de acbe
00000380: fa35 623d e518 afbe 8126 b1be 581c e1bc
00000390: 9e37 a5bd d229 37be 9a2c aabe 7f8a 47be
000003a0: 9c49 e73e e5b2 58bd 18c4 db3d 31cb 313e
000003b0: 130d 0f3d 7407 edbe 2049 d93f 5a03 31be
0.32859236 0.14324462 -0.6153911 -0.20040284 0.024934566 1.0737997 -0.2735842 0.09278966
-0.07246875 -0.06669911 -0.42134953 -0.110884696 -0.19459759 -0.16710518 -0.31313455 -0.37414768
-0.3514298 -0.06002221 0.32877263 -0.37088236 0.95583516 0.12152917 -0.074462876 -0.40602225
1.424849 0.17249507 0.013355179 -0.21833676 0.14855586 -0.34246528 -0.2558634 -0.14899293
-0.3724079 -0.05439543 -0.009685093 -0.230068 -0.24417284 0.0083097005 -0.07083773 -0.23028867
0.24681896 -0.36178836 -0.11881868 -0.3415309 0.06756796 -0.33152592 -0.34662253 -0.012871595
-0.058276474 -0.18468796 -0.32127008 -0.20104101 0.4366763 -0.055562805 0.096511155 0.25399333
0.041326523 -0.45985177 1.626691 -0.1711345 0.26189065 0.6804774 0.80093396 1.1685501
0.82860684 0.14365655 1.0447567 0.345371 0.43612352 1.265268 0.9373906 1.2278497
0.25417912 1.1875343 0.80159724 0.8472 0.9088274 0.9068687 0.6724243 0.86194265
0.13012747 0.84712625 0.31081286 0.5457093 0.55587834 0.29882437 0.6991258 0.94755876
0.9600842 0.6780501 0.5665076 0.8355149 0.51558596 1.2319278 0.86475396 1.0315901
0.37204006 0.69886506 0.4328616 0.7939045 0.48044917 0.68414974 0.6155615 0.6616927
0.5008787 0.4847601 0.9599576 1.1983823 0.6557367 0.43407738 0.6456194 0.6046136
0.13748418 0.742732 0.7842189 0.60436606 0.9165947 0.4828173 0.94673216 0.26265794
-0.13333192 0.15105562 0.022024233 -0.072100036 0.14345233 0.17438298 0.059546087 0.13005485
-0.13329625 0.016536053 0.038371306 -0.048706852 0.10806975 -0.10454105 0.05859615 -0.109706156
-0.06540155 0.12087397 -0.16415398 0.05166865 0.16608447 -0.13968515 0.114472434 -0.041004505
-0.22548242 0.14183581 0.13741952 -0.11586839 0.085404046 -0.10576813 -0.11743542 0.1421501
-0.10736964 -0.08944542 -0.13185833 -0.0006912288 -0.10490565 0.15843597 0.1366943 -0.11477702
-0.16047503 0.10111679 -0.07621119 0.07427849 -0.14389412 0.0992299 -0.020373242 -0.015562905
-0.14284128 -0.11468339 0.08802045 0.12336033 0.15188943 -0.12797959 0.07459574 0.15076558
-0.14772485 -0.10081596 -0.19610386 0.11718869 0.32003734 0.13186051 -0.58577734 -0.2024561
0.020714577 1.1559521 -0.2731556 0.07623377 -0.07236231 -0.10251045 -0.41617483 -0.11800697
-0.18637389 -0.16200237 -0.29315868 -0.37459755 -0.3813214 -0.060549375 0.39793068 -0.37274316
0.9681353 0.1661387 -0.08509334 -0.4160699 1.6593134 0.17834398 -0.005139053 -0.24064896
0.16287038 -0.3459977 -0.26516178 -0.16394857 -0.38666287 -0.068614036 -0.021444434 -0.23955438
-0.2558811 0.0233117 -0.06793374 -0.23602124 0.2444234 -0.3664743 -0.12715541 -0.3376323
0.055227257 -0.3419868 -0.3459969 -0.027479336 -0.08067249 -0.17887047 -0.33237153 -0.19486426
0.45173347 -0.052904982 0.10730761 0.17362668 0.034924578 -0.4629475 1.6975441 -0.17286435

std.constant5 f2 [1, 60]
00000000: 282c 3630 a5af e8ae d0b0 1cb1 2231 b8b0
00000010: c5b0 aa29 f130 0f2a 26b1 faae 1faf a930
00000020: 0031 fe2e 262d ab30 732e cb30 76b0 9d30
00000030: 4d2f 962c 50b1 0331 8830 cfaf 50b0 3830
00000040: 3c2d b62e e6ae fdaf bb31 832f 2db1 efaf
00000050: 7eb0 07af 34b0 f22f 2ab0 62b0 1eb1 13a7
00000060: 1031 702f 9631 c32c a5ae ea30 60b1 1db0
00000070: 082c e9b0 2b2a c3b0
0.06494 0.1316 -0.11945 -0.1079 -0.1504 -0.1597 0.1604 -0.1475
-0.149 0.04425 0.1544 0.04733 -0.1609 -0.109 -0.11127 0.1456
0.1562 0.10925 0.08044 0.1459 0.10077 0.1498 -0.1394 0.1442
0.1141 0.07166 -0.166 0.1566 0.1416 -0.122 -0.1348 0.1318
0.0818 0.10486 -0.1078 -0.1248 0.1791 0.1174 -0.1617 -0.12396
-0.1404 -0.1098 -0.1313 0.12415 -0.1301 -0.137 -0.1599 -0.02763
0.1582 0.1162 0.1746 0.0744 -0.1038 0.1536 -0.168 -0.1285
0.063 -0.1534 0.0482 -0.1488

lstm_3/lstm_cell/bias1 f2 [240]
00000000: 4235 9530 ecb8 6ab2 6226 4c3c 61b4 f02d
00000010: a3ac 45ac beb6 19af 3ab2 59b1 03b5 fdb5
00000020: 9fb5 afab 4335 efb5 a63b c72f c4ac 7fb6
00000030: b33d 8531 d622 fdb2 c130 7bb5 18b4 c5b0
00000040: f5b5 f6aa f5a0 5db3 d0b3 4120 89ac 5fb3
00000050: e633 cab5 9baf 77b5 532c 4eb5 8cb5 97a2
00000060: 76ab e9b1 24b5 6fb2 fd36 1dab 2d2e 1034
00000070: 4a29 5cb7 823e 7ab1 3134 7239 683a ad3c
00000080: a13a 9930 2e3c 8735 fa36 103d 803b e93c
00000090: 1134 c03c 6a3a c73a 453b 413b 6139 e53a
000000a0: 2a30 c73a f934 5e38 7238 c834 9839 953b
000000b0: ae3b 6d39 8838 af3a 2038 ed3c eb3a 203c
000000c0: f435 9739 ed36 5a3a b037 7939 ed38 4b39
000000d0: 0238 c237 ae3b cb3c 3f39 f236 2a39 d638
000000e0: 6630 f139 463a d638 553b ba37 933b 3434
000000f0: 44b0 d530 a325 9dac 9730 9531 9f2b 2930
00000100: 44b0 3c24 e928 3caa eb2e b1ae 802b 05af
00000110: 30ac bc2f 41b1 9d2a 5131 78b0 542f 40a9
00000120: 37b3 8a30 6630 6aaf 772d c5ae 84af 8c30
00000130: dfae b9ad 38b0 aa91 b7ae 1231 6030 59af
00000140: 23b1 792e e1ac c12c 9bb0 5a2e 37a5 f8a3
00000150: 92b0 57af a22d e52f dc30 18b0 c62c d330
00000160: bab0 74ae 46b2 802f 1f35 3830 b0b8 7bb2
00000170: 4e25 a03c 5fb4 e12c a2ac 90ae a9b6 8daf
00000180: f7b1 2fb1 b1b4 feb5 1ab6 c0ab 5e36 f7b5
00000190: bf3b 5131 72ad a8b6 a33e b531 439d b3b3
000001a0: 3631 89b5 3eb4 3fb1 30b6 64ac 7da5 aab3
000001b0: 18b4 f825 59ac 8db3 d233 ddb5 12b0 67b5
000001c0: 122b 79b5 89b5 09a7 2aad b9b1 51b5 3cb2
000001d0: 3a37 c6aa de2e 8e31 7828 68b7 ca3e 88b1
0.3286 0.1432 -0.615 -0.2004 0.02493 1.074 -0.2737 0.0928
-0.07245 -0.0667 -0.4214 -0.1109 -0.1946 -0.1671 -0.3132 -0.3743
-0.3513 -0.06003 0.3289 -0.3708 0.956 0.1215 -0.07446 -0.406
1.425 0.1725 0.01335 -0.2184 0.1486 -0.3425 -0.2559 -0.149
-0.3723 -0.05438 -0.00968 -0.2301 -0.2441 0.00831 -0.07086 -0.2303
0.2468 -0.3618 -0.11884 -0.3416 0.06757 -0.3315 -0.3467 -0.01287
-0.0583 -0.1847 -0.3213 -0.201 0.4368 -0.05557 0.0965 0.254
0.04132 -0.46 1.627 -0.1711 0.262 0.6807 0.801 1.169
0.8286 0.1437 1.045 0.3455 0.436 1.266 0.9375 1.228
0.2542 1.1875 0.802 0.847 0.9087 0.9067 0.6724 0.862
0.1301 0.847 0.3108 0.546 0.5557 0.2988 0.699 0.9478
0.96 0.678 0.5664 0.8354 0.5156 1.231 0.8647 1.031
0.372 0.6987 0.4329 0.794 0.4805 0.684 0.6157 0.6616
0.501 0.4849 0.96 1.198 0.656 0.434 0.6455 0.6045
0.1375 0.7427 0.784 0.6045 0.9165 0.483 0.947 0.2627
-0.1333 0.151 0.02202 -0.0721 0.1434 0.1744 0.05954 0.13
-0.1333 0.01654 0.03836 -0.0487 0.1081 -0.10455 0.0586 -0.1097
-0.0654 0.12085 -0.1642 0.05167 0.1661 -0.1396 0.1145 -0.04102
-0.2255 0.1418 0.1375 -0.11584 0.0854 -0.1058 -0.11743 0.1421
-0.10736 -0.0894 -0.1318 -0.0006914 -0.1049 0.1584 0.1367 -0.1148
-0.1605 0.10114 -0.07623 0.0743 -0.1439 0.09924 -0.02037 -0.015564
-0.1428 -0.1147 0.088 0.12335 0.1519 -0.1279 0.0746 0.1508
-0.1477 -0.1008 -0.196 0.1172 0.32 0.1318 -0.586 -0.2025
0.02072 1.156 -0.2732 0.07623 -0.0724 -0.10254 -0.4163 -0.118
-0.1864 -0.162 -0.2932 -0.3745 -0.3813 -0.06055 0.398 -0.3728
0.9683 0.1661 -0.0851 -0.416 1.659 0.1783 -0.00514 -0.2406
0.1628 -0.346 -0.2651 -0.164 -0.3867 -0.0686 -0.02144 -0.2395
-0.2559 0.02332 -0.06793 -0.236 0.2444 -0.3665 -0.1272 -0.3376
0.05524 -0.342 -0.346 -0.02748 -0.0807 -0.1788 -0.3323 -0.1948
0.4517 -0.05292 0.1073 0.1736 0.0349 -0.463 1.697 -0.1729

std.constant13 f2 [240, 60]
00000000: 99b4 b5ae 90ad e334 6438 bf34 5731 99a9
00000010: 4db7 8035 50b0 0536 fca6 5b2a 77ad 9b31
00000020: 583b 66a9 2fb7 4ab4 6b33 3821 c124 39b0
00000030: 51b8 5437 c4b4 223a f6b0 c4ac ad32 8631
00000040: 8ea5 9b36 59b8 47ae 67a0 e033 abb0 a8a9
00000050: 5db8 9fb8 dcaf 1431 84b2 e3aa 96ac 9b2e
00000060: 07ac 2eae 85b5 44b2 4630 37b4 5f39 0ab5
00000070: b7b5 05b0 9ebc 7fa7 a82a 25b7 1ca4 cf31
00000080: 3f31 f8b7 0e3a 15b5 8bb4 603c 18b9 d33b
00000090: 4eab 76b6 3e38 e52f f537 6ab4 e436 7cb5
000000a0: c8b6 bbb0 b3b0 25b6 c335 7134 e7b9 7339
000000b0: 8b34 0037 7836 88b4 3431 4837 b2b3 0fb0
000000c0: b71f 64b4 98af 0738 aeb2 f3b5 c3b2 86ac
000000d0: 4235 43b1 b9b9 9638 4c30 b2a8 f12e 4bb6
000000e0: 77af 5332 d335 d4ba b032 7bb6 d1b9 62ac
000000f0: bdb3 a433 3236 901e 2d2c a030 f538 7734
00000100: 54b2 1baa a3b8 9136 3335 f5b8 f236 28b9
00000110: 6eb4 8833 a7a6 0536 ea28 d8a7 4833 86b8
00000120: e6b4 1e2d 7530 78b6 1e37 84a0 c3b7 4132
00000130: 85b6 88b1 fab2 9ab6 2db6 c62f 882b 8cb2
00000140: 1fad b032 39a8 0b37 a79b ac34 37b7 be30
00000150: 34b2 e6b3 c334 dd32 a334 e5a9 55aa bf32
00000160: 07b1 61b5 7aae e933 eeae d82f 472c c805
00000170: 6133 f32b 842e 7632 5db4 501d 9bb4 1833
00000180: 982e 9bb1 d92e 4fb4 17b4 2134 65b4 8733
00000190: 58ac 4e2e 77af 6828 43b1 792e 382f 7eb1
000001a0: e1ac b330 5eb4 5136 7bb0 58b4 cdaf d8ad
000001b0: c5aa c434 96b0 01b3 47ae 2d34 5fa2 f82c
000001c0: 1c32 f726 1329 4230 4db3 beaf 6531 6830
000001d0: fb2b b2b0 ab36 5aa6 a0b5 beb4 01b4 e531
000001e0: e2a0 d131 8534 5ab7 6ab0 7a9a 44aa df30
000001f0: 2831 6a30 c9a8 11b3 242d 7ab2 1f34 5fb1
-0.2874 -0.1048 -0.0869 0.3054 0.549 0.2966 0.1669 -0.04373
-0.4563 0.3438 -0.1348 0.3762 -0.02728 0.04965 -0.0854 0.1752
0.918 -0.04218 -0.449 -0.268 0.2318 0.01019 0.01857 -0.132
-0.5396 0.458 -0.2979 0.7666 -0.155 -0.07446 0.2086 0.1726
-0.0217 0.4128 -0.5435 -0.0981 -0.0086 0.2461 -0.1459 -0.0442
-0.5454 -0.5776 -0.1228 0.1587 -0.2036 -0.0538 -0.07166 0.1032
-0.0629 -0.09656 -0.345 -0.1958 0.1335 -0.2634 0.6714 -0.315
-0.3572 -0.1256 -1.154 -0.02928 0.052 -0.4465 -0.01605 0.1815
0.164 -0.498 0.757 -0.3176 -0.284 1.094 -0.6367 0.978
-0.05707 -0.4038 0.5303 0.12335 0.4973 -0.276 0.4307 -0.3428
-0.4238 -0.1478 -0.1469 -0.384 0.36 0.2776 -0.738 0.681
0.284 0.4375 0.4043 -0.2832 0.1626 0.455 -0.2405 -0.1268
0.007534 -0.2744 -0.11865 0.5034 -0.2087 -0.3718 -0.2113 -0.0707
0.3286 -0.1644 -0.7153 0.573 0.1343 -0.03668 0.10846 -0.3933
-0.11664 0.1976 0.364 -0.8535 0.209 -0.405 -0.727 -0.0685
-0.2418 0.2388 0.3872 0.00641 0.06525 0.1445 0.6196 0.279
-0.1978 -0.0477 -0.5796 0.4104 0.325 -0.6196 0.434 -0.6445
-0.2769 0.2354 -0.02599 0.3762 0.0384 -0.03064 0.2275 -0.5654
-0.3062 0.07996 0.1393 -0.4043 0.4448 -0.00882 -0.485 0.1954
-0.4075 -0.1729 -0.218 -0.4126 -0.386 0.12146 0.05884 -0.2046
-0.08 0.209 -0.033 0.4402 -0.003736 0.292 -0.451 0.1482
-0.1938 -0.2468 0.2976 0.2145 0.2898 -0.04605 -0.04947 0.2108
-0.1571 -0.3362 -0.1012 0.2472 -0.1083 0.12256 0.06683 8.82e-05
0.2306 0.0621 0.1018 0.2019 -0.2727 0.005188 -0.2878 0.2217
0.103 -0.1752 0.107 -0.2693 -0.2556 0.258 -0.2747 0.2352
-0.0679 0.0985 -0.11664 0.03442 -0.1644 0.10114 0.1128 -0.1716
-0.07623 0.1469 -0.273 0.3948 -0.14 -0.2715 -0.1219 -0.0913
-0.0529 0.2979 -0.1433 -0.2189 -0.0981 0.261 -0.01244 0.07764
0.1909 0.0272 0.03964 0.133 -0.2281 -0.121 0.1686 0.1377
0.06235 -0.1467 0.4167 -0.02481 -0.3516 -0.2964 -0.2502 0.1842
-0.00954 0.1818 0.2825 -0.4595 -0.138 -0.003162 -0.04895 0.1522
0.1611 0.138 -0.03738 -0.2208 0.0803 -0.2024 0.2576 -0.1678

std.constant14 f2 [240, 1]
00000000: ea2c b631 57ba 01b1 08a9 1939 5eb1 0831
00000010: 11b4 26b0 70b7 07af 44b4 7111 17b4 ebae
00000020: e40c 08a7 a331 b7b3 3d39 4f2b 40af 23b4
00000030: 0b3c 07a7 ad2c 1bb1 ecad 4eb0 6ab4 81aa
00000040: 67b5 3a30 c529 6eac a0b3 3ab2 4b25 20b0
00000050: bf29 62ad 0c2d d1b3 69a8 f3b5 2db5 ad21
00000060: a5ad c7b1 6daf 57b0 8934 30b2 8124 e536
00000070: 2528 06b5 403c 75ad 12b9 7cb2 89b2 e6ab
00000080: ef28 52b8 0027 b2b8 53b8 5434 d0ad 0435
00000090: fdb9 1636 ecb0 c317 8634 d927 95b4 0a2a
000000a0: 6bb7 6626 4fb8 4db8 0ead a4b6 47b1 ce2c
000000b0: ab21 14b4 aeb0 c32b 87b7 6f34 6021 0dae
000000c0: 0db8 acb2 44b7 7725 37b8 bfaf 32b6 48a8
000000d0: 48b7 86b4 24a4 d92c 22b4 52b8 d8b4 06b4
000000e0: 12b9 d49c 5a2f 95a8 cfa2 06b7 98ab 3bb6
000000f0: 0635 beb4 b4ac ae30 c9b4 c1b5 9db0 82b4
00000100: 0d34 44a1 96a8 112c 51b4 9e32 82b1 0b33
00000110: 8330 9ab3 5935 b2ae 8ab5 6135 38b4 3931
00000120: 6037 d8b4 4db4 8633 55b2 be32 1d34 75b4
00000130: d232 6030 7134 7da5 4633 c5b4 a9b4 6833
00000140: 3d35 6cb2 8633 93b1 d434 3cb3 f22c 002e
00000150: aa34 c333 4fb3 0eb4 0fb5 3034 31af 08b5
00000160: 7934 e131 e436 04b4 ff30 7125 46b6 00b0
00000170: 07b3 f93a cbb0 402c 04a8 95a8 a4b6 a7ae
00000180: 2db3 8fb1 f3b4 a9af c22e b4a9 cd32 70b4
00000190: 583a 3c2f 5889 62b1 433b 8eab b4af 3d30
000001a0: 2ea6 f3b4 8bb4 fea4 38b5 7931 47b1 02b5
000001b0: b5b4 09b1 09b0 76af c228 e0ae 20b3 77af
000001c0: bb33 ebb2 a8b1 abab 1eb3 9cb5 76ab 12b3
000001d0: 1233 9fa9 792b 0237 142f 85ad dd3c 0fad
0.0768 0.1785 -0.7925 -0.1564 -0.0393 0.637 -0.1677 0.1572
-0.2542 -0.1296 -0.4648 -0.1098 -0.2666 0.000664 -0.2556 -0.1081
0.0002985 -0.02747 0.1761 -0.2411 0.655 0.0571 -0.1133 -0.2585
1.011 -0.02745 0.07306 -0.1595 -0.0925 -0.1345 -0.276 -0.0508
-0.3376 0.1321 0.04507 -0.0692 -0.2383 -0.1946 0.02068 -0.1289
0.0449 -0.0841 0.07886 -0.2443 -0.03445 -0.3718 -0.3235 0.011086
-0.0882 -0.1805 -0.116 -0.1356 0.2834 -0.1934 0.0176 0.431
0.03238 -0.314 1.0625 -0.08527 -0.634 -0.2026 -0.2042 -0.0617
0.03854 -0.54 0.02734 -0.587 -0.5405 0.2705 -0.0908 0.3135
-0.7485 0.3804 -0.1538 0.001895 0.2827 0.03065 -0.2864 0.04718
-0.4636 0.025 -0.5386 -0.5376 -0.079 -0.415 -0.1649 0.0751
0.01107 -0.255 -0.1462 0.06064 -0.4705 0.277 0.0105 -0.09454
-0.5063 -0.2085 -0.454 0.02135 -0.527 -0.12103 -0.3872 -0.03345
-0.455 -0.2827 -0.01617 0.07574 -0.2583 -0.54 -0.3027 -0.2515
-0.634 -0.004715 0.11487 -0.0358 -0.0133 -0.439 -0.05933 -0.3894
0.314 -0.2964 -0.0735 0.1462 -0.299 -0.3596 -0.1442 -0.2817
0.2532 -0.010284 -0.03583 0.06354 -0.2698 0.2068 -0.1721 0.2201
0.141 -0.2375 0.3342 -0.1046 -0.3462 0.3362 -0.2637 0.1632
0.461 -0.3027 -0.2688 0.2351 -0.1979 0.2107 0.257 -0.2786
0.2131 0.1367 0.2776 -0.02144 0.2273 -0.298 -0.2913 0.2314
0.3274 -0.2007 0.2351 -0.1742 0.3018 -0.2261 0.0773 0.09375
0.2915 0.2426 -0.2284 -0.2534 -0.3162 0.2617 -0.11237 -0.3145
0.2795 0.1837 0.4307 -0.251 0.1561 0.02126 -0.392 -0.125
-0.2196 0.8716 -0.1498 0.0664 -0.03137 -0.0358 -0.415 -0.10394
-0.2242 -0.1737 -0.3093 -0.1197 0.1056 -0.04456 0.2125 -0.2773
0.793 0.11304 -0.0001631 -0.1682 0.9077 -0.05902 -0.12036 0.1324
-0.02414 -0.3093 -0.284 -0.0195 -0.3262 0.171 -0.1649 -0.313
-0.2942 -0.1573 -0.1261 -0.1166 0.03717 -0.1074 -0.2227 -0.11664
0.2416 -0.2162 -0.1768 -0.0599 -0.2224 -0.3506 -0.0583 -0.221
0.221 -0.0439 0.05838 0.438 0.1106 -0.08624 1.216 -0.07904

lstm_4/lstm_cell_1/bias1 f2 [240]
00000000: bbb4 8cb6 cdb6 5eb6 4830 35b5 05b8 79b7
00000010: d8b8 b5b0 f6b7 60b2 49b8 43b8 f3b6 9cb7
00000020: a4b7 11b8 35b5 c7b7 05b7 11b9 8cb7 71b8
00000030: 45b8 52b4 4ab8 24b9 7bb8 27b7 67b8 a0b8
00000040: 75b5 5db7 64b5 01b8 13b8 a6b7 25b8 73b7
00000050: 4ab9 34b2 22b8 ebb7 abb8 9fb8 eab7 302e
00000060: 36b8 fab7 a2b8 adb5 79b5 f6b8 6ab8 bdb7
00000070: 65b4 7fb7 bdb2 f3b7 2f3c ae38 f438 193b
00000080: 452f ff35 e537 3038 9138 953c de37 6b3c
00000090: 4f37 8a3a 0c3b 6338 3939 8139 743b 4036
000000a0: b73a 5d37 dc38 8839 253a 183c cd36 fa36
000000b0: f138 fa3a 5038 9d37 a23b 473b 563b d339
000000c0: a536 953a 6736 5b38 4638 3c3a f039 193a
000000d0: 6239 6e39 4339 eb3c de34 723a a836 063c
000000e0: 4f3b 9337 0238 3e39 183c ae39 873c 4539
000000f0: cea4 e2a3 62a3 7b24 be20 6c1f 39a0 bc22
00000100: 4599 2da3 efa3 6ea2 059f ed23 c11c 55a6
00000110: 0b9e 46a3 0aa5 889d eca7 9c1d 6722 6423
00000120: 33a0 6da4 17a4 4316 339d b693 708e ac22
00000130: 4ba0 c1a3 cb20 0d21 64a5 e19b b423 3a99
00000140: cb9e 4924 fd24 28a1 4125 3225 171f b39f
00000150: 0e9f 711e ab9d dfa3 be21 28a0 2398 90a6
00000160: 2ca6 2c24 13a4 571c e3b4 95b6 9ab6 5bb6
00000170: c51b 83b5 a4b7 48b7 cab8 b5b0 38b8 b1b2
00000180: 5eb8 42b8 cab6 beb7 e5b7 25b8 36b5 c4b7
00000190: 0fb7 08b9 e1b7 92b8 69b8 84b4 20b8 16b9
000001a0: 9eb8 acb6 75b8 b6b8 6cb5 53b7 6eb5 eeb7
000001b0: 27b8 b7b7 2fb8 8db7 48b9 d8b3 29b8 15b8
000001c0: 8cb8 9bb8 e0b7 d82a 2cb8 0db8 98b8 c1b5
000001d0: 79b5 feb8 46b8 feb7 63b4 dcb7 0fb3 d8b7
-0.2957 -0.4092 -0.425 -0.398 0.1338 -0.3254 -0.5024 -0.467
-0.6055 -0.1471 -0.4976 -0.1992 -0.5356 -0.5327 -0.4343 -0.4756
-0.4775 -0.5083 -0.3254 -0.486 -0.4387 -0.6333 -0.4717 -0.555
-0.5337 -0.27 -0.536 -0.6426 -0.56 -0.447 -0.5503 -0.578
-0.341 -0.4602 -0.337 -0.5005 -0.5093 -0.478 -0.518 -0.4656
-0.661 -0.1938 -0.5166 -0.4949 -0.5835 -0.5776 -0.4946 0.0967
-0.5264 -0.4985 -0.579 -0.3547 -0.342 -0.62 -0.552 -0.4836
-0.2747 -0.4685 -0.2106 -0.4968 1.046 0.585 0.619 0.887
0.1136 0.3748 0.4934 0.5234 0.571 1.1455 0.4917 1.1045
0.4568 0.8174 0.881 0.5483 0.653 0.688 0.9316 0.3906
0.8394 0.4602 0.6074 0.6914 0.768 1.023 0.425 0.436
0.6177 0.872 0.539 0.4758 0.954 0.9097 0.917 0.728
0.4153 0.8228 0.4001 0.5444 0.534 0.7793 0.742 0.762
0.673 0.6787 0.6577 1.2295 0.3042 0.8057 0.416 1.006
0.9136 0.4734 0.501 0.6553 1.023 0.71 1.132 0.6587
-0.01877 -0.015396 -0.01442 0.0175 0.00926 0.007248 -0.00825 0.01315
-0.002573 -0.014015 -0.015495 -0.01256 -0.006855 0.01548 0.004642 -0.02473
-0.0059 -0.014206 -0.01968 -0.0054 -0.03094 0.005478 0.012505 0.014435
-0.0082 -0.01729 -0.01598 0.001529 -0.005077 -0.0009413 -0.000393 0.01303
-0.008385 -0.015144 0.00936 0.009865 -0.02106 -0.003847 0.015045 -0.002552
-0.006634 0.01674 0.01949 -0.01007 0.02052 0.0203 0.006924 -0.00752
-0.00689 0.00629 -0.005535 -0.01537 0.011215 -0.00812 -0.00202 -0.02563
-0.02411 0.0163 -0.01591 0.00424 -0.3054 -0.4114 -0.4126 -0.3972
0.003794 -0.3445 -0.4775 -0.455 -0.5986 -0.1471 -0.5273 -0.2091
-0.546 -0.532 -0.4243 -0.484 -0.4934 -0.518 -0.3257 -0.4854
-0.4412 -0.629 -0.4924 -0.5713 -0.5513 -0.2822 -0.5156 -0.6357
-0.577 -0.417 -0.557 -0.589 -0.3389 -0.4578 -0.3394 -0.4956
-0.519 -0.4822 -0.523 -0.472 -0.66 -0.2451 -0.52 -0.5103
-0.5684 -0.5757 -0.4922 0.05347 -0.5215 -0.5063 -0.574 -0.3596
-0.342 -0.624 -0.534 -0.4995 -0.2742 -0.4912 -0.2206 -0.4902

std.constant23 f2 [240, 60]
00000000: 5890 dab2 7230 b031 de22 d730 6524 f932
00000010: c233 d1ae 65b0 41ad 6d30 b430 d82b 19b1
00000020: 5fb3 28b1 95ae cbad bdac 3bb0 bf27 e6b1
00000030: f5b3 08aa d930 53b4 4cb1 3f2a 8231 bab2
00000040: 5bac 19b0 3530 bc32 c1ad 70a7 e131 332f
00000050: e8aa 6733 fc2b 28a8 7230 4f26 2731 b333
00000060: beb2 e3a9 b3af b5ae a131 90a9 2c31 5c29
00000070: 98ae f433 f8b2 7f30 b535 f6b5 6b3a 49b1
00000080: 9538 f834 d1b6 2e39 3534 4233 baa5 fa34
00000090: 8337 09b5 172b b9b2 bdb4 1232 e12c 93b9
000000a0: 41a9 21b4 40a9 6629 9529 9035 c837 85af
000000b0: 2b1a 9599 7d35 31b6 ca31 4d33 d22c 5531
000000c0: 3fb5 0f29 c129 553b 8432 2333 c0b0 7c1b
000000d0: ac34 7c24 ac31 3539 d7b5 1329 2eb1 8733
000000e0: e135 e7b2 2e32 e825 1d24 dd30 de1d 6d2e
000000f0: ae38 2028 d52c 6ab5 9036 b321 4daf 3d2d
00000100: d8a6 7a38 8531 5038 ec2c 99b6 e1b5 3518
00000110: 9926 4836 cf34 75b1 3c35 c82f 92b4 ce33
00000120: 6733 f834 1797 b5a7 b533 05b1 5e30 f8a0
00000130: c338 e737 c5b3 67b4 deb0 6a34 d2aa 7734
00000140: 0dae 52b1 c8b4 f735 7ab0 96af 302d af34
00000150: a7ac 7e34 2ab2 f632 6eb3 212d dab0 629e
00000160: 9e37 52b3 8136 9fb3 69a9 3aa7 0630 0d2c
00000170: eb30 a330 16b0 ed2f a72c 6db1 eeb2 86a5
00000180: 9f2e 99a5 a729 5caf 70b0 c5b1 17b0 65ae
00000190: 60b0 0fac 9a31 6aa4 9dae abad 5c2a 04a8
000001a0: fbad 1727 5b31 32a7 fcab 89ad 7733 eda6
000001b0: cfb3 5499 3b2e 2430 5f2b f12a 9729 45b1
000001c0: 372d 20ad c72e 9627 c8aa b3a5 03b0 2426
000001d0: b332 19ad 2a2c 3d2a 60ac 1630 fbb5 932e
000001e0: cb31 00b6 9339 daa6 7937 b236 3db6 f639
000001f0: 9234 7431 3c32 5830 9f37 f1b6 0638 08a0
-0.0005302 -0.2141 0.1389 0.1777 0.01341 0.1512 0.01717 0.2179
0.2424 -0.1065 -0.1373 -0.0821 0.1383 0.147 0.06128 -0.1593
-0.2303 -0.1611 -0.10284 -0.0905 -0.07404 -0.1322 0.03026 -0.1843
-0.2487 -0.04712 0.1515 -0.2703 -0.1655 0.0488 0.1721 -0.2102
-0.06805 -0.128 0.1315 0.2104 -0.0899 -0.02905 0.1837 0.1125
-0.05396 0.2313 0.06238 -0.03247 0.1389 0.02464 0.161 0.2406
-0.2107 -0.046 -0.1203 -0.1048 0.1759 -0.04346 0.1616 0.04187
-0.103 0.2485 -0.2178 0.1405 0.3567 -0.3726 0.8022 -0.1652
0.5728 0.3105 -0.426 0.6475 0.263 0.2268 -0.02237 0.311
0.4695 -0.3147 0.0554 -0.2101 -0.2961 0.1897 0.07623 -0.697
-0.04105 -0.258 -0.04102 0.04218 0.0436 0.3477 0.4863 -0.1175
0.003012 -0.002726 0.343 -0.387 0.1809 0.2281 0.0753 0.1666
-0.328 0.03952 0.04495 0.9165 0.2036 0.223 -0.1484 0.003654
0.292 0.01752 0.1772 0.651 -0.365 0.03964 -0.1619 0.2352
0.3674 -0.2157 0.1931 0.02307 0.01607 0.152 0.00573 0.1004
0.585 0.03223 0.0755 -0.3384 0.4102 0.01113 -0.1141 0.08185
-0.02673 0.5596 0.1725 0.539 0.0769 -0.4124 -0.3674 0.002054
0.02577 0.3926 0.3005 -0.1705 0.3271 0.1216 -0.2856 0.2439
0.2313 0.3105 -0.001731 -0.0301 0.2408 -0.1569 0.1365 -0.009705
0.595 0.494 -0.2428 -0.2751 -0.1521 0.276 -0.05328 0.279
-0.09454 -0.1663 -0.2988 0.3728 -0.1399 -0.1185 0.08105 0.2927
-0.0727 0.2808 -0.1926 0.2175 -0.2322 0.08014 -0.1516 -0.006233
0.476 -0.2288 0.4065 -0.2382 -0.04227 -0.02823 0.1257 0.0633
0.1537 0.1449 -0.1277 0.12384 0.0727 -0.1696 -0.2166 -0.02158
0.10345 -0.02187 0.04416 -0.115 -0.1387 -0.1803 -0.1278 -0.0999
-0.1367 -0.0634 0.175 -0.01724 -0.10333 -0.08856 0.04968 -0.03137
-0.09344 0.0277 0.1674 -0.0281 -0.06238 -0.0865 0.2333 -0.02705
-0.244 -0.002602 0.09735 0.1294 0.0576 0.05423 0.04367 -0.1647
0.0815 -0.0801 0.1059 0.02963 -0.05298 -0.02226 -0.1254 0.02399
0.2094 -0.07965 0.06506 0.04874 -0.06836 0.1277 -0.3738 0.1027
0.181 -0.375 0.697 -0.02676 0.467 0.4185 -0.39 0.745
0.2856 0.1704 0.1948 0.1357 0.4763 -0.4338 0.503 -0.00787

std.constant24 f2 [240, 60]
00000000: 6e33 e4b4 9824 e32f b6b2 60b4 c233 41b1
00000010: 372d 1c30 90b3 7f34 e2a3 80b0 cc2e da27
00000020: 3ab0 74b2 8234 2928 06b0 f798 32b3 622a
00000030: 1335 83b2 60b6 3b25 a432 5b30 4032 5823
00000040: e32c 65b5 6834 0ab2 ceac 3ab4 6fb1 d532
00000050: 0c2c d62d 70ac 6f2e 2128 1023 75b5 b735
00000060: cd2e d4ae 17a0 11b1 fab2 232b bb2d 0db0
00000070: 802e 2eaf 742d ea2c 59b2 eaaf 6eb6 6c30
00000080: ab32 8b35 8635 0731 9128 8135 a8b9 d73b
00000090: e4b1 b1b8 b438 d2b5 5133 5324 5a31 592d
000000a0: 0f34 b8b6 a8b0 fbb2 45b3 a735 76b7 aa35
000000b0: 5738 a735 53ad 5031 9e25 9436 02b6 dfb2
000000c0: 72aa 30ac 94ac b2b2 9db7 c5b1 a4b6 cc2a
000000d0: 7335 93b1 01b8 a936 18b6 10ae 392b 65b3
000000e0: c832 40b0 9e33 b2b0 13b3 3bb6 55b6 ee34
000000f0: 77ad 0cb2 8eb5 9238 c735 6035 0435 b4b4
00000100: 3732 3837 d5ad 4739 61b4 c8b2 f4a0 8a33
00000110: 4634 56a9 0cb6 35b5 c532 07b4 c0b2 a4a9
00000120: 3db7 bb2e 4eb5 8538 c9a8 0e35 1a1a 7f2c
00000130: 9a28 982c e4b0 0cb7 43a4 a831 b3b0 5ca6
00000140: 10b5 d1b2 38a6 8aaf f430 e3b4 c8b3 d639
00000150: 3cb1 82a7 70b2 05b2 d42e 7ab2 b135 8bb2
00000160: dfb4 18ac 3eb5 8526 a830 3d2c adac d02f
00000170: a9ae 89ab c8a7 bfa6 27b1 29a6 06ac 8f38
00000180: f7aa cab4 bf1b 64a4 ad2a 5aae dd2c 7429
00000190: 102d d215 4824 17aa 4c31 37ac afaf 402c
000001a0: d12d 022e 06a4 a932 1ea8 a52a 512d 8eb2
000001b0: faa8 9f26 a9af 552e dd2e 90b0 692d 4f32
000001c0: d922 dfac 101c 14ad 432e 95a8 a4a1 8cad
000001d0: a1a9 e3a1 fb2c 5baf 3925 45aa 3aad f128
000001e0: f5bb ab3d 99b8 80b4 253a 843b 492f 763a
000001f0: 6a30 622b 21b7 3c38 6a2b 45b7 4f3e beb5
0.2322 -0.3057 0.01794 0.1232 -0.2097 -0.2734 0.2424 -0.1642
0.0815 0.1284 -0.2363 0.281 -0.015396 -0.1406 0.1062 0.03067
-0.1321 -0.2017 0.2817 0.0325 -0.1257 -0.002424 -0.2249 0.04987
0.3171 -0.2035 -0.3984 0.02043 0.2075 0.1361 0.1953 0.01434
0.07635 -0.3372 0.2754 -0.1887 -0.0751 -0.2642 -0.1698 0.2135
0.06323 0.0912 -0.06934 0.1005 0.03226 0.013794 -0.341 0.3572
0.10626 -0.1067 -0.00799 -0.1583 -0.218 0.05576 0.08954 -0.1266
0.10156 -0.1122 0.0852 0.0768 -0.1984 -0.12366 -0.4019 0.1382
0.2084 0.3464 0.3452 0.1571 0.03568 0.344 -0.707 0.98
-0.1841 -0.5864 0.588 -0.3638 0.2286 0.01689 0.1672 0.08356
0.2537 -0.42 -0.1455 -0.2181 -0.2272 0.3533 -0.4663 0.354
0.5425 0.3533 -0.0832 0.166 0.02194 0.4111 -0.3755 -0.2147
-0.05035 -0.0654 -0.07153 -0.2092 -0.4758 -0.1803 -0.415 0.0531
0.3406 -0.1742 -0.5005 0.4163 -0.3809 -0.0947 0.05643 -0.2311
0.2119 -0.1328 0.238 -0.1467 -0.2211 -0.3894 -0.3958 0.308
-0.0854 -0.189 -0.3472 0.5713 0.361 0.336 0.3135 -0.294
0.1942 0.4512 -0.0911 0.6597 -0.2737 -0.2119 -0.009674 0.2356
0.267 -0.0417 -0.378 -0.3254 0.2115 -0.2517 -0.2109 -0.04407
-0.4524 0.10516 -0.3315 0.565 -0.03738 0.316 0.00298 0.07025
0.03595 0.0718 -0.1528 -0.4404 -0.01665 0.1768 -0.1469 -0.02484
-0.3164 -0.213 -0.02429 -0.1178 0.1548 -0.3054 -0.2432 0.7295
-0.1636 -0.02933 -0.2012 -0.1881 0.1067 -0.2024 0.3557 -0.2045
-0.3044 -0.06396 -0.3276 0.02547 0.1455 0.0662 -0.07306 0.1221
-0.10406 -0.05887 -0.0304 -0.02635 -0.161 -0.02406 -0.06287 0.57
-0.0544 -0.2993 0.003782 -0.01715 0.05215 -0.09924 0.076 0.0426
0.0791 0.001421 0.01672 -0.04758 0.1655 -0.06586 -0.12006 0.0664
0.0909 0.0939 -0.01572 0.2081 -0.03217 0.0519 0.08307 -0.2048
-0.03888 0.02586 -0.1197 0.09894 0.10724 -0.1426 0.08453 0.1971
0.013374 -0.0761 0.003967 -0.07935 0.09784 -0.0358 -0.01102 -0.0867
-0.04398 -0.0115 0.0778 -0.1149 0.0204 -0.04898 -0.08167 0.0386
-0.9946 1.417 -0.5747 -0.2812 0.768 0.9395 0.11383 0.8076
0.138 0.05768 -0.4456 0.5293 0.05792 -0.4543 1.577 -0.359
